mat_model/model_name_mc/cap_model.pth (torch, 15196 bytes, 5 tensors)

layer1.weight f4 [64, 15]
000000 d1 e2 e6 3c 02 e1 76 3b c0 59 52 3d 7d fd 22 be
       0.028184326 0.0037670736 0.051355124 -0.1591701
000010 8c b8 7e 3e bb e9 e9 3d f5 94 44 3e 60 30 e6 3c
       0.24875087 0.11421534 0.19197448 0.028099239
000020 e2 63 94 3e ef 86 90 bd 81 7b 4a 3e 7c e7 0a 3e
       0.28982455 -0.070569865 0.19773676 0.13564867
000030 cc 07 90 3d 83 62 72 3e a8 04 68 3e 43 4b 1f 3e
       0.07032737 0.23670392 0.22658026 0.15556054
000040 98 8d ff be 31 31 3b 3e 46 97 85 be b1 6a 89 bc
       -0.49912715 0.18280484 -0.26091975 -0.016774507
000050 1a 6a 4f 3d 79 ce 0b be 47 60 75 be b0 91 a4 3c
       0.050638296 -0.13652982 -0.23962508 0.020089
000060 23 76 e6 3c 3b 40 24 3e d1 03 35 be a6 13 fa bd
       0.028132504 0.16040127 -0.17677237 -0.12210779
000070 dd f0 1a be 9d 4c 43 be 86 52 01 be 0d 51 03 3e
       -0.15130945 -0.19072194 -0.12629136 0.12823887
000080 9d e5 d6 3d 69 a8 05 be 33 a2 8b bd f8 c2 68 3c
       0.10493014 -0.13052525 -0.068180464 0.01420664
000090 4e 3e 16 be ab ba 71 be 7b 68 d1 3e b0 11 76 be
       -0.14672205 -0.23606364 0.40900025 -0.24030185
0000a0 a1 2f 40 3e dc e4 15 be c4 76 bc 3d 66 55 2c be
       0.18768169 -0.14638084 0.0920234 -0.16829452
0000b0 d6 46 01 be 94 d7 62 3e 4b e9 7b bd 3e 3b 59 3e
       -0.12624678 0.22152549 -0.061501782 0.21214005
0000c0 5a 2c 9b bb 0e 8c 40 3e dd 48 df 3d dd e2 76 bd
       -0.0047355117 0.18803427 0.109025694 -0.060274947
0000d0 49 e0 82 3e 66 9a 4d 3d d5 dd be 3c f6 25 79 3e
       0.2556174 0.050196074 0.023299137 0.24330887
0000e0 8b 34 50 3e fd 51 64 bd 72 2a 2a be 47 8e b6 bd
       0.20332544 -0.055742253 -0.16617754 -0.08913856
0000f0 30 0b da 3d d0 60 a0 3d 47 1b df 3c 80 db 0e be
       0.10646665 0.078309655 0.027234687 -0.1395092
000100 f3 d8 58 3d fa 43 9b bd 0e 4b 08 be 57 20 84 3c
       0.052941274 -0.07581325 -0.13309881 0.016128702
000110 0f ef 59 3e bd a8 ae bd 88 60 15 3d ce d0 ff 3d
       0.212826 -0.08528278 0.036469012 0.12490998
000120 25 6c f7 3d 84 21 1e 3e 38 6a 8d bd c4 55 85 3e
       0.12081174 0.15442473 -0.06905025 0.26041996
000130 4b 43 79 3d 50 29 80 3d ad 89 b8 bd b7 31 17 be
       0.06085519 0.0625788 -0.090106346 -0.14765058
000140 46 0a fe bd 0d 57 bd 3d 88 11 83 3d 32 1d a6 3d
       -0.12404303 0.09245119 0.06399828 0.08111037
000150 79 43 37 3e 53 74 e1 bc 9f 88 1c be be b9 5b be
       0.17896833 -0.027521288 -0.15286492 -0.21457574
000160 21 e5 2d be 23 05 44 3e d8 b7 a2 3d ed bd 0e 3e
       -0.16981937 0.19142585 0.07945222 0.13939638
000170 f7 06 2e 3e f0 0c 93 3e cb c2 85 3e 9c b1 b0 bd
       0.16994844 0.28720808 0.26125178 -0.08627626
000180 7d e5 0f be 38 66 07 be dd 9b 95 bd f3 75 db 3d
       -0.14052387 -0.13222587 -0.07305119 0.107158564
000190 fa 77 1a be 92 d2 7d 3e fd 86 5a bd 64 48 68 bd
       -0.1508483 0.24787357 -0.05335139 -0.056709662
0001a0 1b 3f bc bb 05 56 2e 3d 96 59 2d 3e 3c ed dd 3d
       -0.0057448274 0.042562503 0.16928706 0.108362645
0001b0 be 1c 80 bd 87 cf 0c be d0 bd 8f be e6 42 55 3e
       -0.06255482 -0.1375104 -0.28074503 0.20826301
0001c0 ee dc 15 bd 96 ee 28 3e 65 ee 90 bd 31 be 21 bc
       -0.036587648 0.16497263 -0.0707672 -0.009872005
0001d0 fe 09 67 3d 12 37 ab 3d 76 25 09 3b 79 d4 8b bd
       0.056406014 0.08360113 0.002092687 -0.06827635
0001e0 29 c8 2e 3e 6c 2f d9 bd 7b 78 78 3b 33 b3 0e 3e
       0.17068543 -0.10604748 0.0037913609 0.13935547
0001f0 e6 80 4f 3e 08 2c e4 3d 99 1a 4e 3e 56 5f 5b be
       0.20264015 0.11141211 0.20127334 -0.21423087
000200 7f 21 38 3e 61 de d1 3d a4 7d 7f 3d 12 65 f1 bc
       0.17981528 0.102474935 0.06237568 -0.02946714
000210 6e 2c 0c 3d cd c1 47 3e 36 60 47 3e 36 ca 7a 3c
       0.03422206 0.19507523 0.19470295 0.015307
000220 a7 b6 44 bb ff b4 5a be 35 40 5f 3c 7a ee b4 3d
       -0.0030016096 -0.21358107 0.013626148 0.08834548
000230 15 6b 58 be 73 ac ec bd f3 9a 35 3c 64 48 52 3c
       -0.21134599 -0.115563296 0.011084306 0.012834642
000240 84 b8 f5 3d 95 c0 80 be 35 39 4d 3e f0 22 a8 3d
       0.11998084 -0.25146928 0.20041354 0.08209789
000250 62 ff 79 3d 2b 46 2c be de c3 48 3e c9 6c d9 3d
       0.061034568 -0.16823642 0.19605967 0.10616452
000260 5f 5d 25 be 8c 75 57 be 96 c0 15 be fe 95 54 3d
       -0.161489 -0.21040934 -0.14624247 0.051900856
000270 26 18 8c bd 25 ca ac bb fb 81 83 be 49 21 a6 3c
       -0.068405434 -0.005273121 -0.25685105 0.020279543
000280 86 6e a6 bd b7 58 d9 3d 57 63 49 3e 4c f6 43 bd
       -0.081265494 0.10612624 0.19666801 -0.04784231
000290 82 8a ad bd 1e 67 94 3e 82 3e aa 3e ec 2e 75 bb
       -0.08473684 0.28984922 0.33250815 -0.0037412
0002a0 01 a8 f2 be 05 52 bd 3d ff 2f 84 3e ac 1e b4 bd
       -0.47393802 0.092441596 0.25817868 -0.08794913
0002b0 50 9a ad be 2f 66 42 bd dc 24 86 be 82 90 50 bd
       -0.33906794 -0.04746073 -0.26199996 -0.050919063
0002c0 76 45 5c 3e a1 d9 aa 3e 7f 32 c1 3d a1 40 15 3e
       0.21510872 0.33369163 0.094334595 0.14575435
0002d0 96 e9 c5 3d d1 84 0f be 5d c5 1b be b0 31 49 be
       0.096636936 -0.14015509 -0.15212007 -0.1964786
0002e0 db ae 37 3e 01 8a 74 bd 8b 98 14 3e 1c 41 87 3e
       0.17937796 -0.059701923 0.14511316 0.26416862
0002f0 f3 9e 88 3e 58 c0 2a 3e 9f 10 68 3e 2b 29 50 3e
       0.2668377 0.16674936 0.2266259 0.20328204
000300 d2 61 fa 3d 5a 3d 8d 3e 23 56 66 be 80 29 59 3e
       0.12225689 0.2758587 -0.22493796 0.21207237
000310 60 11 45 be 4b 55 7f 3e 08 0b 50 3c 1f 70 22 bd
       -0.1924491 0.2493488 0.012697943 -0.03965771
000320 eb ad cb bd 40 33 1d be 01 36 2d 3d 9d fa 74 3e
       -0.099452816 -0.15351582 0.04228783 0.23923726
000330 07 cf da bd b5 28 b3 bd 20 06 18 be dc e5 bd bd
       -0.106840186 -0.087479986 -0.14846087 -0.09272358
000340 1e b9 07 3e 17 de a2 3d 78 9a 9a be 98 ea 40 3e
       0.1325421 0.079525165 -0.30195975 0.1883949
000350 a9 a8 29 bf 5a ee a5 3e dd fb 12 3e d4 7b 2a 3c
       -0.6627298 0.3240841 0.1435389 0.0104054995
000360 e4 a7 4f 3e 23 21 22 be 55 11 3e 3c 80 92 5f bd
       0.20278889 -0.15832953 0.011600812 -0.054583073
000370 bd d3 85 3e a6 bb 9c 3e 8c 6c d3 bd cc 42 60 3c
       0.26138106 0.30611914 -0.10323438 0.013687801
000380 92 cf ee 3d 5d 6c 9b 3b af a9 14 3e ec 83 02 3e
       0.11660685 0.0047431425 0.14517854 0.12745637
000390 1b 4f d6 3d ee e9 e7 3d 32 e0 a6 bd ea e8 a0 ba
       0.10464307 0.113239154 -0.081482306 -0.0012276445
0003a0 5e 05 7d be 7e eb 36 3e f1 53 45 be 7f 30 40 3d
       -0.24709079 0.1786327 -0.19270302 0.04692125
0003b0 df c7 63 3d cf 95 cf 3d 4d 56 67 3e 9f 6f 9f 3d
       0.055610534 0.101359956 0.22591515 0.07784962
0003c0 a7 2b bb bc 02 a8 1b 3e a9 31 22 bd 72 87 72 3e
       -0.022847963 0.15200809 -0.03959814 0.23684481
0003d0 08 00 23 bd 08 64 e4 bc 4f 22 79 3e c1 65 4c 3e
       -0.03979495 -0.02787973 0.24329494 0.19960691
0003e0 f6 e4 85 bd d4 51 d5 3a 8b 90 86 3e 9f 25 4c be
       -0.065378115 0.0016274997 0.26282153 -0.19936226
0003f0 1d aa 31 be 7a 9a a8 bd ec c8 52 3e 3d 17 54 be
       -0.1735005 -0.08232589 0.20584458 -0.2071199

layer1.bias f4 [64]
000000 14 d0 80 3e be 9a 3d 3d 34 ce 98 bd b1 e6 8f 3e
       0.2515875 0.04629015 -0.07461205 0.2810569
000010 a5 bc 72 3e 45 eb 61 3e 3f 1b 89 3d 4b ca 92 3e
       0.23704775 0.22062404 0.0669465 0.28669962
000020 32 9f 46 be 20 5a c7 3d c9 44 83 be 0d 8d 9f 3b
       -0.19396666 0.09733987 -0.25638416 0.0048691095
000030 ad 4b 43 3d c6 9b 88 3e 91 8f cd bc 01 21 1e 3e
       0.047679592 0.26681346 -0.025092872 0.15442277
000040 68 d0 8e 3e 49 0b 2c 3e d8 15 c8 3d 4e 8e 18 3d
       0.27893376 0.1680118 0.09769791 0.037245087
000050 0a 26 49 be 73 a5 69 be 0d 3c 0d be 3f c3 43 3e
       -0.19643417 -0.2281702 -0.13792439 0.19117449
000060 18 fd 70 3e 21 0a ce 3c 89 a0 34 be 84 00 23 be
       0.23534048 0.025151314 -0.17639364 -0.15918165
000070 a4 93 c6 3d 4a 52 70 3e 4e d8 05 be 71 1f 8d 3b
       0.09696129 0.23468891 -0.13070795 0.0043067266
000080 54 0d 5e 3e 44 60 a7 bd 96 38 a3 bd 91 d8 1b 3d
       0.21684772 -0.08172658 -0.07969777 0.03804833
000090 e7 fa 3f 3e d9 23 4c bd 2f 93 67 3e a6 31 67 be
       0.18748055 -0.049838874 0.2261474 -0.22577533
0000a0 eb 70 a5 be 6e 26 de bd 8f ad 59 be 0a 97 f6 bd
       -0.32312712 -0.10847174 -0.21257614 -0.12040527
0000b0 89 67 bd bc 44 96 db bd af 14 76 be 75 73 51 3e
       -0.023120658 -0.1072202 -0.24031328 0.204542
0000c0 b8 09 62 be fe ea 83 3e ca 35 29 3e 28 c4 79 3e
       -0.2207402 0.25765222 0.16524425 0.24391234
0000d0 9c 19 2b bd 95 62 12 bd fc a9 82 3e 63 a6 20 bc
       -0.04177247 -0.035738546 0.25520313 -0.009805295
0000e0 d3 02 29 be 1e 58 5f be d2 0c e1 bd 18 c0 35 3d
       -0.16504984 -0.21810958 -0.109887734 0.044372648
0000f0 ff 63 8c 3e 9a cc da 3d 2a 44 62 3e 5d 9d 14 be
       0.2742004 0.10683556 0.22096315 -0.14513154

layer2.weight f4 [32, 64]
000000 b5 dd 94 bd 89 78 6e bc 1c 75 f6 3d 2c 85 5c bd
       -0.0726885 -0.014555105 0.120340556 -0.05383794
000010 ae 74 d6 bd 12 06 91 3d 35 ee 5a bd ba 14 b1 3b
       -0.10471474 0.07081236 -0.05344983 0.005404082
000020 b5 fa 86 bd a2 b4 c6 3d bc 84 0a bd 75 90 dc bd
       -0.06590787 0.09702422 -0.03381799 -0.107697405
000030 b4 5e 86 bd 93 f8 4f bc b2 d7 57 bc b1 38 f9 3c
       -0.06561032 -0.012693542 -0.013173984 0.03042254
000040 f0 ad a4 3d c0 83 81 bd 0a 69 76 3d 74 f8 6b bd
       0.080409884 -0.063239574 0.060158767 -0.05760999
000050 c8 5a f3 bd 62 41 a9 bd a7 fb 59 3c ce c7 7a 3b
       -0.118825495 -0.08264424 0.0133046275 0.0038266066
000060 10 93 86 3d 50 c8 e1 bd 02 d7 5a 3b d0 df c9 bd
       0.06571019 -0.11024535 0.0033392315 -0.09857142
000070 08 cc 74 bd 73 4a 9a bc a0 42 85 bd 64 4d af be
       -0.059764892 -0.018834328 -0.06506848 -0.34238732
000080 e5 c5 02 be 82 92 8d 3c 70 26 fd 3c a8 16 ed bc
       -0.12770803 0.017281774 0.030902117 -0.028941467
000090 6f 17 66 bc b1 df 1a bc 7f b7 bb 3d 28 c1 b4 be
       -0.014043673 -0.009452746 0.091658585 -0.35303617
0000a0 5e f3 39 3f 11 46 e1 bd 77 1a a4 bd 51 fb 5c 3b
       0.72636974 -0.10999692 -0.0801286 0.0033719132
0000b0 43 20 9f 3d 18 45 ed bd e9 fb 90 3d ed 49 bd bd
       0.07769825 -0.11585444 0.07079298 -0.09242616
0000c0 d8 2f ce bc 44 21 dc 3d c9 2f c6 3c df 39 30 3c
       -0.025169298 0.107485324 0.024192708 0.010755985
0000d0 c8 e6 7b bd f4 fe 91 be e9 7f cd 3d 00 fe 06 3d
       -0.061499387 -0.28514826 0.100341626 0.032957077
0000e0 ca 92 78 be 4e 79 4d 3d 4c 79 dd bb c9 9f 8c 3d
       -0.24274746 0.050164513 -0.0067588445 0.06866414
0000f0 b3 6c da 3c fc 40 93 bd 1b 64 90 3d a8 fe 88 bd
       0.02666316 -0.07190129 0.070503436 -0.06689197
000100 00 e0 65 38 de c9 ad bd b4 89 18 3d 9e b7 c9 bd
       5.480647e-05 -0.08485769 0.0372407 -0.09849475
000110 d8 6e 3a bd 50 5c 48 bc 4c 8e 33 bd b8 f1 72 bd
       -0.045515865 -0.01222904 -0.043836877 -0.059312552
000120 08 9c d2 3c 32 4a b0 bd 64 87 df 3d b4 55 fc 3d
       0.025709167 -0.08607902 0.109144956 0.12321034
000130 7c 24 0e bd dc e5 26 3d 18 b7 e8 bd 9c 32 fe bd
       -0.034702763 0.040746555 -0.11363047 -0.12411997
000140 e8 89 1c bd 00 90 b1 bc e4 7f 7b 3d b0 33 ad bd
       -0.038217455 -0.02167511 0.061401263 -0.08457124
000150 34 04 55 3d d0 2a 04 3c 9c 58 57 bd dc 55 12 bd
       0.05200596 0.008066848 -0.05257474 -0.035726413
000160 30 d1 25 bd b0 55 64 bc 28 99 a3 bc c0 57 19 3b
       -0.0404827 -0.013936445 -0.019970492 0.002339825
000170 04 9f 50 3d a4 ca 00 bd 4c 54 ec 3d b0 9a 47 3d
       0.0509329 -0.031443253 0.11539516 0.048731506
000180 a8 d0 ac bd 24 7f a0 bd 08 14 0e bd e8 60 66 3d
       -0.084382355 -0.0783675 -0.034687072 0.05624476
000190 14 51 be 3d b4 c8 25 bd e8 3c 77 bd fa f6 fb 3d
       0.09292808 -0.04047461 -0.06036082 0.123029664
0001a0 e8 7d 39 3d 40 51 87 bc 5a ce f1 bd 5c bc b8 bd
       0.04528609 -0.016518235 -0.118069366 -0.09020302
0001b0 30 70 9d 3d e8 2c ec 3c 60 59 3d bc 88 c1 b5 bc
       0.07687414 0.028830007 -0.011556953 -0.02218701
0001c0 c6 39 8a 3d b0 b4 fe 3c 00 18 ae b8 f2 48 c1 3d
       0.06749301 0.031092018 -8.301437e-05 0.09437741
0001d0 94 a3 6c bd 00 2f 6f 3a 04 1c 53 bd e8 8a b3 bc
       -0.057773188 0.000912413 -0.05154039 -0.021916822
0001e0 26 e5 c7 3d f2 49 b8 3d 48 47 ef 3d 9a c7 e9 3d
       0.097605035 0.08998479 0.11683518 0.11415024
0001f0 06 8a dc bd a0 b5 a4 bb 98 ac 86 3c 04 a2 b7 bd
       -0.107685134 -0.005026534 0.016439721 -0.08966449
000200 98 b7 87 bd 77 d0 5a bc 73 b0 22 bd 53 42 fb bd
       -0.066268146 -0.013355366 -0.039719056 -0.1226851
000210 34 69 5b bc 17 3d 06 3c e6 f8 cb bd 7b 90 35 3d
       -0.013391782 0.008193276 -0.09959583 0.04432724
000220 c9 13 37 3d 3e 55 df 3d d5 0f 16 bd ec 3e 17 bd
       0.044696603 0.109049305 -0.036636192 -0.03692524
000230 2a cb 59 3d 2b 58 cf bd 7b f1 5e bc ad b2 8e bd
       0.053172268 -0.101242386 -0.013607378 -0.069676735
000240 26 9a d6 3d c5 f0 c4 bd e6 66 bd 3c fc dc 1e bd
       0.1047862 -0.09616236 0.023120355 -0.038784966
000250 d0 67 ef 3c c0 4a b3 bc bf 7a dd 3d fc 5d 0a 3d
       0.029224306 -0.02188623 0.108144276 0.033781037
000260 a9 5d 0a be 3c 71 84 b9 ce 93 3a bc 9c d3 04 3c
       -0.13512291 -0.00025261368 -0.011387778 0.008107092
000270 2a db 8f bb 34 48 bf bc b5 44 c2 3d 93 ec 4e bd
       -0.00439014 -0.023349859 0.09485761 -0.050518584
000280 0d a0 5c 3d 20 46 8a bd 41 ea 9e bc 36 d2 ee bd
       0.053863574 -0.067516565 -0.01939881 -0.11661188
000290 f5 36 67 3c 69 26 af 3d db 3d e6 3d b3 99 15 3d
       0.014112224 0.08552248 0.11242267 0.036523532
0002a0 5c 4d 46 3d d4 9a 83 3d be 2b b4 3d 26 3c 87 3d
       0.04841362 0.064260155 0.08797406 0.06603269
0002b0 f4 21 88 3d 5d 52 9b 3d 1b 81 90 3d da 6a 42 bd
       0.06647101 0.07584069 0.07055875 -0.047465183
0002c0 50 a6 50 bc 6d 6c 27 bd 4a aa d8 bd d1 2f 07 be
       -0.0127349645 -0.040874887 -0.10579355 -0.13201834
0002d0 44 80 a7 3d f9 ff 0f bd 7d 94 be bd d5 b6 18 bd
       0.081787616 -0.035156224 -0.09305666 -0.037283737
0002e0 ff 7d c5 bd 7e 5b 38 bd 60 bd 59 bd a2 7c 69 3d
       -0.096431725 -0.04500913 -0.053159118 0.057003625
0002f0 f0 76 20 3d b3 4b d9 bd 9f 5e db 3c 17 fc f9 bd
       0.039175928 -0.106101416 0.026778517 -0.122062854
000300 42 a8 5d 3c 92 04 49 3d 7a 11 8b be 76 ee 39 3d
       0.013528885 0.049076624 -0.2716177 0.04539343
000310 4a e9 99 bd 95 2f a2 3d e6 e1 aa bc 88 a7 12 bd
       -0.075151995 0.07919232 -0.02085967 -0.0358043
000320 e2 72 c6 3d ad bc 02 bd 1f 01 a4 3d a7 83 a1 be
       0.09689881 -0.031918216 0.08008026 -0.31545755
000330 0f b8 25 3a 18 8d 6a 3c fe d2 d3 3d 77 f6 f0 bd
       0.00063216774 0.014315866 0.10342978 -0.117657594
000340 61 da 27 3d ae a8 b1 3c be 26 b5 3a 2c 68 06 3e
       0.040979747 0.021686878 0.001382075 0.13125676
000350 be 74 bf bd 6c e8 be bd d6 b6 3c 3e f9 a3 b6 3d
       -0.09348439 -0.09321675 0.18429121 0.08917994
000360 1d 21 02 3c 30 77 ef 3a 1c 1e 8a bd 3d 0a d7 3c
       0.007942465 0.0018269774 -0.06744024 0.02625
000370 17 b7 bc 3d c5 37 1f 3d 0f 6f 9a 3d 4d ac 25 bd
       0.09214609 0.038871545 0.07540714 -0.040447522
000380 76 4a d1 3c 5b 6a 78 be 06 fa 80 3d 31 e1 b1 bd
       0.025548201 -0.24259321 0.06297688 -0.0868553
000390 d3 f2 8f 3d c7 42 be bc c4 3f d8 3c e5 4a 35 bd
       0.07028737 -0.023225201 0.026397593 -0.044260878
0003a0 39 13 88 be 6b 64 cd 3e 64 20 9f 3c 34 01 e8 bd
       -0.26577166 0.40115675 0.019424625 -0.113283545
0003b0 cb fe fb bd 08 6d f5 bd 3a 43 e1 bc 2d ff 82 be
       -0.12304457 -0.11983687 -0.027497876 -0.2558531
0003c0 00 f0 b6 bd 15 80 92 bc 99 8b f1 bb 78 cf ad bd
       -0.08932495 -0.01788334 -0.0073713777 -0.08486837
0003d0 f7 fc be 3d 33 11 a7 3d 72 f4 80 3c 6c a2 03 3e
       0.09325593 0.08157577 0.01574156 0.12854928
0003e0 91 9b 9a bd 98 83 f3 3a 2b 9b 00 3e 97 ae cf bd
       -0.07549203 0.0018578647 0.12559192 -0.10140722
0003f0 3e 51 35 bd a8 02 71 3d 0e 11 ad bc d6 c3 b3 3d
       -0.04426693 0.058840424 -0.021126296 0.08777587

layer2.bias f4 [32]
000000 b0 59 a1 bd 9a 0c bf bd 59 9f c1 bc 1f 91 a6 3d
       -0.07878435 -0.093285754 -0.023635553 0.081331484
000010 88 31 ec 3d 54 c3 2c 3d 22 52 ee bd 9e 01 f1 bd
       0.11532885 0.042178467 -0.11636759 -0.117678866
000020 99 40 d6 bd 95 b9 17 3e 14 ce 10 3e b6 3a a0 bd
       -0.1046154 0.14816888 0.14141113 -0.07823698
000030 6d 89 d2 3d 87 55 4c 3d 30 10 fb bb d5 9b 97 bd
       0.10280118 0.049886253 -0.007661842 -0.074027695
000040 57 c6 bd bd 3d d0 c5 3d fe 41 17 bd 31 95 ab 3d
       -0.09266346 0.09658859 -0.03692817 0.083780654
000050 0d 75 3e 3d cc 58 29 bc 1f 0e 36 3d a9 f8 4b 3c
       0.046498347 -0.010336112 0.04444706 0.012449422
000060 5e 1b 5b 3d 23 6b a4 bc 1a f1 d8 bd ac 8e 18 bd
       0.053492896 -0.020070618 -0.105928615 -0.037245438
000070 86 43 08 3d dd 42 2b 3c c6 4d 97 bc 84 50 27 bd
       0.03326752 0.010452953 -0.018469702 -0.04084827

layer3.weight f4 [1, 32]
000000 d9 f7 f8 bd d9 7c 32 3e 4e e3 f7 bd a8 af bb 3c
       -0.12156648 0.17430438 -0.12103902 0.022910908
000010 b1 8b d8 3d d8 10 09 3e 00 2a bb bc d3 c8 9d bd
       0.10573519 0.13385332 -0.022847176 -0.0770432
000020 15 82 8e be 41 f8 39 3d d7 66 1c 3e 4d c4 42 3e
       -0.2783362 0.04540277 0.15273605 0.19020195
000030 53 76 42 3e f7 20 e7 bd 6d 87 99 3d b2 22 2a 3e
       0.1899045 -0.112855844 0.074965335 0.16614798
000040 d5 b3 cb 3e e7 16 fe bd 36 9f 01 3a e0 be a1 bd
       0.39785638 -0.12406712 0.0004944684 -0.07897735
000050 ec 0a c6 bd bc 31 c8 bd 97 8d cf 3d 90 a1 e6 bd
       -0.09670052 -0.09775111 0.10134428 -0.11261284
000060 44 f7 02 be dd 2b 1c be 49 59 be bd 22 1d b5 bd
       -0.12789637 -0.15251108 -0.092943735 -0.08843447
000070 28 60 9c bc 0e d8 3c 3e 6f 65 59 3d f2 42 14 be
       -0.01908882 0.18441793 0.05307525 -0.14478663
