mat_model/model_name_mc/density_model.pth (torch, 15236 bytes, 5 tensors)

layer1.weight f4 [64, 15]
0	0x3e75b8a9	0.23996224
1	0x3e96bb89	0.29439953
2	0x3e78c855	0.2429517
3	0xbdbda074	-0.0925912
4	0x3e2e346a	0.17012182
5	0xbe6a7cf8	-0.22899234
6	0x3d32fcac	0.043697998
7	0x3d23f363	0.040027034
8	0x3da5dad1	0.080983765
9	0x3ca3c123	0.019989556
10	0xbab9ea25	-0.001418416
11	0x3c0f1208	0.008732326
12	0x3d4e8382	0.050418384
13	0xbd8dc35c	-0.069220275
14	0x3cf6dad0	0.030133635
15	0xbda3f268	-0.0800522
16	0x3e91bd1a	0.28464586
17	0xbe15b25e	-0.14618823
18	0xbde84ca1	-0.11342741
19	0xbd06ea57	-0.032938328
20	0x3e14b37f	0.14521597
21	0xbe075386	-0.13215455
22	0xbdbf0d1f	-0.093286745
23	0xbe23de6b	-0.16002814
24	0x3d6a1f7c	0.057158932
25	0xbc8c10e9	-0.017097907
26	0xbe2d578e	-0.1692793
27	0xbdc62424	-0.09674862
28	0xba0ada26	-0.0005296789
29	0xbe294861	-0.16531517
30	0xbbda2550	-0.00665728
31	0x3debd961	0.11516071
32	0x3d7a0a5b	0.061045032
33	0xbc9f13b5	-0.019418577
34	0x3e08f45d	0.13374467
35	0xbe957017	-0.2918708
36	0xbe147822	-0.14498952
37	0x3a5b99b3	0.000837709
38	0xbe3d76b2	-0.1850231
39	0xbe2cbe7a	-0.16869536
40	0xbe2dde58	-0.16979349
41	0xbd736bf3	-0.05942912
42	0x3e0c3e3e	0.13695619
43	0x3e1de769	0.15420307
44	0x3d856658	0.06513661
45	0xbe22607e	-0.15857121
46	0x3dc1a6c4	0.09455636
47	0xbead9240	-0.33900642
48	0x3e328e60	0.17437124
49	0x3e16af96	0.14715418
50	0x3e6d79fc	0.23191065
51	0x3e04f3a0	0.1298356
52	0x3e1050fc	0.14093393
53	0x3e641b25	0.2227598
54	0x3c632607	0.013864047
55	0x3e1e2c17	0.15446506
56	0x3e099b25	0.13438089
57	0xbdaf61ce	-0.08563577
58	0xbe037d85	-0.1284085
59	0x3ed98b8d	0.4248928
60	0xbe54cf7a	-0.20782271
61	0x3e828466	0.25491637
62	0xbe55d8c0	-0.20883465
63	0xbccc3976	-0.024929743
64	0x3e6df221	0.23236896
65	0xbcadf285	-0.021233806
66	0x3df52620	0.119701624
67	0xbd7fc0f8	-0.06243989
68	0xbcde016c	-0.027100287
69	0xbdd5ded5	-0.104428925
70	0x3e42b444	0.19014078
71	0x3cfbb2f1	0.030724974
72	0x3dc9a926	0.09846716
73	0x3dad2272	0.084538355
74	0x3dac5c36	0.08416025
75	0xbca66218	-0.020310447
76	0xbdbfe90e	-0.093706235
77	0x3d49b748	0.049247056
78	0xbe36469c	-0.17800373
79	0xbdf09c9e	-0.11748622
80	0xbe01ca42	-0.12674811
81	0xbe3f2ea6	-0.18670139
82	0xbe626b7f	-0.22111319
83	0x3e4aaa0e	0.19791433
84	0xbe4fe694	-0.20302802
85	0xbe0b0e6a	-0.13579717
86	0x3d8a35c0	0.06748533
87	0x3e527784	0.20553404
88	0x3c938510	0.018007785
89	0xbe37ad7c	-0.17937273
90	0x3e8eff81	0.2792931
91	0xbe3f8d43	-0.18706231
92	0x3e06fb11	0.13181712
93	0x3e7f0751	0.24905135
94	0xbdcd2324	-0.10016468
95	0x3bdfe4de	0.006832703
96	0xbe14457f	-0.14479636
97	0xbe15baae	-0.14621994
98	0xbe48991c	-0.19589657
99	0x3e29a8bb	0.16568272
100	0xbe66d60a	-0.22542587
101	0x3d435212	0.04768569
102	0x3e32e631	0.17470624
103	0xbd631af7	-0.055445638
104	0x3d61965c	0.055075034
105	0xbc8613b8	-0.016366825
106	0x3def25e0	0.11677146
107	0xbe6c96fb	-0.2310447
108	0xbd9fc594	-0.07801357
109	0x3e4a675a	0.19765988
110	0x3e2620ac	0.16223401
111	0xbdbcad44	-0.09212735
112	0xbd823f84	-0.06359771
113	0xbe6a1bb3	-0.22862129
114	0xbe6cfab6	-0.23142514
115	0x3dcdc08c	0.10046491
116	0xbe48209f	-0.19543694
117	0xbe138fb9	-0.14410295
118	0xbdc566ea	-0.0963877
119	0xbd0539e0	-0.032525897
120	0x3e757531	0.23970486
121	0x3e308d53	0.17241411
122	0xbdaa8d9b	-0.0832779
123	0xbe40af8e	-0.18816969
124	0x3d38a716	0.04508122
125	0xbe808908	-0.25104547
126	0x3e00f621	0.1259389
127	0x3d998e50	0.07497847
128	0xbd14dc76	-0.03634306
129	0xbe3c0edd	-0.18365045
130	0x3d7961e4	0.06088437
131	0x3da65257	0.08121174
132	0xbd73366b	-0.05937807
133	0x3d29e9c6	0.04148271
134	0xbd924f5f	-0.07144045
135	0xbd07e405	-0.03317644
136	0x3e2ca571	0.16859986
137	0x3e225c80	0.15855598
138	0x3d60b03c	0.05485557
139	0xbe1d806d	-0.15381022
140	0xbe12cd3c	-0.14336103
141	0xbdf42214	-0.119205624
142	0x3e40aed4	0.18816692
143	0xbde3e4c3	-0.11127617
144	0x3e8d0102	0.2753983
145	0x3e5a13fe	0.21296689
146	0xbe631941	-0.22177602
147	0xbe697701	-0.22799303
148	0x3e6d9d93	0.23204641
149	0xbde291f1	-0.11062992
150	0xbd140005	-0.03613283
151	0xbd4389f1	-0.047738973
152	0x3dd5a87b	0.10432526
153	0xbe207c62	-0.15672448
154	0x3e809214	0.2511145
155	0xbdd7b12a	-0.10531838
156	0x3e899d44	0.26877797
157	0xbe5771e5	-0.21039541
158	0xbca606e3	-0.020266956
159	0x3e0fd8fc	0.14047617
160	0xbc93d3ec	-0.018045388
161	0x3e2c6589	0.16835608
162	0xbb960ec0	-0.004579395
163	0xbdb93e1b	-0.09045049
164	0x3e91d995	0.28486314
165	0xbe437801	-0.19088747
166	0xbe21e4e4	-0.15809971
167	0x3e50bb0c	0.20383853
168	0x3e04e5f4	0.12978345
169	0xbd7aa29f	-0.061190244
170	0xbe63e1ea	-0.22254148
171	0xbdc36e78	-0.095425546
172	0x3d1a7eb0	0.037718475
173	0x3e70a56b	0.23500602
174	0x3c4372f9	0.011929267
175	0x3e0b7771	0.13619782
176	0x3d217897	0.039421644
177	0x3d8302e7	0.06397038
178	0x3e4dd3df	0.20100354
179	0xbe84b1a1	-0.2591677
180	0x3e725adf	0.23667477
181	0x3ea0c25e	0.3139829
182	0xbdbc3dc1	-0.09191466
183	0xbd8ec69a	-0.06971474
184	0xbdefd086	-0.117096946
185	0x3d1ccb7a	0.038279988
186	0xbe27529c	-0.16340107
187	0xbbebacfb	-0.0071922517
188	0x3e2dda1a	0.1697773
189	0xbd09be5a	-0.0336288
190	0x3e2c132f	0.16804193
191	0x3e2ba9a3	0.1676393
192	0x3d52dbed	0.05147927
193	0xbcb70c9f	-0.022344885
194	0xbe272145	-0.16321285
195	0xbe496b12	-0.1966975
196	0x3e7989ba	0.24368945
197	0x3dbc166b	0.091839634
198	0xbe46a691	-0.19399478
199	0xbe874532	-0.2641998
200	0xbce0c6f4	-0.027438618
201	0xbe24c0b5	-0.16089137
202	0xbe9ae7be	-0.3025493
203	0xbe71755c	-0.23579925
204	0xbe1d527f	-0.15363501
205	0xbd22f7ce	-0.039787106
206	0x3e40b5b1	0.1881931
207	0xbe64c8b0	-0.22342181
208	0x3e2f5aca	0.17124477
209	0xbe3cb549	-0.1842853
210	0xbe53ab27	-0.20670758
211	0xbc8b1b98	-0.016980931
212	0x3e0bdac2	0.13657668
213	0x3e701e76	0.2344912
214	0x3be3ca78	0.0069516264
215	0xbe1d56f7	-0.15365206
216	0xbce5a4aa	-0.02803262
217	0xbd0352e7	-0.032061484
218	0x3de60702	0.112318054
219	0x3e87ccc5	0.26523414
220	0x3e4b1f7d	0.1983623
221	0x3dd43b6a	0.10362895
222	0x3dcff2c3	0.10153725
223	0x3c96a926	0.018391203
224	0xbe948641	-0.29008678
225	0xbbb129bd	-0.005406587
226	0xbe20bebc	-0.1569776
227	0xbd4fcc9e	-0.050732248
228	0xbcc27498	-0.023737237
229	0x3d1dcd24	0.038525715
230	0x3db0af8f	0.08627235
231	0x3e202871	0.15640427
232	0xbcd151ff	-0.025551794
233	0x3d5a3156	0.053269707
234	0x3e5bd944	0.21469599
235	0xbd4d3f12	-0.050108977
236	0xbe329237	-0.17438589
237	0xbdb25b43	-0.08708813
238	0x3d4af986	0.04955437
239	0x3e259959	0.16171779
240	0xbd8fdd5a	-0.07024641
241	0x3e234618	0.15944707
242	0xbe33a687	-0.17543994
243	0x3c4a3dae	0.012343807
244	0xbd295702	-0.041342743
245	0x3e6c0164	0.23047405
246	0xbe3df896	-0.1855186
247	0xbe7ce1a5	-0.24695452
248	0x3e41c955	0.18924458
249	0x3d88d72f	0.06681668
250	0xbcfabf86	-0.030608904
251	0xbe6e37a0	-0.23263407
252	0xbde98250	-0.11401808
253	0xbe82f8de	-0.25580496
254	0x3e8f42d7	0.27980682
255	0xbe84a1a9	-0.25904587

layer1.bias f4 [64]
0	0xbe00ddcb	-0.12584607
1	0x3e73b7c2	0.23800567
2	0x3e7eac3f	0.24870394
3	0xbe468349	-0.19386019
4	0x3e745624	0.23860985
5	0xbe72fdd3	-0.23729639
6	0x3d82e5f9	0.0639152
7	0xbd9e3d9a	-0.07726593
8	0x3d3a89d7	0.04554161
9	0xbbf3027f	-0.007416069
10	0xbe41e918	-0.18936574
11	0x3e2cf9c0	0.16892147
12	0x3e6ea73e	0.23305985
13	0x3e09d539	0.13460244
14	0x3e2065e2	0.15663865
15	0x3e48cd55	0.19609578
16	0x3c5b071e	0.013368396
17	0xbdd82380	-0.10553646
18	0xbe181d2e	-0.14854881
19	0xbe05299d	-0.13004155
20	0x3e3c42a3	0.18384795
21	0xbd342a5e	-0.043985717
22	0x3e3c8769	0.1841103
23	0x3d86bb58	0.06578702
24	0xbd1af367	-0.037829783
25	0xbe4e1839	-0.20126428
26	0x3d84fc78	0.06493467
27	0xbb07e257	-0.0020734274
28	0xbde37145	-0.11105589
29	0x3e93fc8b	0.28903612
30	0xbe765838	-0.2405709
31	0x3c2f11c8	0.010685392
32	0x3c201d9f	0.009772687
33	0xbe04d8a6	-0.1297327
34	0xbd54d230	-0.051958263
35	0xbe07bee8	-0.13256419
36	0xbb8b6ef0	-0.004255168
37	0xbda0f646	-0.07859473
38	0x3e095fae	0.13415405
39	0xbe1e6e80	-0.1547184
40	0x3ded4f54	0.11587396
41	0xbe7928d8	-0.24331987
42	0xbe829f32	-0.2551208
43	0x3e41bdac	0.1892001
44	0xbe487203	-0.19574742
45	0x3cf82c4b	0.030294558
46	0xbad54df3	-0.0016273841
47	0x3e8150cb	0.25256953
48	0x3e813e13	0.2524267
49	0x3d66b54f	0.056325253
50	0x3c2cecca	0.010554502
51	0x3d09dcc6	0.03365781
52	0x3d46fd33	0.048581313
53	0x3d189dc6	0.03725984
54	0x3e684996	0.22684321
55	0x3e364592	0.17799976
56	0x3c61e937	0.013788513
57	0xbe00b76c	-0.1256997
58	0xbd23aef3	-0.039961766
59	0xbe4348ce	-0.19070742
60	0xbd9cc2cc	-0.07654342
61	0x3c5d8894	0.013521332
62	0x3e81c475	0.25345197
63	0x3d873c47	0.06603294

layer2.weight f4 [32, 64]
0	0xbd96244d	-0.073311426
1	0x3c9da59b	0.019244006
2	0x3d756105	0.05990698
3	0x3d5fb580	0.05461645
4	0x3d9ce207	0.07660299
5	0x3df77524	0.1208289
6	0xbc677d0c	-0.014128935
7	0x3d5de0cc	0.05416946
8	0xbd28cc44	-0.041210428
9	0xbd2ab1e9	-0.041673575
10	0x3d3906e5	0.04517259
11	0xbdb6d26f	-0.08926856
12	0xbdd9b620	-0.10630441
13	0xbc388f7d	-0.011264679
14	0x3ca910d4	0.020637907
15	0x3c4f7bc4	0.012663785
16	0xbe07a170	-0.13245177
17	0xbe0d65af	-0.1380832
18	0xbc41ec95	-0.011836191
19	0xbe1b5a83	-0.15171246
20	0x3d64ba53	0.055841755
21	0x3e109fa9	0.14123406
22	0xbcb88a6d	-0.022526944
23	0x3dc250e2	0.094880834
24	0x3c9afb2f	0.018918602
25	0x3d8e21f1	0.069400676
26	0xbd4580b0	-0.04821843
27	0x3bff50f7	0.007791634
28	0xbd311f00	-0.043242455
29	0xbde8d9b0	-0.113696456
30	0xbd9f4a33	-0.07777824
31	0x3dcd0bc8	0.10012013
32	0x3d5b58fd	0.053551663
33	0xbdd6a664	-0.10480955
34	0x3d873e5e	0.066036925
35	0xbdb034fb	-0.08603855
36	0xbde7aef0	-0.113126636
37	0xbda808ff	-0.08204841
38	0xbdc1c564	-0.094614774
39	0x3dd7402a	0.10510285
40	0xbd0a3bc7	-0.033748414
41	0x3b2d18a7	0.00264124
42	0xbd7b7cd0	-0.061398327
43	0x3dac0b33	0.084005736
44	0xbdd41e90	-0.10357392
45	0x3dcd751f	0.10032105
46	0x3d2d525c	0.042314872
47	0xbd445843	-0.047935735
48	0x3d25de0e	0.04049497
49	0x3d26ce6d	0.040724207
50	0xbdf67afa	-0.12035175
51	0x3dbf95ce	0.09354745
52	0xbd94628a	-0.07245357
53	0x3dc9e70e	0.09858523
54	0x3dda7aaa	0.106679276
55	0x3d5bf7b0	0.05370301
56	0x3cc8ea12	0.024525676
57	0x3d152467	0.03641167
58	0x3dc54aff	0.09633445
59	0x3d3508ee	0.04419797
60	0xbd099d59	-0.033597324
61	0x3df5ed60	0.12008166
62	0xbd087c6e	-0.03332179
63	0xbcea09c0	-0.028569102
64	0x3d81ec56	0.06343906
65	0x3b2c75b1	0.0026315267
66	0xbd58daf4	-0.052943185
67	0xbcad350f	-0.021143464
68	0xbce0197a	-0.027355898
69	0xbc4ea850	-0.012613371
70	0xbd0c974d	-0.03432398
71	0xbd991b8c	-0.07475957
72	0x3c602b6d	0.0136822285
73	0xbd0cb0c4	-0.034348264
74	0x3e0a53fb	0.13508599
75	0x3d196fa8	0.03746
76	0x3daa7a44	0.083241016
77	0x3d8f2c14	0.06990829
78	0xbc959138	-0.018257722
79	0xbd2c5783	-0.042075645
80	0x3e02d78d	0.12777539
81	0xbd14c9a7	-0.036325123
82	0xbc9df918	-0.019283816
83	0x3e07b4db	0.13252585
84	0xbbfa9b9a	-0.0076479437
85	0xbcc19b10	-0.02363351
86	0x3df9d1e6	0.12198238
87	0x3dd3d409	0.10343177
88	0xbdcdda8e	-0.100514516
89	0xbda5bbf2	-0.08092488
90	0x3dcfa609	0.101390906
91	0xbd069720	-0.032858968
92	0xbd9c590e	-0.07634173
93	0xbcc87c49	-0.024473326
94	0xbd42db47	-0.0475724
95	0x3d076daf	0.033063587
96	0xbd8ee86a	-0.06977923
97	0xbdef7ab2	-0.11693324
98	0x3da80260	0.08203578
99	0xbbe4ee32	-0.006986403
100	0xbbd8fc4e	-0.006621874
101	0xbcf14be8	-0.02945514
102	0xbd4f5946	-0.050622247
103	0x3dfe3c14	0.12413803
104	0xbd106cd6	-0.035260044
105	0xba2f027d	-0.0006676091
106	0x3d3c1928	0.04592243
107	0x3dc66213	0.09686675
108	0xbde7af1e	-0.11312698
109	0x3d531895	0.051537115
110	0x3d1059ae	0.035241775
111	0x3d8bf464	0.06833723
112	0xbc6b7e74	-0.0143734105
113	0x3c66fa62	0.014097782
114	0x3db9bf70	0.09069717
115	0xbd95c3fe	-0.07312773
116	0x3d56762e	0.0523588
117	0x3dcccf60	0.10000491
118	0x3dd0114a	0.101595476
119	0x3e125525	0.14290293
120	0xbbacb1dc	-0.005270226
121	0x3d751dfd	0.059843052
122	0xbcf9d70f	-0.030498056
123	0xbbad68e5	-0.0052920454
124	0x3d323fae	0.04351776
125	0xbea201aa	-0.31641895
126	0xbd948b89	-0.07253177
127	0x3e9b26a7	0.30302927
128	0x3e1a089e	0.1504235
129	0x3df9d382	0.12198545
130	0x3e3cd9a0	0.18442392
131	0x3c75c1b8	0.014999799
132	0x3df2fad5	0.11864249
133	0xbd22c8dc	-0.039742336
134	0x3b948da1	0.004533485
135	0xbd47d400	-0.048786163
136	0x3d1f56a0	0.03890097
137	0x3d090d0d	0.03345971
138	0xbd8711bb	-0.06595179
139	0x3dc57cf3	0.09642973
140	0x3d89b176	0.06723301
141	0x3e0b32ac	0.13593549
142	0x3d97897b	0.07399269
143	0xbda15319	-0.07877178
144	0xbd4dd186	-0.050248645
145	0x3d8284a6	0.06372957
146	0x3db5a38b	0.08869084
147	0xbd63681c	-0.05551921
148	0x3d8998f9	0.0671863
149	0xbdbf386b	-0.09336933
150	0xbd2488a5	-0.040169377
151	0xbabd3211	-0.0014434477
152	0xbbfca664	-0.007710265
153	0x3dcfa41a	0.10138722
154	0x3dc5e0af	0.096619956
155	0xbd552444	-0.05203654
156	0xbc9c37c3	-0.019069558
157	0x3cab7b84	0.02093292
158	0x3d8a35db	0.06748553
159	0x3c03a5fc	0.008035179
160	0xbdd6fb0e	-0.10497104
161	0x3cead28d	0.028664852
162	0x3dd18453	0.10230317
163	0x3dce2626	0.1006587
164	0x3d4f706a	0.050644316
165	0x3ca108b4	0.01965747
166	0xbda04d0c	-0.078271955
167	0xbda800da	-0.082032874
168	0x3d8cb369	0.06870157
169	0x3d9e9f40	0.07745218
170	0x3db3a74a	0.08772142
171	0x3e156e06	0.14592752
172	0x3dfcedc2	0.12350036
173	0x3d507bf6	0.05089947
174	0x3d670994	0.05640562
175	0x3c8abb1d	0.016934926
176	0x3aaffe4b	0.0013427226
177	0x3dd91fb9	0.10601754
178	0x3e0fe5e8	0.14052546
179	0xbd0a1060	-0.033707023
180	0x3c877711	0.016536267
181	0x3db1dfb3	0.08685245
182	0x3da56684	0.08076194
183	0x3ca8e11a	0.02061515
184	0x3aa9244b	0.0012904493
185	0x3e2c96c9	0.16854395
186	0x3e158ed6	0.14605269
187	0xbd38ab48	-0.04508522
188	0xbdbfce2e	-0.093654975
189	0xbe92dcae	-0.2868399
190	0xbdbd3204	-0.09238055
191	0x3eceb294	0.4037062
192	0x3cc17dd3	0.023619568
193	0xbcc202bd	-0.023682946
194	0x3d924d8b	0.071436964
195	0x3d44a2d8	0.048006862
196	0x3d9e9883	0.07743933
197	0xbd50ba90	-0.05095917
198	0x3dcf1b40	0.101126194
199	0x3c8a35b8	0.016871318
200	0xbd2dd002	-0.0424347
201	0xbe08aa60	-0.13346243
202	0x3da3afad	0.07992492
203	0x3dd18396	0.10230176
204	0xbd45e0ce	-0.048310094
205	0xbd0eca31	-0.034860794
206	0x3c7d3cae	0.015456362
207	0xbde857f8	-0.11344904
208	0x3d4758d7	0.04866871
209	0xbdbaa5d8	-0.091136634
210	0x3da0f86c	0.07859883
211	0xbdeeb7dd	-0.11656163
212	0xbcebcea2	-0.028785054
213	0xbe21a9b5	-0.15787394
214	0xbdab8bf9	-0.08376307
215	0xbda7f1ce	-0.082004175
216	0xbd366e90	-0.044539034
217	0xbdd3e255	-0.10345904
218	0xbca4f03b	-0.020134082
219	0xbc51811e	-0.012787132
220	0xbdfc0140	-0.12304926
221	0xbc571f71	-0.013130055
222	0xbc7a331b	-0.015270974
223	0xbda90b75	-0.082541384
224	0xbdbd2aaf	-0.09236657
225	0xbe888cfb	-0.2667006
226	0x3dac2cf0	0.08407009
227	0xbd5be91f	-0.05368912
228	0x3d4eb3c1	0.050464395
229	0x3cf664d1	0.03007737
230	0x3c01e9be	0.007929264
231	0xbccafd78	-0.024779066
232	0x3da23e17	0.07921999
233	0xbc8f7a41	-0.01751435
234	0xbddc8eb4	-0.10769406
235	0xbd8f18e6	-0.06987171
236	0x3d058994	0.032601908
237	0x3d5c6961	0.053811435
238	0x3d8be081	0.0682993
239	0xbcc963d4	-0.024583735
240	0x3d86db77	0.06584828
241	0x3c99a9dc	0.018757753
242	0x3d723ae0	0.05913818
243	0xbad6063e	-0.0016328765
244	0x3d9e6d82	0.07735731
245	0xbd594b7f	-0.053050514
246	0xbe040ecb	-0.12896268
247	0x3cb5808f	0.022156028
248	0xbc69826a	-0.014252285
249	0x3e2ac955	0.16678365
250	0x3d450ea8	0.04810968
251	0x3c754c9d	0.014971879
252	0xbcda2921	-0.02663094
253	0xbe10bec7	-0.14135276
254	0xbda16778	-0.07881063
255	0x3d9d70d1	0.07687534

layer2.bias f4 [32]
0	0xbc19a607	-0.009377963
1	0x3d7a6d9b	0.061139684
2	0x3e118c74	0.14213735
3	0x3d996be9	0.07491285
4	0x3d5c0b9a	0.053722
5	0xbdc0e38e	-0.094184026
6	0xbda8893d	-0.08229301
7	0xbd81fc0e	-0.06346904
8	0xbdedc14a	-0.116091326
9	0xbd80d231	-0.06290091
10	0x3d0d88c7	0.03455427
11	0x3d9d3b25	0.076772965
12	0x3e08e20b	0.13367479
13	0x3d98a04a	0.07452448
14	0x3e0ede75	0.13952048
15	0xbdc75111	-0.09732259
16	0xbd144440	-0.0361979
17	0xbdb1e906	-0.08687024
18	0x3d689055	0.05677827
19	0x3df26d28	0.11837226
20	0x3c7453a0	0.014912516
21	0x3da2bff6	0.0794677
22	0xbe0c480d	-0.1369936
23	0xbd6deb2a	-0.058085598
24	0x3e133745	0.14376552
25	0x3dc359c0	0.09538603
26	0x3d439075	0.047745187
27	0x3caf2bfb	0.021383276
28	0x3e0f2188	0.13977635
29	0xbd4b7843	-0.049675237
30	0x3cc58915	0.024113217
31	0x3df7fc07	0.12108617

layer3.weight f4 [1, 32]
0	0xbdf52c05	-0.11971287
1	0x3e29b04b	0.16571157
2	0x3e349355	0.17634328
3	0x3c287914	0.0102827735
4	0xbe12f2b5	-0.14350398
5	0x3d1b1460	0.037861228
6	0x3e226619	0.1585926
7	0x3e2a97ad	0.16659422
8	0x3d3b81a8	0.045777947
9	0x3df2d446	0.11856894
10	0x3e2e6e14	0.17034179
11	0xbd83db4f	-0.06438314
12	0x3dd022a9	0.10162861
13	0x3e032990	0.12808824
14	0x3e248495	0.16066201
15	0xbe04314c	-0.1290943
16	0x3df4218e	0.119204625
17	0xbdf67124	-0.120332986
18	0xbe17da95	-0.14829476
19	0x3e56a19c	0.20960087
20	0xbd1d97a4	-0.038474694
21	0xbe17b874	-0.14816457
22	0xbee8006c	-0.45312822
23	0x3cfc138e	0.030771043
24	0x3d78a32f	0.0607025
25	0xbcdb3d1e	-0.026762541
26	0xbd49f5e2	-0.049306758
27	0x3d4633c5	0.048389215
28	0x3dbdc2d8	0.09265679
29	0x3c8792fa	0.016549576
30	0xbda1dc1d	-0.079033114
31	0x3d4c2ccf	0.04984742
