mat_model/model_name_mc/iziritsu_model.pth (torch, 15246 bytes, 5 tensors)

layer1.weight f4 [64, 15]
00000000: cdc5 253d 8356 6a3d 853f 853c 9f68 d1bd
00000010: a421 0e3e cd7e 413c fbcc 6e3e db10 19bd
00000020: c80f 083d ed74 dc3d ced8 043d f848 28be
00000030: 7245 e1bd f578 4cbe 31a2 b43d 001a 703e
00000040: 7611 7a3e 17fb 09bd a993 d4bd 017c 933e
00000050: 2b99 dd3c 4cf7 9f3d 2f8b eb3d 69db 2f3e
00000060: 63bc 6c3e 7af8 00be 0cf8 30bd 3d13 ca3d
00000070: c8db 08bf 5ba8 2bbe fdeb 09bf e592 6c3e
00000080: d8b1 6c3e 1bf1 2e3e c0b4 bebe c586 9e3e
00000090: 5dc1 00bf 0aa0 1ebf 5491 dbbe af84 d93d
000000a0: 5d02 e2be f912 d4be 6ff0 22bd cae9 08bf
000000b0: e0e9 df3c 6926 8b3e 7e70 9b3c 9973 87bc
000000c0: c05d cd3d a353 1bbc 5bb0 c93d 9035 003c
000000d0: 0733 4a3e 6892 023d d829 4f3d bbd5 943d
000000e0: a986 44bc 8019 60bd 7a7d 3fbe 2cab 91be
000000f0: 4f51 473c 12bd 9abd 8a58 4a3e 9f99 943d
00000100: f2d6 34bd b37e 55bd 0628 15be 6815 1dbe
00000110: 872e 86bd 2968 7dbd 76dc 21be bd03 f8bb
00000120: 4496 04be a01c bc3d 6979 353e 9450 693e
00000130: bd79 c43d ca68 6ebd 5290 79be 0fa5 e73d
00000140: bc1e febd 9710 733d d763 cbbc fb19 21be
00000150: b55d 8c3c 4dbb 5cbd ff1b eabc 9e70 60be
00000160: 3537 d3be 5cee 00be e1a4 0c3e 481a d63d
00000170: e242 2a3e f56f 4c3e 27e8 b43d dfd8 82be
00000180: 40c2 efbd bed9 19be 72e4 f5ba f41a 17be
00000190: 8cdc ab3d 8b51 05be f5b3 63be 25f4 7b3e
000001a0: 660a a8ba 6f34 2e3e 8ebb 273e 94bd 493d
000001b0: 39d7 3b3e 8c63 e63d 8e9e 5b3b 16f3 d63d
000001c0: ebff f9bd 1113 943e fa16 833d 20b0 2b3d
000001d0: 6306 173e 4fcb 2e3e 7223 bfbd dd0f 6e3d
000001e0: 77ea ae3d 5d7e 67be b7ff 1c3c e334 03be
000001f0: d740 553e d2a1 00be 3a04 e4bb f15e 24bd
00000200: 7b89 263e 693a 5e3e 2dca 143e 634f 34be
00000210: 9833 213e ccd5 14bd fa7b 923d 3c82 f03d
00000220: 1b1b af3d 123a 7d3c 6dfc 883d e487 a83e
00000230: 1645 85bb 5de0 ce3c 7c0e 0dbd b214 8e3e
00000240: bfc7 05be 70a2 0abe 0cb0 d83a e8d7 bebd
00000250: d889 8a3d c84c 3b3e 044e 8d3e 932d 8dbd
00000260: 428b 853e 44f6 0e3d a342 553e 4c5e 9ebe
00000270: 0ff5 2fbd da5a dbbd 49f6 c3bd 0d0e 4c3e
00000280: dcdd 013e d6a9 e0bb 352a 453e ed05 9c3d
00000290: a6a6 73bc f195 363d 95aa 11be 1c22 16be
000002a0: 8b4f 283e 9fd8 9f3e edf1 e13d f23b 073e
000002b0: 8ef0 2abe aa89 24be 2695 4a3e d87e 68be
000002c0: 520d 5e3e 51bc 86bd d808 9dbc 9a5c 563e
000002d0: 3e76 e0bd c7ce 2d3e dbb6 833e 7c98 dc3d
000002e0: b511 033e d930 6f3e c62f 963e f1cf 973e
000002f0: 7fc1 f139 6bd3 5fbe 5aa0 3c3e c367 8c3e
00000300: a954 cc3c 126f 8cbe 8f49 3dbe 3a68 2f3e
00000310: f812 003e 2a1f 00be 9811 1bbe a70a 30bd
00000320: 66a9 cd3d 1934 853e db49 16be 717f 9ebd
00000330: f090 ec3d 1a4f 8c3c 3945 5cbe 36c0 50be
00000340: 7b89 2bbe b389 eb3c 9967 0ebe 40f3 993b
00000350: 1774 363e 7ec4 8a3c 21bd 963e 7b73 053e
00000360: 9a62 f23d 7648 a1bd 44ba 4abc eeab 803e
00000370: 931d 02be 3156 55be b81a 0e3d 4829 95be
00000380: a1b1 163e c44b 123e b634 a3bd 3032 48be
00000390: 44a7 463e e5fa 15be 487b c7bc b91d 283c
000003a0: 314f c53c 4177 6f3d ab0e c3bc 4fa2 a9bb
000003b0: 96fb 01be 18ec 0d3e 7792 413d 2f73 34bd
000003c0: 0ee4 82be e89a 24be 24d7 1d3e 482f 5e3e
000003d0: aeae ff3e 9017 35bb 8e5a 74bd a438 86bc
000003e0: 58fa 9a3e cdfc 513d f679 8c3e 1bd7 53be
000003f0: e9b8 4c3e 1002 933e f0d3 5c3d 9c32 1dbc
0.04047184 0.05721141 0.01626564 -0.10225033 0.1388002 0.011810017 0.23320381 -0.03736959
0.033218175 0.10764489 0.032433324 -0.16434085 -0.10999574 -0.19968016 0.08819998 0.23447418
0.24420723 -0.033686724 -0.103797264 0.28805545 0.027050575 0.0781084 0.115011565 0.17173542
0.23118739 -0.12594786 -0.043205306 0.09866951 -0.5346036 -0.16763441 -0.53875715 0.23102911
0.23114717 0.17084162 -0.37247276 0.30962196 -0.5029505 -0.6196295 -0.42884314 0.106210105
-0.44142428 -0.41420725 -0.039780077 -0.53481734 0.0273332 0.27177742 0.018974539 -0.016534613
0.10027647 -0.00948039 0.0984809 0.00782527 0.19746028 0.031877905 0.050577015 0.07267328
-0.011994996 -0.05471182 -0.1870021 -0.28450906 0.012165382 -0.075555936 0.19760337 0.072558634
-0.0441503 -0.052122783 -0.14566049 -0.15340197 -0.06551843 -0.061866913 -0.15806755 -0.007568805
-0.12947947 0.09185147 0.17722096 0.22784644 0.09593532 -0.058205403 -0.2437146 0.11310779
-0.12408206 0.059341993 -0.02482788 -0.15732567 0.017134527 -0.05388956 -0.028577803 -0.2191796
-0.41253057 -0.12590927 0.13734771 0.104542315 0.16627076 0.19964583 0.08833342 -0.25556085
-0.11706972 -0.15024468 -0.0018760099 -0.14756376 0.08391675 -0.13019387 -0.22236617 0.24604852
-0.0012820482 0.1701219 0.1638014 0.04925306 0.1834382 0.11249456 0.0033511254 0.10495584
-0.122070156 0.28920797 0.06400867 0.041916013 0.1474853 0.17069744 -0.093329325 0.058120597
0.08540814 -0.22606798 0.009582452 -0.12813143 0.20825516 -0.1256173 -0.0069585117 -0.040129606
0.16263382 0.21701969 0.14530249 -0.17608409 0.15742338 -0.036336705 0.07152553 0.1174359
0.08550092 0.01545574 0.066887714 0.32916176 -0.0040670736 0.02525347 -0.03443764 0.27750164
-0.13064478 -0.13538527 0.0016531958 -0.093185246 0.06764573 0.18291008 0.27598584 -0.06893458
0.26082808 0.034902826 0.20826201 -0.30931318 -0.042958315 -0.10710688 -0.095684595 0.19927235
0.12682289 -0.0068561835 0.19254382 0.07618318 -0.014871275 0.04457659 -0.14225228 -0.14661449
0.16436593 0.31219956 0.11032472 0.13206461 -0.16693327 -0.1606814 0.19783458 -0.22704637
0.21684769 -0.06578887 -0.019169256 0.20933762 -0.10960053 0.1697341 0.25725445 0.107712716
0.12799723 0.23358478 0.29333323 0.29650834 0.00046111268 -0.21857993 0.18420544 0.27422914
0.024942713 -0.2742849 -0.18485092 0.17129603 0.12507236 -0.12511888 -0.1514343 -0.04297891
0.10042076 0.2601631 -0.14676611 -0.07739151 0.11551082 0.017127562 -0.21510781 -0.20385823
-0.16751663 0.028752184 -0.13906707 0.004698187 0.17817722 0.016939398 0.2944117 0.13032334
0.11835213 -0.07875149 -0.012373511 0.25131172 -0.12706594 -0.2083366 0.03469345 -0.29133058
0.14716198 0.14286715 -0.07969038 -0.19550395 0.19399744 -0.1464649 -0.024350777 0.010260993
0.024085613 0.05846334 -0.023810705 -0.0051768194 -0.12693629 0.13859594 0.04725882 -0.04405516
-0.25564617 -0.16074717 0.15414101 0.21697724 0.49937958 -0.0027632453 -0.059656672 -0.01638443
0.30269122 0.05126648 0.274368 -0.20687525 0.19992413 0.2871251 0.053913057 -0.009594586

layer1.bias f4 [64]
00000000: 1c39 1f3e 511e b5bd d16c 143d c57e 11bd
00000010: f0aa 303e 1139 6f3e 46fa c73b b520 11be
00000020: 0f9a 3ebe f87f 043e 36f5 32be c9f9 3a3e
00000030: 577b 02be 0d68 833d f748 313e ec70 813e
00000040: 9192 0cbe a255 1c3e c092 02be 1560 093e
00000050: ee87 6dbe 1491 42bd de57 383e 8c25 c4bd
00000060: c4bc 773e 50f6 723e 1797 f03d dcfe 153b
00000070: aa6b c63c 1f81 36be bfcf 8c3e f2c3 58be
00000080: 1043 0abc 48c6 803e 4c1d 503e a294 88bd
00000090: 81a2 873e e03b 41be 6570 5b3d b602 353e
000000a0: 9ce4 c23d bf41 283d fad0 8f3e 37d3 5a3e
000000b0: 83a4 563e 3c7c fbbd 180a 0bbe 43bb 7d3e
000000c0: 9e6d 73be 9446 1bbe 5b87 c03e ea33 313d
000000d0: 893e 193d ce5a 3dbe 4ff8 82bd f386 a9bd
000000e0: 3ee6 31bc 0ab5 2ebe a9e0 28be 5073 7bbc
000000f0: 79b9 a8bd 7f01 edbd 31bd 92bd ff3b efbd
0.15549129 -0.08843673 0.036236588 -0.035521287 0.17252707 0.23361613 0.006102833 -0.14172633
-0.18613456 0.12939441 -0.17476353 0.18259348 -0.12742363 0.064163305 0.1731299 0.25281465
-0.13727786 0.15267041 -0.12751293 0.13415559 -0.23196384 -0.04750164 0.18002269 -0.09577474
0.24193102 0.23726773 0.11747568 0.0022887504 0.02422126 -0.17822693 0.27502248 -0.21168497
-0.0084388405 0.25151277 0.20323676 -0.066689745 0.26491168 -0.18870497 0.053573985 0.17676815
0.0951626 0.041078325 0.28089124 0.21369635 0.20961194 -0.12279555 -0.13578069 0.24778466
-0.23772284 -0.15163642 0.37603268 0.0432624 0.037413154 -0.1849167 -0.06395017 -0.08277693
-0.010858117 -0.17061248 -0.16491951 -0.015347317 -0.08238501 -0.11572551 -0.07164992 -0.11681365

layer2.weight f4 [32, 64]
00000000: bb86 02be 1459 c0b9 5c85 793d e18c 78bd
00000010: 14d8 483d 1272 ce3d 9cdb 8ebc 10f9 0fbe
00000020: 5388 3fbd 0824 28bc 4049 11bd ccea b0bd
00000030: 2e05 5bbc 465b 06bd 79d7 03be 0c37 a0bb
00000040: 00e0 ecbd f3c6 c0bd 3b3d 813d 0c32 91bd
00000050: 7cae 04be 7b88 07bd b228 2a3d 65f9 86bd
00000060: 15d1 04be 0947 bfbd 74c8 38bd c9ad 27bc
00000070: 099b 223d 1a03 bc3d 27e9 5a3d 845b fb3d
00000080: da34 d4bd 6e8a 723d eb14 a2bd 70ae 72bd
00000090: a6bc c53d 00fd 043b 1da8 1c3d 92ce 0cbe
000000a0: 2b1f 01be 4735 62bd 2784 eebd 52c5 a0bd
000000b0: c3e6 94bd b1ed 203d fd05 6fbd 538b a0bd
000000c0: 62c7 df3d b0e0 02bc 164c 8abd d063 70bd
000000d0: cda2 5abd c804 87bc d0e9 00bd 4cca 84bb
000000e0: c827 863c 68e2 86bc 8bd0 f53b 01e8 e1bd
000000f0: 03c0 c43d c560 7f3d eba6 0dbe 4bb9 d03d
00000100: ca46 ff3d f14a ef3d 4a1f 98be b4ac ebbc
00000110: f470 63bd 3b38 073e 2acf 95bd 897a 953d
00000120: da39 8f3d dd69 a13d 6b26 77bc f4fa f53d
00000130: 2a6a 1abc c5ae 0d3e 1a2d 123e 0efb bc3c
00000140: 4b23 d13c 35ac e73d 2e14 87bd 496f 9a3d
00000150: ab83 47be b3c4 413a 45ed 263e 6805 c13d
00000160: 7c99 14bd d09a 223e 3781 833d 9833 c93d
00000170: fd84 2dbb 3ce9 ddbd d8cc a03c c04e 8abc
00000180: 33bd 11bb e08c 84bb c2eb 0c3e 96ea ad3d
00000190: b88b 7fbd 0c10 70bd f613 853c c79f 553b
000001a0: e0f9 f3bc 84a3 363d 7c6c 853d 59ae 5cbd
000001b0: a635 983d 87ce e8bc cdd0 083e a529 fa3d
000001c0: e2a0 e13d b190 75be eda3 11bf c34c 1f3e
000001d0: 8e4f 68bc 08c6 d93a 27a7 903d 4eae 55be
000001e0: 25c8 633d 70ec 4dbc 34fc 293d 8744 3fbd
000001f0: f85c 28bc c622 763d d217 b63d d581 7a3d
00000200: 7ce2 01be 2f7e 8f3d f989 813d 4190 883d
00000210: 76c2 83bd 6908 8ebd 2f33 c1bd 9048 a73d
00000220: e5da 8cbd c3f2 08bd dcdd 113d d218 a93d
00000230: 2013 b03c bc0a 61bd d2d3 d2bd 02c2 2abc
00000240: 1e7c 9ebd 3db6 e23c d078 503c 98b6 09bd
00000250: 7e40 aabd 46fe a83d 0d0f c2ba 4d37 713c
00000260: 1d1f 59bd f1ce 8cbd 839d 1b3c b7ae ebbc
00000270: 0fab 823d 3413 d2bd 7d60 c7bd 92df e83d
00000280: c742 af3d 20a8 8d3c faa2 dc3d 378f d53c
00000290: c9cf 533d f4bc ecbd 3c38 dc3d 9079 9abb
000002a0: 9454 54bd b501 d5bc e70e 8cbd 8c2c 97bd
000002b0: cf3d edbd bd7b 753d 349b 00be a6e0 b23d
000002c0: a04d 2c3c acc7 b1bd a0e9 01be 1a2a 82bd
000002d0: 5ac8 a5bd 046b 86bd 232d a1bd 0e41 b9bd
000002e0: 8945 a03c f0e9 013d de35 633c b43a 09bd
000002f0: 5c0a c3bd 88f5 de3c 0043 6ebb 862e df3d
00000300: e357 d4bc 61c7 90bd 52b0 e8bd 120c 8ebd
00000310: d15a 8a3d 9339 00be 05ef bd3d b770 fcbd
00000320: c9f1 c63d 61fa eabd dc1a a6bc d73e aa3d
00000330: 5f61 803d ae1a 75bd dc13 c6bd cdaf 0bbe
00000340: 7eb8 edbd 1c31 543d ba67 823d d11a e13d
00000350: 1a2c 293c 50b5 5dbd 939e 5bbb ab03 24bd
00000360: 4a7a df3d 66d5 793d 17e5 103d 4ec2 9ebd
00000370: 430b a43d f8c5 913d a656 9fbb e204 82bd
00000380: d4eb 00be 6e8e 363d 038b 93bd def2 883d
00000390: 8221 dfbd 1c5a 8fbd 4445 6abc e52e 05be
000003a0: 6e3b adbd 51de 6cbd 181f b4bc 1111 9abd
000003b0: bd86 03be 0f0a 93bd d8e6 4e3d f825 98bd
000003c0: 2a30 833d 700e 8fbd 1fe4 4f3d fb59 bd3d
000003d0: e37d 0b3d f4ba 8ebc 52dd c73d 7db0 7dbd
000003e0: b8e4 f5bd 64ee 2cbd 357f 05bd a609 533d
000003f0: 7d5c 9bbd 9fef 2a3d f039 7abd 8872 f73c
-0.12746708 -0.00036687462 0.060918197 -0.060681228 0.049034193 0.10080351 -0.017438702 -0.14059854
-0.04676087 -0.010262497 -0.035470247 -0.08638534 -0.013367934 -0.03280189 -0.12875165 -0.0048893746
-0.11566162 -0.094129466 0.06310507 -0.07089624 -0.12957186 -0.033089142 0.041542716 -0.06590537
-0.12970383 -0.09339721 -0.045113042 -0.010234305 0.039698634 0.09180279 0.053445008 0.122733146
-0.10361643 0.059214048 -0.07914146 -0.059248388 0.096551225 0.0020292401 0.038246263 -0.13750675
-0.12609546 -0.05522659 -0.116463 -0.07850136 -0.07270577 0.03928918 -0.05835532 -0.07839074
0.10926701 -0.00798814 -0.067527935 -0.05868894 -0.053377915 -0.016481772 -0.03147298 -0.004052436
0.016376391 -0.01646538 0.007501667 -0.11030579 0.09606936 0.062348146 -0.13833205 0.10191592
0.12464674 0.11684216 -0.29711372 -0.028768875 -0.055527642 0.13205044 -0.07314904 0.07298762
0.06993456 0.0788152 -0.015084843 0.12010756 -0.009424726 0.138362 0.14275017 0.023068931
0.025529524 0.11312143 -0.06595646 0.07540757 -0.19483821 0.0007391676 0.16301449 0.09424859
-0.036279187 0.15879369 0.0642113 0.09824294 -0.0026476972 -0.108355016 0.019628927 -0.016883254
-0.0022238016 -0.004045114 0.1376181 0.08492009 -0.062389106 -0.058609053 0.01624487 0.0032596455
-0.029782236 0.044589534 0.065148324 -0.05387721 0.074321076 -0.028418792 0.13360901 0.12214974
0.11017014 -0.23980977 -0.56890756 0.15556626 -0.014179124 0.0016614804 0.07063132 -0.20867273
0.055610795 -0.012568578 0.041500285 -0.046696212 -0.010276072 0.060091756 0.08891262 0.061158974
-0.12684053 0.070064895 0.06325144 0.06668139 -0.06433575 -0.06935198 -0.094335906 0.08168137
-0.06877688 -0.03343464 0.035611972 0.08256687 0.021493495 -0.054941878 -0.10294308 -0.010422232
-0.07738517 0.027674789 0.012724116 -0.0336214 -0.08313082 0.08251624 -0.0014805511 0.014722657
-0.053008188 -0.068754084 0.009498003 -0.028769834 0.06380283 -0.10257569 -0.097352006 0.11370768
0.08557659 0.017292082 0.10773273 0.026069267 0.05171183 -0.115594774 0.10752913 -0.0047141984
-0.051838472 -0.02600179 -0.0683878 -0.073815435 -0.11584055 0.05993246 -0.12559205 0.087342545
0.010516554 -0.086806625 -0.12686777 -0.063556865 -0.08094855 -0.0656338 -0.07869937 -0.09045611
0.019564407 0.03171724 0.013867823 -0.03350325 -0.0952346 0.027216688 -0.0036355853 0.108975455
-0.025920814 -0.070692785 -0.113617554 -0.06935896 0.06755603 -0.12521963 0.09274105 -0.12326186
0.097140856 -0.11473537 -0.02027648 0.08312767 0.06268572 -0.059839897 -0.096717566 -0.13641281
-0.11607455 0.051804647 0.063674405 0.10991443 0.010325456 -0.05412799 -0.0033511266 -0.04004256
0.10911997 0.06099453 0.035374727 -0.077519044 0.080099605 0.07117838 -0.004862624 -0.063485876
-0.12589961 0.044569425 -0.07204249 0.06686948 -0.10895063 -0.06999609 -0.014298741 -0.1300617
-0.08458601 -0.057829205 -0.021987483 -0.075227864 -0.12844367 -0.07179653 0.05051312 -0.07429117
0.06405671 -0.069851756 0.050754663 0.09245678 0.0340556 -0.01742313 0.097590104 -0.06193589
-0.12006515 -0.042219535 -0.032592017 0.051522873 -0.07586 0.041732427 -0.06109041 0.03020598

layer2.bias f4 [32]
00000000: 5b8b 8e3d 3147 053e 05cc 4fbc 3116 bb3d
00000010: f39e bd3c 3853 143e 1a3b b0bd cc5c 55bd
00000020: 6025 d4bc da5a d73d 653e f5bd a6d4 9ebd
00000030: 7caa 3d3d cc01 8e3d 105c 3abc 6c77 6ebd
00000040: cd6e f83d 6222 533d 114d e53c a3df 0abe
00000050: c240 bc3d 7242 bb3c e444 b2bc dd44 283e
00000060: 5c46 3fbc 2a44 763d b819 cebd a1e0 073e
00000070: 9f6b 9dbd d244 343c 8eea 033d 7886 b2bc
0.06960174 0.13015439 -0.012682919 0.09135092 0.023147082 0.1448487 -0.08605023 -0.05209045
-0.025896728 0.105153754 -0.119747914 -0.07755403 0.046305165 0.069339365 -0.0113744885 -0.05821936
0.121305086 0.051546462 0.02799085 -0.13561873 0.09192039 0.022858832 -0.021761365 0.1643252
-0.01167449 0.0601236 -0.10063499 0.13269283 -0.07686543 0.011002736 0.03220611 -0.021792635

layer3.weight f4 [1, 32]
00000000: 5a47 1dbe 9e98 3d3e 52f5 b9bd 86b0 13be
00000010: cd68 96bd 84c8 bb3d 0b04 2ebe 173f ec3d
00000020: 709e 8cbc e163 1f3e 9b78 06bf 8218 16be
00000030: 4d07 0a3e fb24 843d 0cc9 d4bc 1ca0 b0bd
00000040: 8a0c 613e 98d8 3c3e 84b9 543e 057b 91bd
00000050: 2205 04bd 0ab2 4c3e 1408 34bd 4e07 093e
00000060: 9905 4f3e 3de1 933d 8054 eebb b01f fe3d
00000070: 76fc 57be 991d 5a3e b465 c9bb 326e 983d
-0.1535925 0.1851525 -0.09079994 -0.14422807 -0.07344208 0.09169105 -0.1699373 0.11535471
-0.017165393 0.15565445 -0.5252778 -0.14657786 0.13479348 0.06452366 -0.025974773 -0.086242884
0.2197744 0.18441999 0.20773894 -0.07103542 -0.032231458 0.19989792 -0.043953016 0.13381693
0.20216979 0.07220695 -0.007273257 0.12408388 -0.210924 0.21300353 -0.006146157 0.07442893
