mat_model/model_name_mc/Pd80_04_model.pth (torch, 15236 bytes, 5 tensors)

layer1.weight f4 [64, 15]
-0.2942173 0.47529992 -0.18092181 -0.009220657 0.25164008 -0.009773139 0.36030197 -0.51134145
-0.13153517 -0.04751239 0.2974818 -0.115829974 0.41875637 -0.18870345 0.19447136 -0.1725284
-0.2201172 0.16446248 0.19172129 -0.08751372 -0.18891902 0.18181604 0.26495335 -0.050820835
0.21595347 -0.16486296 0.24533488 0.05159429 -0.28892484 -0.08906573 0.12102198 -0.1936116
0.23812598 -0.1723081 -0.22731915 0.2170764 -0.17883226 0.05262951 0.11364036 0.19722344
0.08114198 -0.026292093 -0.0934571 0.08465933 -0.2859417 0.22299567 -0.035943136 0.2282517
-0.05774675 0.023606936 0.011206643 0.03241751 -0.10164947 0.061108336 -0.049749132 -0.0039311117
0.1445859 -0.06984156 0.22106145 -0.11322352 0.110488065 -0.18988098 0.1563277 0.29895365
0.11923798 0.2876559 0.3657374 -0.021806628 -0.49590674 -0.19486909 -0.24427623 -0.17199801
-0.13935077 -0.21070011 0.29238057 0.13530055 -0.09666777 -0.0023056725 0.03449234 0.24786635
-0.048182145 -0.19299512 -0.23492622 -0.019500451 0.094985634 0.04793756 -0.098430306 -0.20223722
-0.05276686 -0.07671376 -0.13569026 -0.06019488 -0.1651822 -0.11936133 0.034935318 0.14768405
0.12842695 0.2494538 0.0062632486 0.24186598 0.1646034 -0.0816555 -0.1113138 0.0857866
-0.038593393 0.15083846 0.069904335 -0.15242095 0.10663908 -0.07407661 0.08357519 0.04884934
-0.25755787 -0.1486889 0.010126563 -0.18719977 -0.0012719333 -0.24430749 -0.15015128 0.22512434
-0.12442955 -0.4784001 -0.5101354 0.1821434 0.3127159 -0.08519502 -0.43351167 0.0051120366
0.32130933 -0.28687963 -0.109780245 -0.13088939 -0.0415054 0.00070592813 -0.040633753 -0.20430723
-0.037074074 -0.10973741 0.2070421 0.21885464 -0.2102607 -0.1741501 0.26550916 -0.030934187
0.10115096 0.042832356 -0.19464466 -0.050740056 0.13070625 -0.1667163 0.21620719 0.1380674
0.20350188 0.12250179 0.16919449 0.20488715 -0.2831307 -0.0024986507 0.23951045 -0.048874512
0.018198952 -0.23084895 0.015250078 0.13315953 -0.29678598 0.46175054 0.31534466 -0.03017058
-0.31221113 -0.41659322 0.37984028 0.09493577 -0.4603195 -0.81618005 -0.05841208 -0.08882106
-0.45943132 0.03288301 -0.18132558 -0.18830782 0.102465615 -0.12495878 -0.10401916 -0.14973603
0.1411497 -0.20401986 -0.21620955 0.1295194 -0.14986232 0.09704307 0.17426357 -0.02866772
-0.25528514 -0.087677345 0.055533886 0.17583914 0.3555327 0.07369453 0.1955126 0.0012867738
0.4178291 -0.111132264 0.28603348 -0.2104727 0.0012201217 0.014976792 0.01956269 -0.17066348
5.0962997e-05 -0.23268794 -0.18232843 -0.20734476 0.22975075 0.21732984 0.12550302 0.12874219
0.0014844801 0.27971584 -0.046673484 0.06883383 0.26587063 0.115193486 0.10961892 0.20457195
0.105235346 -0.022912888 -0.16033208 0.045550406 0.23826572 0.105136186 -0.12762845 0.05933124
-0.21124497 0.2230296 -0.26146993 0.16255221 -0.060454175 0.13987008 -0.01115416 0.026993394
-0.34782845 -0.38762105 0.21502315 0.23429908 0.27931985 0.29843414 -0.045760036 -0.048390295
0.07671959 0.24519539 -0.041958395 0.053895123 -0.14954194 0.39784434 -0.048135683 -0.19475074
00000000: a6a3 96be 835a f33e 9143 39be 3d12 17bc
00000010: f8d6 803e 841f 20bc 8079 b83e 46e7 02bf
00000020: 28b1 06be 5a9c 42bd 894f 983e 4438 edbd
00000030: 3c67 d63e 7a3b 41be 8023 473e 49ab 30be
00000040: 6766 61be da68 283e 9652 443e 653a b3bd
00000050: fd73 41be fc2d 3a3e f7a7 873e 8229 50bd
00000060: e822 5d3e d6d1 28be 1139 7b3e 8954 533d
00000070: f5ed 93be 1868 b6bd 5fda f73d 1f42 46be
00000080: 4cd7 733e 8971 30be 5ac6 68be 4749 5e3e
00000090: ce1f 37be 0b92 573d 47bc e83d f1f4 493e
000000a0: c42d a63d 8462 d7bc 7066 bfbd df61 ad3d
000000b0: f366 92be fa58 643e 1c39 13bd d0ba 693e
000000c0: db87 6cbd 5563 c13c 119c 373c 39c8 043d
000000d0: 992d d0bd bc4c 7a3d bfc5 4bbd 8ed0 80bb
000000e0: 530e 143e 1809 8fbd ef5d 623e bce1 e7bd
000000f0: 9147 e23d 2970 42be 5e14 203e 7410 993e
00000100: 0b33 f43d a247 933e ef41 bb3e d0a3 b2bc
00000110: 7de7 fdbe c38b 47be 8c23 7abe 3f20 30be
00000120: f8b1 0ebe c5c1 57be e8b2 953e 3a8c 0a3e
00000130: c0f9 c5bd c41a 17bb d747 0d3d add0 7d3e
00000140: a45a 45bd 83a0 45be 8090 70be 69bf 9fbc
00000150: d487 c23d 2d5a 443d d495 c9bd 4617 4fbe
00000160: 1022 58bd 1b1c 9dbd 63f2 0abe e88e 76bd
00000170: 8625 29be b773 f4bd 5618 0f3d 7d3a 173e
00000180: 5b82 033e d170 7f3e f03b cd3b b7ab 773e
00000190: cb8d 283e 003b a7bd 7df8 e3bd e3b0 af3d
000001a0: 1b14 1ebd 6675 1a3e 012a 8f3d 3d14 1cbe
000001b0: 9765 da3d 7ab5 97bd 7829 ab3d 3f16 483d
000001c0: a0de 83be e741 18be e2e9 253c 4cb1 3fbe
000001d0: 00b7 a6ba be2b 7abe 42c1 19be ff86 663e
000001e0: ebd4 febd dcf0 f4be 3c98 02bf cd83 3a3e
000001f0: 4c1c a03e ba7a aebd 3ef5 ddbe df82 a73b
00000200: a882 a43e e3e1 92be 77d4 e0bd de07 06be
00000210: 9101 2abd 090e 393a 946f 26bd ea35 51be
00000220: fcda 17bd 02be e0bd d802 543e 6e1b 603e
00000230: 954e 57be 6754 32be d1f0 873e b169 fdbc
00000240: 3c28 cf3d fb70 2f3d ee50 47be ced4 4fbd
00000250: dcd7 053e aeb7 2abe 6b65 5d3e 8a61 0d3e
00000260: cc62 503e 38e2 fa3d 5241 2d3e f0cd 513e
00000270: 82f6 90be 67c0 23bb 3a42 753e a430 48bd
00000280: f815 953c ab63 6cbe 77db 793c f95a 083e
00000290: 55f4 97be 916a ec3e db74 a13e 4b28 f7bc
000002a0: 23da 9fbe b54b d5be 6d7a c23e af6d c23d
000002b0: ffae ebbe 2df1 50bf 8141 6fbd d1e7 b5bd
000002c0: 953a ebbe 56b0 063d 6aad 39be c4d3 40be
000002d0: 7ed9 d13d 64ea ffbd ff07 d5bd 6754 19be
000002e0: 8c89 103e 95ea 50be 0966 5dbe bca0 043e
000002f0: 8275 19be 84be c63d 2672 323e 91d8 eabc
00000300: bcb4 82be 2e90 b3bd 8077 633d 2d0f 343e
00000310: 6208 b63e 28ed 963d 7434 483e f7a8 a83a
00000320: b2ed d53e 5099 e3bd fb72 923e 2886 57be
00000330: 7eec 9f3a 3861 753c ef41 a03c 68c2 2ebe
00000340: 1ac1 5538 bf45 6ebe 4eb4 3abe 2f52 54be
00000350: c843 6b3e b78b 5e3e dd83 003e fed4 033e
00000360: e392 c23a ea36 8f3e b22c 3fbd c0f8 8c3d
00000370: 3220 883e 90ea eb3d e27f e03d 4f7b 513e
00000380: a185 d73d cfb3 bbbc 182e 24be 1093 3a3d
00000390: eefb 733e a451 d73d 08b1 02be 5005 733d
000003a0: 9a50 58be df61 643e 63df 85be 1674 263e
000003b0: cc9e 77bd 1a3a 0f3e f0bf 36bc 4021 dd3c
000003c0: 9216 b2be 4476 c6be 072f 5c3e 19ec 6f3e
000003d0: 0303 8f3e 5ccc 983e e06e 3bbd e734 46bd
000003e0: 291f 9d3d 8014 7b3e 91dc 2bbd 22c1 5c3d
000003f0: 8621 19be 41b2 cb3e ec29 45bd bd6c 47be

layer1.bias f4 [64]
0.1277795 -0.12725674 0.23362158 0.2221448 0.096250154 0.22343595 0.2395354 -0.21079578
0.0672406 0.03223465 0.0304516 -0.15092607 -0.25292906 0.1353541 -0.11397257 -0.22476883
-0.16878055 0.14657553 0.04741872 0.022198597 -0.13256723 0.029252341 -0.14655927 0.20645611
-0.18293235 -0.122500025 -0.15510191 0.029143194 -0.07331483 0.20407215 -0.26918787 -0.1613761
-0.24917719 0.046975076 0.1779942 0.06390572 0.23734184 0.103640124 -0.21547012 -0.2733241
0.10827678 0.011598544 0.0072407583 -0.1357305 -0.073415436 0.039521843 -0.12518723 -0.14522865
0.0029397348 -0.07911827 0.13768741 0.13715512 0.083910264 -0.03234152 0.023960711 -0.027690718
-0.04754899 0.21995841 0.21387096 -0.17020383 0.14783014 0.23019032 0.14094608 -0.039838776
00000000: a1d8 023e 974f 02be 7f3a 6f3e ed79 633e
00000010: cd1e c53d 65cc 643e c548 753e d9da 57be
00000020: 71b5 893d 7b08 043d a275 f93c 5d8c 1abe
00000030: eb7f 81be 449a 0a3e 736a e9bd cd29 66be
00000040: cfd4 2cbe e517 163e 223a 423d d5d9 b53c
00000050: b4bf 07be 9ba2 ef3c a213 16be 3b69 533e
00000060: 9e52 3bbe 4be1 fabd 09d3 1ebe b5bd ee3c
00000070: 1626 96bd 4af8 503e fed2 89be c73f 25be
00000080: 4e28 7fbe f068 403d 1d44 363e 01e1 823d
00000090: bd09 733e 4641 d43d 33a4 5cbe 23f1 8bbe
000000a0: 37c0 dd3d d207 3e3c e243 ed3b f0fc 0abe
000000b0: d55a 96bd a8e1 213d 1531 00be d2b6 14be
000000c0: 91a8 403b c208 a2bd eefd 0c3e 6472 0c3e
000000d0: 25d9 ab3d 8b78 04bd 4149 c43c a5d7 e2bc
000000e0: bbc2 42bd c73c 613e fd00 5b3e ea49 2ebe
000000f0: c960 173e 03b7 6b3e 2b54 103e fc2d 23bd

layer2.weight f4 [32, 64]
-0.09092313 -0.0054687243 0.0721649 0.077336125 0.049547244 -0.02452853 -0.14203079 -0.05341524
-0.055036485 0.04250849 -0.025056783 0.014440034 -0.018384196 -0.014176721 -0.046028312 -0.10483003
0.097121835 -0.10638943 0.04385367 0.048624195 -0.037729792 0.04562515 -0.0010716617 -0.020925732
0.031175949 -0.11417435 -0.043425933 0.024882445 0.110595465 -0.06513354 0.02113296 0.10042828
-0.037311804 -0.110284306 0.08883971 0.08031927 -0.040603753 -0.013060887 -0.084669195 -0.006094227
-0.10635893 -0.06436365 0.058603212 0.0035917598 0.021379435 -0.077368475 0.07863055 0.03017257
0.07292098 0.012094628 -0.09616323 0.09746097 0.098399155 0.09796582 -0.045667373 0.00302377
-0.11467063 -0.12825748 0.09554532 0.08522179 -0.061162893 -0.08155055 -0.07823596 0.037813332
-0.10206322 0.052721575 0.06327799 -0.06484328 -0.090150386 -0.061913148 -0.00066003203 -0.08203015
0.094168276 0.046497926 -0.07228409 -0.004789114 0.091360345 0.0014123619 -0.031245723 0.10160464
0.027219132 -0.10476561 0.074910864 0.046215013 0.08751401 -0.051468015 -0.04298097 0.041829333
0.06438506 0.033905983 -0.06443171 0.022748023 0.045202613 -0.10975781 0.06839891 -0.011084333
0.08538328 -0.123226926 0.066115454 -0.02168104 -0.05561641 -0.12341721 0.07235463 0.049850717
-0.009326041 -0.025197685 -0.11274478 -0.049281716 -0.08155769 -0.07548384 -0.07372159 -0.0035953969
0.06592736 -0.008608013 0.058664933 -0.0016367584 0.030392244 -0.006472975 -0.052221417 -0.026138961
0.035536304 -0.039258555 -0.08059953 0.00846459 -0.1204589 -0.060395837 -0.015303522 0.106841624
-0.019538427 0.17445724 -0.094532564 -0.117422275 -0.34553045 0.018317528 -0.2619741 0.06694281
0.37930053 0.027854225 0.27289483 -0.13080281 -0.06444946 -0.22354107 -0.13312802 -0.035796124
0.13068245 0.26583633 0.52631885 -0.25805682 0.004120901 0.15710051 -0.08600409 0.04591858
-0.021291308 0.10027565 -0.11778347 -0.08987303 -0.11827752 0.18309064 -0.065208 0.017782778
-0.101178646 0.4402359 0.104084186 -0.48328486 -0.29606342 -0.18284403 0.028360078 -0.43173382
-0.028282944 -0.5242466 0.19755876 -0.08671905 -0.15383834 -0.22106914 -0.51606226 0.77530897
0.2710672 0.16028196 -0.0060529937 0.12608168 -0.26457202 0.091106005 -0.22126207 0.2964128
0.22461736 -0.19108205 -0.19669093 -0.03568419 -0.088095516 -0.014317887 -0.014013578 0.13639283
-0.04801354 -0.02178118 0.072152056 -0.04572567 0.32440558 -0.08591913 0.029671865 -0.043175627
-0.14094415 0.12013308 0.07191814 0.2769007 0.08379508 0.12264896 -0.05809126 -0.057102446
0.11028834 0.0643052 -0.049940277 -0.07886343 0.06962202 0.16614576 -0.104009464 0.0589563
0.26935142 -0.07426447 -0.10143535 0.1619398 -0.108360335 -0.059579194 -0.057731725 -0.021826064
-0.0019389697 0.25988218 0.12846488 -0.106125854 0.054867208 -0.037904777 0.18318449 -0.18131581
-0.027310776 0.0066021373 0.29009444 0.053517006 -0.093489595 -0.054065496 -0.4832031 -0.043652993
0.110279515 -0.01810536 0.08821221 -0.07406092 0.039821737 0.046764586 0.09033918 0.09827127
0.0517546 0.12962781 -0.09131423 0.13838932 0.074574724 -0.06949494 -0.061374538 0.041089367
00000000: e835 babd fc32 b3bb 31cb 933d 6762 9e3d
00000010: 0df2 4a3d 0ef0 c8bc 8570 11be f0c9 5abd
00000020: f06d 61bd 621d 2e3d e243 cdbc e495 6c3c
00000030: 749a 96bc 7a45 68bc 2f88 3cbd 20b1 d6bd
00000040: d0e7 c63d b4e2 d9bd e89f 333d 2a2a 473d
00000050: 8e8a 1abd 70e1 3a3d 0077 8cba 716c abbc
00000060: b464 ff3c 3ed4 e9bd 64df 31bd 45d6 cb3c
00000070: e07f e23d bc64 85bd 081f ad3c 58ad cd3d
00000080: 43d4 18bd bddc e1bd 98f1 b53d 6e7e a43d
00000090: 1f50 26bd 55fd 55bc 0b67 adbd 15b2 c7bb
000000a0: b6d2 d9bd 17d1 83bd ec09 703d bb63 6b3b
000000b0: ed23 af3c 5d73 9ebd 0e09 a13d 772c f73c
000000c0: 9857 953d 8c28 463c 3af1 c4bd 9e99 c73d
000000d0: 7f85 c93d 4ea2 c83d b60d 3bbd 712a 463b
000000e0: 6fd8 eabd ee55 03be 44ad c33d c388 ae3d
000000f0: f185 7abd fa03 a7bd 2d3a a0bd 27e2 1a3d
00000100: 8606 d1bd 94f2 573d e497 813d 8ecc 84bd
00000110: c4a0 b8bd a498 7dbd 0006 2dba 6cff a7bd
00000120: 4cdb c03d 9c74 3e3d ae09 94bd 00ee 9cbb
00000130: 221b bb3d 001f b93a 08f7 ffbc 1816 d03d
00000140: a8fa de3c 5a8f d6bd de6a 993d f44b 3d3d
00000150: 8c3a b33d 20d0 52bd d00c 30bd 3c55 2b3d
00000160: 50dc 833d 00e1 0a3d c6f4 83bd 105a ba3c
00000170: 6026 393d b4c8 e0bd ba14 8c3d 109b 35bc
00000180: 6edd ae3d 665e fcbd 8a67 873d 709c b1bc
00000190: 08ce 63bd 2ac2 fcbd aa2e 943d 4430 4c3d
000001a0: 40cc 18bc 606b cebc bce6 e6bd a0db 49bd
000001b0: b807 a7bd 4697 9abd 58fb 96bd c0a0 6bbb
000001c0: ec04 873d a008 0dbc a44a 703d 8088 d6ba
000001d0: 28f9 f83c 401b d4bb 20e6 55bd 6021 d6bc
000001e0: 848e 113d 94cd 20bd 5e11 a5bd 10af 0a3c
000001f0: 28b3 f6bd a061 77bd a0bb 7abc c8cf da3d
00000200: 0d0f a0bc eba4 323e 4a9a c1bd 177b f0bd
00000210: 5ee9 b0be a40e 963c 7821 86be 5019 893d
00000220: ae33 c23e 8b2e e43c dfb8 8b3e 2cf1 05be
00000230: 14fe 83bd f3e7 64be b652 08be f59e 12bd
00000240: 9fd1 053e b31b 883e d5bc 063f 0620 84be
00000250: a008 873b f5de 203e ea22 b0bd 1f15 3c3d
00000260: 1c6b aebc 525d cd3d 7638 f1bd 5a0f b8bd
00000270: 7c3b f2bd 1d7c 3b3e c68b 85bd 30ad 913c
00000280: c036 cfbd 9a66 e13e 172a d53d 1d71 f7be
00000290: a095 97be 773b 3bbe 6553 e83c 370c ddbe
000002a0: a2b1 e7bc 0635 06bf d84c 4a3e c299 b1bd
000002b0: cc87 1dbe f35f 62be a81c 04bf a67a 463f
000002c0: 52c9 8a3e f420 243e 3158 c6bb 8e1b 013e
000002d0: fc75 87be c995 ba3d 8692 62be 6bc3 973e
000002e0: 1802 663e 03ab 43be 5969 49be 9629 12bd
000002f0: 6c6b b4bd 9295 6abc 3599 65bc 90aa 0b3e
00000300: d9a9 44bd 726e b2bc 75c4 933d d74a 3bbd
00000310: 7d18 a63e 5ef6 afbd 6912 f33c edd8 30bd
00000320: aa53 10be 5508 f63d d149 933d eec5 8d3e
00000330: c19c ab3d 612f fb3d 1af1 6dbd 41e4 69bd
00000340: dade e13d 72b2 833d 2d8e 4cbd 2683 a1bd
00000350: fd95 8e3d 1d22 2a3e ea02 d5bd 297c 713d
00000360: 6ee8 893e f817 98bd 56bd cfbd 8cd3 253e
00000370: 06ec ddbd 5009 74bd 1a78 6cbd 93cc b2bc
00000380: 0725 feba 470f 853e 4c8c 033e 8358 d9bd
00000390: 70bc 603d 0a42 1bbd b794 3b3e daaa 39be
000003a0: d9ba dfbc be56 d83b 4287 943e a634 5b3d
000003b0: 7977 bfbd c873 5dbd 6666 f7be 7bcd 32bd
000003c0: 3ada e13d b151 94bc 9aa8 b43d 40ad 97bd
000003d0: 1e1c 233d 398c 3f3d bf03 b93d 7342 c93d
000003e0: a2fc 533d 27bd 043e f402 bbbd eeb5 0d3e
000003f0: a2ba 983d 5d53 8ebd de63 7bbd 534d 283d

layer2.bias f4 [32]
-0.098707885 -0.115613475 -0.0029688976 -0.01181905 -0.053618237 -0.0072358088 0.07973953 0.021732943
-0.14332117 -0.05306992 0.008918829 0.039751638 -0.014667869 -0.0051235636 0.08344928 -0.11918685
-0.088808574 -0.049838524 -0.1303313 0.011859667 0.06368234 -0.02686688 0.01179125 -0.014205386
-0.083186716 -0.05124297 0.0074202437 0.0072908904 -0.03703903 0.0805262 -0.07245026 -0.023642763
00000000: 5c27 cabd c2c6 ecbd d691 42bb b0a4 41bc
00000010: cc9e 5bbd 5d1a edbb 7b4e a33d 4909 b23c
00000020: c9c2 12be d85f 59bd 4820 123c 9dd2 223d
00000030: 8051 70bc 91e3 a7bb 75e7 aa3d 3c18 f4bd
00000040: 45e1 b5bd 7b23 4cbd 9175 05be 0c4f 423c
00000050: e36b 823d ee17 dcbc 1630 413c b5bd 68bc
00000060: cc5d aabd 26e4 51bd 8425 f33b 6ce8 ee3b
00000070: 3db6 17bd ecea a43d cd60 94bd 78ae c1bc

layer3.weight f4 [1, 32]
-0.104151234 0.105435774 -0.53110474 0.10753795 0.015644446 0.11285397 -0.11335063 0.0916089
0.698613 0.04758533 0.15339155 0.09636362 0.09793143 0.14824791 0.057456594 0.07056857
-0.06584473 0.18889055 -0.08269614 -0.09713096 0.09268795 0.03773205 0.1718472 -0.054248806
-0.086857766 -0.12184335 0.24622373 -0.10710272 0.04352412 0.19636522 0.14722939 -0.48549134
00000000: 3e4d d5bd b6ee d73d 7bf6 07bf db3c dc3d
00000010: c828 803c fb1f e73d 6024 e8bd 729d bb3d
00000020: 4dd8 323f d6e8 423d ad12 1d3e 4a5a c53d
00000030: 4690 c83d 4dce 173e 9b57 6b3d 4186 903d
00000040: 9ad9 86bd 866c 413e 985c a9bd 99ec c6bd
00000050: 2ed3 bd3d ec8c 1a3d b6f8 2f3e ff33 5ebd
00000060: 7ce2 b1bd 0289 f9bd 1322 7c3e ac58 dbbd
00000070: 5946 323d f713 493e 4dc3 163e 5292 f8be
