mat_model/model_name_mc/Pd80_05_model.pth (torch, 15236 bytes, 5 tensors)

layer1.weight f4 [64, 15]
0	0x3e6d23e1	0.23158218
1	0x3c96f981	0.01842952
2	0x3de77cf4	0.1130313
3	0xbe16e496	-0.14735636
4	0x3e01031e	0.12598845
5	0xbf079fa1	-0.5297795
6	0xbe4950db	-0.1965975
7	0x3d095c48	0.033535272
8	0x3e3d7c8d	0.18504544
9	0xbe1a54e3	-0.15071444
10	0x3e3f8b7a	0.1870555
11	0x3daaf147	0.08346801
12	0x3c91e07c	0.017807238
13	0x3e7a9e55	0.24474461
14	0x3e89ca95	0.2691237
15	0x3d0acc91	0.033886496
16	0x3d3ded74	0.04636903
17	0xbe47b12d	-0.19501181
18	0x3d2d37ac	0.04228942
19	0x3e6f85d1	0.2339089
20	0xbd892ff7	-0.06698602
21	0x3ac23e7a	0.0014819645
22	0xbd9443be	-0.07239483
23	0x3e1ad75e	0.15121219
24	0x3e8e8085	0.27832428
25	0x3d6da928	0.058022648
26	0xbe264d8a	-0.16240516
27	0xbd559a8b	-0.052149337
28	0x3de37ad7	0.11107414
29	0xbe25d852	-0.16195801
30	0x3dfad2f3	0.122472666
31	0xbde04206	-0.10950093
32	0x3d9c0afa	0.07619281
33	0xbe9df0b5	-0.30847707
34	0xbda88e24	-0.08230236
35	0xbe00c340	-0.12574482
36	0x3d9e7f88	0.077391684
37	0xbe1c7b39	-0.1528138
38	0xbcccfd23	-0.025023049
39	0xbd9825e3	-0.07429101
40	0x3e66df0b	0.22546022
41	0x3e589750	0.21151471
42	0x3e96881d	0.2940072
43	0x3dfc9561	0.12333179
44	0x3dd71846	0.10502677
45	0xbd80d3a2	-0.06290366
46	0x3d017519	0.031605814
47	0x3dc81d26	0.097711846
48	0x3e76d1ef	0.24103521
49	0xbdbc24b7	-0.0918669
50	0xbe6e6c66	-0.23283538
51	0xbd929c70	-0.07158744
52	0xbd084a44	-0.03327395
53	0xbdef4b31	-0.116842635
54	0xbd999da9	-0.075007744
55	0xbd893e8d	-0.06701384
56	0x3e00a117	0.12561451
57	0xbe79ba57	-0.2438749
58	0xbde2a64b	-0.11066874
59	0xbe91c3ec	-0.2846979
60	0x3d821ac3	0.06352761
61	0x3e0a9588	0.13533604
62	0x3e559ac9	0.20859827
63	0xbd2185ed	-0.039434362
64	0x3e55fc41	0.20897008
65	0xbe8f18e5	-0.2794868
66	0xbccc48fd	-0.024937147
67	0x3caa13f6	0.020761471
68	0x3d9bb7d5	0.076034226
69	0x3e065145	0.1311694
70	0x3e280e6d	0.16411753
71	0xbe22b32f	-0.15888666
72	0xbdd8f291	-0.10593141
73	0xbdd5f90c	-0.104478925
74	0x3da72f0d	0.08163271
75	0xbdeffb40	-0.11717844
76	0x3e100c07	0.14067088
77	0x3e6ad035	0.22930987
78	0xbe3e2efa	-0.18572608
79	0x3e0232c8	0.12714684
80	0x3e6a824e	0.2290127
81	0xbcebfd64	-0.02880735
82	0xbd9d8869	-0.07692034
83	0xbe6277e7	-0.22116052
84	0xbe341502	-0.17586139
85	0x3dcd6cb5	0.100305
86	0xbe306f9b	-0.17230074
87	0x3e1d33e4	0.15351826
88	0xbda294cf	-0.07938539
89	0xbe225739	-0.15853585
90	0xbf137a00	-0.5760803
91	0x3d01b4b0	0.031666458
92	0x3e038d12	0.12846783
93	0x3e3e5ec2	0.18590835
94	0xbe0277e8	-0.12741053
95	0x3ea966a4	0.3308612
96	0x3ecc9c9c	0.39963233
97	0xbe4a2568	-0.19740832
98	0xbe99d462	-0.30044848
99	0xbd88e959	-0.066851325
100	0xbeb744bc	-0.35794628
101	0xbe5fa2fb	-0.21839516
102	0xbdd08e75	-0.101834215
103	0x3c31455f	0.010819762
104	0x3e3828e7	0.17984353
105	0xbe7a61ae	-0.24451324
106	0x3e0675f6	0.13130936
107	0x3d6fe68c	0.058569476
108	0x3da2b271	0.07944191
109	0xbe128bab	-0.14311092
110	0x3ea8e2ed	0.3298563
111	0x3e43a265	0.19104917
112	0x3cc85ce2	0.024458352
113	0xbc095d12	-0.008384006
114	0x3e9cb1b4	0.30604327
115	0x3e4ef5d0	0.20210958
116	0x3d9d6a26	0.07686262
117	0xbde5142b	-0.11185487
118	0x3d2afe1c	0.041746244
119	0x3dd7bf45	0.10534529
120	0x3e603ce9	0.21898235
121	0xbeacaa14	-0.3372351
122	0x3e1d96b8	0.15389526
123	0x3dd7e719	0.10542125
124	0x3e2403a0	0.16017008
125	0xbe96dd71	-0.2946582
126	0x3e4940f5	0.19653685
127	0xbe8c2eca	-0.27379447
128	0xbe997c8c	-0.29977834
129	0x3d03f6d1	0.032217804
130	0x3dc5d08d	0.096589185
131	0xbe7e1234	-0.24811631
132	0x3e28049e	0.16408011
133	0xbd80216d	-0.062563755
134	0x3ead58f3	0.33856925
135	0xbe0b50cb	-0.13605039
136	0x3e48d86f	0.19613813
137	0xbd2603c5	-0.04053094
138	0xbe5c8699	-0.2153572
139	0x3e462dc6	0.19353399
140	0xbdc22dce	-0.09481393
141	0xbdc27e9a	-0.094968036
142	0x3e5c85de	0.21535441
143	0xbe70abee	-0.23503086
144	0x3dd44f6a	0.103667095
145	0x3dc70da4	0.097193986
146	0xbe72c4a1	-0.2370782
147	0xbd59fe2c	-0.053220913
148	0xbd3a19e4	-0.045434847
149	0xbe46859e	-0.19386908
150	0x3c5ff707	0.013669736
151	0xbecc37e4	-0.3988639
152	0x3bbbef4d	0.005735314
153	0x3e5b5d31	0.21422268
154	0xbd90c097	-0.070679836
155	0x3e7a85fe	0.24465176
156	0xbe09e0e1	-0.1346469
157	0x3d1ac983	0.037789833
158	0x3e87d2ab	0.26527914
159	0xbe52749a	-0.20552292
160	0xbe39aa1b	-0.18131296
161	0xbd58e25c	-0.052950248
162	0xbe18d7e8	-0.14926112
163	0xbe35e37b	-0.17762558
164	0x3e10933b	0.14118664
165	0x3e23a594	0.15981132
166	0x3de549f9	0.1119575
167	0x3e58b465	0.21162565
168	0x3e41bfa2	0.18920758
169	0x3ddd2f33	0.10800018
170	0x3e2ebc28	0.17063963
171	0xbe0f7d34	-0.14012605
172	0xbcf6b63c	-0.030116193
173	0x3e385bee	0.18003818
174	0xbc24a9de	-0.010050265
175	0x3e5ad831	0.21371533
176	0xbe91293f	-0.2835178
177	0xbdaf1327	-0.08548575
178	0xbd999c02	-0.07500459
179	0xbd32a77e	-0.043616764
180	0x3c38321c	0.011242416
181	0x3e86652e	0.2624907
182	0x3da2c447	0.07947593
183	0x3d002d74	0.031293347
184	0x3e4d62ad	0.20057173
185	0xbea69ed2	-0.32543045
186	0xbe4826b9	-0.19546022
187	0xbb4c1cd6	-0.0031145117
188	0x3dfc2744	0.12312177
189	0x3e6eb326	0.23310527
190	0x3a398041	0.0007076301
191	0xbe6a42e6	-0.22877082
192	0xbda4f944	-0.08055356
193	0x3da81816	0.08207719
194	0x3decc37f	0.115607254
195	0x3e8eeaab	0.27913412
196	0xbf079ec5	-0.5297664
197	0xbcc7e3ac	-0.024400555
198	0xbd419c18	-0.047268003
199	0x3e1b0959	0.15140285
200	0x3df40bf0	0.119163394
201	0x3eb1db66	0.347377
202	0x3e13dd5c	0.1443991
203	0x3cda3f6d	0.026641572
204	0xbe22a10e	-0.1588175
205	0xbe0023f6	-0.12513718
206	0xbe0b11e7	-0.13581048
207	0x3dee46a7	0.116345696
208	0x3e33484e	0.17508051
209	0x3de68955	0.11256663
210	0xbe7143c5	-0.23561008
211	0xbdbf17c4	-0.09330705
212	0xbd14352e	-0.03618353
213	0x3e938f46	0.28820246
214	0x3d9b5aa2	0.07585646
215	0x3cff1876	0.031139594
216	0x3c373dcf	0.01118417
217	0x3dc2c2ff	0.09509849
218	0x3e46b458	0.19404733
219	0x3db18a30	0.08668935
220	0x3e38377d	0.17989917
221	0x3e9b853d	0.3037509
222	0x3d8cf1f5	0.06882087
223	0xbee625b8	-0.44950652
224	0x3d0d6591	0.03452069
225	0xbe90da33	-0.28291473
226	0x3e90e5c2	0.2830029
227	0x3cbd1af7	0.023084147
228	0xbe14a997	-0.14517818
229	0x3dcca46e	0.099923
230	0xbe86100f	-0.26184127
231	0xbdd034f0	-0.10166347
232	0x3cdcb2de	0.02694076
233	0x3ed14fa6	0.4088108
234	0x3e17d11a	0.1482586
235	0xbad24694	-0.0016042762
236	0xbe6bb6fc	-0.23019022
237	0x3e88a31f	0.26686952
238	0x3df316af	0.11869561
239	0xbe9ca15f	-0.30591866
240	0xbc0d4e50	-0.008624628
241	0xbe323aba	-0.17405215
242	0x3dd1e204	0.10248187
243	0xbe58453b	-0.2112016
244	0xbe08f939	-0.13376321
245	0x3e34c75a	0.17654172
246	0xbde4a66b	-0.11164554
247	0xbdfa5fa2	-0.12225272
248	0x3dc9aea5	0.09847764
249	0xbe0bfb5c	-0.13670105
250	0x3d8c93f7	0.068641596
251	0xbe6b7a07	-0.22995768
252	0xbe361940	-0.1778307
253	0xbe274801	-0.16336061
254	0xbe038a7c	-0.12845796
255	0x3cfe9254	0.031075634

layer1.bias f4 [64]
0	0xbe423cc9	-0.189685
1	0x3c38e0ae	0.011284037
2	0x3d0fcf47	0.035109784
3	0x3dc11c1e	0.09429191
4	0x3d20e52e	0.039281063
5	0x3e7c0c70	0.2461412
6	0x3e20e7a6	0.15713367
7	0x3e796e87	0.24358569
8	0xbdb01070	-0.08596885
9	0xbe767f1e	-0.24071929
10	0x3d6c18c4	0.057640806
11	0xbc456c4a	-0.012049744
12	0x3ce2f151	0.02770296
13	0x3d13ef86	0.0361171
14	0xbda51a67	-0.080616765
15	0xbd9b2154	-0.07574716
16	0x3e8417fb	0.25799546
17	0xbcb3dbe1	-0.021955432
18	0xbea89162	-0.32923418
19	0xbe107619	-0.1410755
20	0x3e8e0418	0.27737498
21	0xbe0a24e4	-0.13490635
22	0xbe829c46	-0.25509852
23	0x3cbd409d	0.0231021
24	0xbe53d5f0	-0.2068708
25	0xbe8bd173	-0.27308235
26	0x3e39d975	0.1814936
27	0xbe221c4b	-0.15831105
28	0xbd809151	-0.06277717
29	0x3cdc8a9c	0.026921563
30	0x3daa762b	0.0832332
31	0x3e747c3a	0.23875514
32	0xbe6ad5d4	-0.22933131
33	0xbc37a5bd	-0.011208949
34	0x3dc893e9	0.097938366
35	0x3d17b112	0.0370341
36	0x3bda9781	0.0066708927
37	0x3e6abb4a	0.22923008
38	0x3d54ecf6	0.051983796
39	0x3e6a4f67	0.22881852
40	0x3dfba9e3	0.12288263
41	0xbd55aef7	-0.052168813
42	0x3e189e12	0.14904049
43	0xbb907f09	-0.004409675
44	0x3e021eba	0.12707034
45	0x3dee7969	0.11644251
46	0x3e11dd27	0.14244519
47	0xbdd8d6bd	-0.10587833
48	0x3e1d7cfd	0.1537971
49	0x3d736450	0.059421837
50	0x3dd39924	0.10331944
51	0x3de752ec	0.11295113
52	0x3de00d28	0.10940009
53	0xbd69b6c5	-0.05705907
54	0x3e71711c	0.23578304
55	0x3db6f6db	0.08933803
56	0x3de8264f	0.11335432
57	0xbd38cd58	-0.045117706
58	0xbe832b79	-0.25619105
59	0xbd953c9d	-0.07286952
60	0x3dbf8330	0.09351194
61	0xbe7e540c	-0.24836749
62	0xbc09767f	-0.008390068
63	0xbe7d08aa	-0.24710336

layer2.weight f4 [32, 64]
0	0xbd6d80b2	-0.05798406
1	0xbd43d0cf	-0.047806557
2	0x3d05b9c8	0.032647878
3	0x3d233269	0.039842997
4	0x3dbc2226	0.09186201
5	0x3dc6f8ee	0.09715448
6	0x3e2965b9	0.1654271
7	0x3d804157	0.062624626
8	0x3d05ade2	0.03263653
9	0x3cfe5010	0.031044036
10	0xbd915b73	-0.07097521
11	0xbcacb0fb	-0.021080485
12	0x3c04bcf6	0.008101692
13	0xbe15e5e6	-0.1463848
14	0xbca8ed4b	-0.020620963
15	0x3e339489	0.1753713
16	0xbde1fb11	-0.11034215
17	0xbc5323b1	-0.012886927
18	0x3dca00fb	0.09863468
19	0xbcf288f8	-0.029606327
20	0x3dab6f5c	0.083708495
21	0xbdcab3c6	-0.0989757
22	0xbdc25430	-0.09488714
23	0xbe0fa4c2	-0.14027694
24	0x3db2f8ea	0.08738883
25	0x3d43e1cc	0.04782276
26	0xbd50d61b	-0.050985437
27	0x3d177e3b	0.036985617
28	0xbcc6a88d	-0.024250293
29	0x3dbeb060	0.093109846
30	0xbd55c6d7	-0.05219158
31	0xbcab692a	-0.02092417
32	0x3dc9d0e4	0.09854296
33	0xbdbf5860	-0.09343028
34	0xbd80a762	-0.06281926
35	0x3c153cbb	0.009108718
36	0x3e4c5990	0.1995604
37	0xbd897658	-0.067120254
38	0x3e266bd9	0.16252078
39	0xbc15c621	-0.009141476
40	0x3c943e52	0.018096123
41	0xbcf33779	-0.029689537
42	0xbd99236a	-0.07477458
43	0xbf21b496	-0.6316618
44	0xbd46a4d8	-0.04849705
45	0xbd904161	-0.0704372
46	0xbd23eca2	-0.040020593
47	0xbc5c63a1	-0.013451488
48	0x3c8d6f5c	0.017265014
49	0x3e826593	0.2546812
50	0x3d795b0a	0.060877837
51	0x3e0c560a	0.13704696
52	0xbd52875e	-0.051398627
53	0xbd9ebd63	-0.077509664
54	0x3eab9edf	0.33519647
55	0xbe0662eb	-0.13123672
56	0x3cfccd6a	0.030859668
57	0xbe84718b	-0.25867876
58	0xbcbc8be0	-0.023015916
59	0xbd69600e	-0.05697637
60	0x3cce8598	0.025210187
61	0xbd6576b5	-0.05602141
62	0x3e41063c	0.18850034
63	0x3d1879b4	0.03722544
64	0xbda9e7a5	-0.08296136
65	0x3c98d545	0.018656382
66	0x3c0383c7	0.008027024
67	0xbd0a3d4e	-0.03374987
68	0xbd9e3303	-0.077245735
69	0x3d9aa949	0.0755182
70	0xbd681aa7	-0.056666043
71	0xbdacc03d	-0.08435104
72	0xbc8ce57f	-0.017199276
73	0x3d825ff2	0.06365956
74	0x3de1ee40	0.11031771
75	0xbd86e362	-0.065863386
76	0xbc188811	-0.0093097845
77	0x3d3b611b	0.045746904
78	0xbd56ccf3	-0.05244155
79	0xbe0636ba	-0.13106814
80	0x3dd06e64	0.10177305
81	0xbd9ef4bb	-0.077615224
82	0xbe0f4637	-0.13991629
83	0x3dae56bc	0.08512637
84	0x3d6732cd	0.05644493
85	0xbd92552f	-0.07145154
86	0x3d28081c	0.04102336
87	0x3dbedc36	0.09319346
88	0x3d024fb0	0.031814277
89	0x3da94fe8	0.08267194
90	0xbd893cad	-0.06701026
91	0x3c9ca7e3	0.019123023
92	0xbd28f7b1	-0.041251842
93	0x3d629754	0.0553201
94	0xbdaf2bad	-0.08553252
95	0xbdd93626	-0.10606031
96	0xbd91a638	-0.07111782
97	0x3d9fe0e0	0.078065634
98	0xbe06ca0c	-0.13163012
99	0xbcc64ec9	-0.02420749
100	0xbce394e6	-0.027780961
101	0xbc47d7e4	-0.012197468
102	0xbda3e4a0	-0.08002591
103	0x3ce7485a	0.028232742
104	0x3dc84d76	0.097803995
105	0x3db98e8a	0.0906039
106	0x3d7cd1c1	0.061723474
107	0x3d8760b0	0.066102386
108	0xbdd43be4	-0.10362986
109	0xbd5752f5	-0.05256935
110	0xbe0abb09	-0.13547911
111	0xbd3aa57b	-0.04556797
112	0xbcd81b97	-0.026380343
113	0x3c4271a4	0.011867914
114	0x3d98ca6d	0.07460485
115	0x3cf0f973	0.029415822
116	0xbd779ba1	-0.060451154
117	0xbcfc3979	-0.030789124
118	0x3d8524fe	0.06501196
119	0xbcebce3d	-0.028784866
120	0x3dba24f9	0.09089083
121	0xbdc96348	-0.098333895
122	0xbe0d00d2	-0.13769844
123	0x3d890d84	0.06692031
124	0xbc176c8d	-0.009242189
125	0xbd3ae6d0	-0.045630276
126	0xbd56568d	-0.052328635
127	0x3bfc3ba0	0.0076975375
128	0xbd87938d	-0.0661994
129	0xba91b352	-0.0011116064
130	0x3cc67ac8	0.024228469
131	0x3dd42020	0.1035769
132	0x3dbb5687	0.09147363
133	0xbd97e48c	-0.07416639
134	0xbc46dab4	-0.012137104
135	0xbe04c1fa	-0.12964621
136	0x3dab9bed	0.0837935
137	0x3dd50b00	0.10402489
138	0xbdd37d7c	-0.103266686
139	0x3d42cb46	0.047557138
140	0x3d97e54d	0.074167825
141	0x3c74fef3	0.014953363
142	0x3c583aca	0.01319761
143	0xbb664f39	-0.0035142435
144	0xbd8395a7	-0.06425028
145	0xbce4e0e5	-0.02793927
146	0xbdba3267	-0.09091645
147	0xbd6e0043	-0.05810572
148	0xbe0fd282	-0.14045146
149	0x3d0f090f	0.03492075
150	0x3d911948	0.070849
151	0x3d938b21	0.07204271
152	0xbd8de9d6	-0.06929366
153	0x3da6a010	0.08135998
154	0x3d943410	0.07236493
155	0x3d3bbe10	0.045835555
156	0xbe010503	-0.12599568
157	0xbda77b6e	-0.08177839
158	0xbc80f176	-0.015740138
159	0x3c67c072	0.014145004
160	0xbd788dfc	-0.06068228
161	0xbd96282d	-0.07331882
162	0xbcd15bb4	-0.025556423
163	0xba549ff4	-0.0008110993
164	0xbdcf381f	-0.10118126
165	0xbd743ac6	-0.059626363
166	0xbdc9f094	-0.0986034
167	0x3d8a27ad	0.06745849
168	0xbd669c8c	-0.05630164
169	0xbe0a90ef	-0.1353185
170	0x3d62e9c9	0.055398736
171	0xbe01cbe6	-0.12675437
172	0xbd217e7f	-0.039427277
173	0x3dbf1701	0.093305595
174	0xbb2d79d3	-0.0026470318
175	0xbda94bec	-0.08266434
176	0x3dbd2a62	0.092365995
177	0xbd80c5be	-0.06287716
178	0xbd4cd2e1	-0.050005797
179	0xbd9f9364	-0.077917844
180	0x3c575c87	0.013144619
181	0xbe053230	-0.13007426
182	0xbbb3b523	-0.0054842397
183	0xbdff2744	-0.12458661
184	0xbd4a4d31	-0.04939002
185	0xbde9172c	-0.11381373
186	0x3d83ed64	0.06441763
187	0xbd8c37f5	-0.068466105
188	0x3cd2e965	0.025746057
189	0xbe051f03	-0.13000111
190	0xbd6c6546	-0.05771377
191	0x3d9d699a	0.076861575
192	0xbbd9bbc5	-0.0066446983
193	0xbd04f00a	-0.03245548
194	0x3be46a07	0.0069706473
195	0x3da4183f	0.08012437
196	0x3c8b1b70	0.016980857
197	0xbd29ed70	-0.041486204
198	0xbe073426	-0.13203487
199	0x3e144b91	0.14481951
200	0x3e1d3c06	0.15354928
201	0xbdb2d895	-0.08732716
202	0xbc22aa4b	-0.009928296
203	0x3da8bcb0	0.08239114
204	0x3e1ce694	0.15322334
205	0xbd2e52d2	-0.042559452
206	0x3e3a2bce	0.18180773
207	0x3d31e0c3	0.04342724
208	0xbd1fe4e2	-0.03903664
209	0x3e309cb6	0.1724728
210	0x3e166cf0	0.14689994
211	0xbd4c9f65	-0.049956698
212	0x3d53c62d	0.051702667
213	0x3da6fbfe	0.081535324
214	0xbda1438a	-0.0787421
215	0x3d7a4048	0.06109646
216	0xbdf6ddb3	-0.120540045
217	0xbbe3d588	-0.006952945
218	0x3dc88a5d	0.09792016
219	0x3e11848d	0.1421072
220	0x3db78db7	0.08962577
221	0x3d8f16dc	0.06986782
222	0xbd9dc6fb	-0.07703968
223	0xbd193173	-0.037400674
224	0xbdd2226e	-0.10260473
225	0xbd6b7387	-0.057483222
226	0x3d0807f2	0.033210702
227	0x3baf712c	0.0053540673
228	0x3dec9972	0.11552705
229	0x3c8aa309	0.016923444
230	0xbe5b7170	-0.21429992
231	0xbd37c52c	-0.044865772
232	0x3d0611f8	0.03273198
233	0x3c254314	0.010086793
234	0xbd25924e	-0.04042273
235	0x3ed42074	0.4143101
236	0x3d63d6f6	0.055624925
237	0xbd333360	-0.043750167
238	0x3c93a8cd	0.018024826
239	0x3cde07c3	0.02710331
240	0x3e023811	0.127167
241	0xbe98d992	-0.29853493
242	0x3dffb89d	0.12486384
243	0x3e1a2ebd	0.15056892
244	0xbcb429a9	-0.021992521
245	0xbd5064fb	-0.050877552
246	0x3ecbf961	0.39838699
247	0x3d149ea2	0.036284097
248	0xbddb2afa	-0.107015565
249	0x3e7fdf72	0.24987581
250	0xbdad906b	-0.08474811
251	0xbdfcce66	-0.12344055
252	0x3da54193	0.08069148
253	0x3cf5377f	0.02993369
254	0x3ecc56d4	0.39909995
255	0x3cb9e118	0.02269034

layer2.bias f4 [32]
0	0x3c07cd36	0.008288672
1	0xbcd7ccb7	-0.026342733
2	0x3cae4980	0.021275282
3	0x3d7b8045	0.061401624
4	0x3d98cbc3	0.074607395
5	0xbccfa500	-0.025347233
6	0x3c3a4a16	0.0113702025
7	0x3d073aa2	0.0330149
8	0xbdec1afa	-0.11528583
9	0xbbc886ef	-0.006119601
10	0x3d23cdda	0.039991237
11	0x3dd97dde	0.106197104
12	0x3e1426af	0.14467882
13	0xbd3a8e97	-0.04554614
14	0x3c90c4e1	0.017672004
15	0xbd753d3c	-0.05987285
16	0xbde10aab	-0.10988363
17	0xbdc93c30	-0.09825933
18	0x3be2736e	0.006910733
19	0xbdaa32f2	-0.08310498
20	0x3cd58aa0	0.026067078
21	0x3db52ed6	0.08846824
22	0xbd982892	-0.07429613
23	0x3dc25b3c	0.09490058
24	0x3da67b1e	0.081289515
25	0xbde0676e	-0.10957228
26	0x3cdc54a4	0.026895829
27	0x3d9985b4	0.07496205
28	0x3d9c0f78	0.07620138
29	0xbde840ac	-0.1134046
30	0x3ccd6270	0.025071353
31	0xbc07c7e8	-0.008287407

layer3.weight f4 [1, 32]
0	0x3e4f9fc2	0.20275787
1	0xbdee310e	-0.1163045
2	0xbe1ee9a6	-0.15518817
3	0x3d83c3a6	0.06433801
4	0x3dd74852	0.10511841
5	0xbda89f2c	-0.082334846
6	0xbe239213	-0.15973692
7	0x3e2dd0e8	0.16974223
8	0x3e59a945	0.21255977
9	0x3e1ef9a3	0.15524916
10	0xbf288cd7	-0.65839905
11	0xbd993908	-0.07481581
12	0x3e22934a	0.15876499
13	0xbd29e5da	-0.04147897
14	0x3e4e3cd2	0.20140389
15	0x3d801ba2	0.062552705
16	0xbe0356dc	-0.12826103
17	0x3e2eeb65	0.17081983
18	0xbd717f23	-0.058959138
19	0x3c5e9220	0.013584644
20	0xbe2a63c4	-0.1663962
21	0xbe12f200	-0.14350128
22	0xbdc40b22	-0.09572436
23	0x3e64f3d2	0.22358635
24	0x3d0693f6	0.03285595
25	0x3d2700ed	0.040772367
26	0xbd96c876	-0.07362454
27	0x3d8df3dd	0.06931279
28	0x3e1d127d	0.15339084
29	0x3d723528	0.059132725
30	0xbd553423	-0.052051675
31	0xbc409d2a	-0.011756221
