mat_model/model_name_mc/Temp_model.pth (torch, 15206 bytes, 5 tensors)

layer1.weight f4 [64, 15]
00000000: a62f 9ebb 950b ff3d 7fc8 2cbe 34ad 23be
00000010: 316c 923c a44b 8dbe 19e9 a9bd f3a3 33bd
00000020: 7603 493e d5f6 4a3e 05ba c2be dac3 92bd
00000030: 70b1 39be b582 48be a707 963e 5d05 acbd
00000040: ace7 9b3e 7737 483e 1699 86be 3fac 943e
00000050: 4a5b debe a7c0 19be 0f18 eabd d49f 29bd
00000060: fd74 2abe 864e 0d3e 12a0 ffbb c2d2 cfbe
00000070: 253a 813d a1dd 4cbd 202b 32bd 0bda 723c
00000080: e0b6 5f3c 2fff dcbc 6aac 063e 1e68 72be
00000090: 8d14 bcbd cce8 09be 1754 5ebd 99f7 603e
000000a0: a137 91bd 8acd 213e 4d6e 66be 8e65 97bb
000000b0: 3517 873e a5c9 d1be b70c aabc f8f6 143d
000000c0: 20f4 8d3c 6a57 01bf 1b6e ec3d bdfb dd3d
000000d0: 64a8 5e3e bceb 3abe 4bc5 893e 6544 86be
000000e0: 7979 ee3d 4132 65bd 28f0 64be ec33 8e3d
000000f0: d7ea 003d c870 353d 2761 8d3e 0bfc 63bc
00000100: 4d51 13be 44da 1dbe 22bc f4bd 3c1b c9bd
00000110: 0730 7f3e e672 103e 951b 9dbe 7fc7 c0be
00000120: 37be 80be ec21 9c3a b19d 093f 2fa1 7fbe
00000130: 1fa6 9abe 738d 153e 8afc 863d 2c8f 29be
00000140: 7b35 13be 09f1 9dbe 1d98 afbe f50c 8c3d
00000150: 7754 98bd d872 733d 8150 523e 7b7c 88be
00000160: 0808 eabe 1e28 3ebd 935a 353e d9da a83d
00000170: 12d6 8cbf 8d15 11bf 9985 78be 373d 123e
00000180: a4d0 ecbb 73db 1abf 1e52 83bd d8ec 35be
00000190: 071a 27bf b8cc 963d 89c3 fdbd e335 5a3e
000001a0: dfb1 d7bc dea9 aa3d 1ab8 ee3d 8de9 043e
000001b0: 9a2e 2d3e 8a80 43be 8d24 48bd eda0 1ebe
000001c0: 5945 f53d 8b41 2f3d 69c6 263e 58e7 12bd
000001d0: e97b 7fbe 26fa cf3d a74a 4abb fb87 fa3c
000001e0: 9502 3abe 0c6e 233e 6680 753d 6537 25be
000001f0: 5ded bb3d cee5 e9bc 4d27 86be 5102 8fbd
00000200: 59e4 16be 62f8 14be 16ee 98bd 70ed 613e
00000210: 383f d0bd 56c5 94be 76d6 9e3d 2c62 c6bd
00000220: 0cc7 ec3b 29d0 2e3e 040b 623e 7c37 7e3d
00000230: 3d58 b3bd edf8 923d 7705 953e 05c0 05be
00000240: d6d9 733e b69e 02be af5c 083d 501e d7bd
00000250: be61 0c3e 941f 983d efe1 66be 0690 b93d
00000260: dd68 3bbe 904e 4ebe 4942 c03a 236b 7f3d
00000270: 5829 823d c3a5 78be 7faf babd ea09 633e
00000280: e015 bdbd 3915 383e 5f73 ed3d e76b fbbe
00000290: b7a7 9f3e 1079 0abd 7074 6c3e 54c4 07be
000002a0: 4ece c83c 8a9c 553d 69bb 273e 5a15 75bd
000002b0: 2804 0a3e c292 4f3e 48c4 0f3e 7554 28bd
000002c0: 4a94 133e 65f7 19bd 381a febd 31b3 203e
000002d0: 8b70 313d 823d 10be dae1 2b3d cd16 79be
000002e0: f8d4 0e3e 47f1 6f3e ace0 2fbe 960a 023a
000002f0: faa7 863e 373f 633e 02ef aa3d 7320 313e
00000300: 4b0c 863d 70a9 7f3b d82b 973d f8f8 013e
00000310: 236b 82be 8025 323d 40e9 3b3e 520f b93c
00000320: 85e3 fdbe aa35 9f3d cb1a 30be a3bc 5abe
00000330: a8b3 533d dd89 41bd c2b0 f23c 4a46 9fbe
00000340: 7537 a5ba 8b92 b73e 6ba5 1a3d 8ab4 7e3d
00000350: 4270 ac3d 58d8 12bd 1a96 09bd bf7f 0a3d
00000360: 7a37 f5be ad8f ad3d cc67 203e 341d 273e
00000370: 00d0 fabd f633 5f3e ee3f a3be 2ccb 2a3e
00000380: e349 fe3e ad83 4b3b 89af 6b3d 7dc4 d8bc
00000390: d21f 943e a6e1 77be 9c03 cabd db6b 3d3e
000003a0: 5303 c73e f125 9b3b ad1b 513e a58e 313e
000003b0: 79de 7bbe 5d6a 793e e4aa fbbc a85b 1abe
000003c0: 8023 7cbe f344 87be 9c4c b5be e53b 873e
000003d0: 32a0 3bbf 28d4 86bd 5f36 623e 6f0f bdbd
000003e0: eed3 103e fd25 123e 726b 433e e6f9 9a3b
000003f0: 119c f83d a23b 0abd 8eb1 53bf 9280 d1bd
-0.0048274575 0.12453381 -0.16873358 -0.1598404 0.017873855 -0.27596772 -0.08296413 -0.043857526
0.19630226 0.19820721 -0.38032547 -0.07166262 -0.18134093 -0.19581111 0.29302713 -0.083994605
0.3045019 0.19552408 -0.2628867 0.29037663 -0.43429023 -0.15014897 -0.1143037 -0.04141219
-0.1664619 0.13799486 -0.0078010643 -0.40590483 0.06309918 -0.05001605 -0.04349816 0.014822493
0.013654441 -0.02697715 0.13151708 -0.2367253 -0.09183607 -0.13467711 -0.054279413 0.21969451
-0.070906885 0.15801063 -0.22503014 -0.0046202606 0.26384893 -0.40974155 -0.020758016 0.03636834
0.017328322 -0.5052401 0.115444385 0.10839031 0.21743923 -0.18253988 0.26908335 -0.26224056
0.11644263 -0.05595613 -0.22357237 0.06943497 0.03147396 0.04429701 0.27613184 -0.013915072
-0.14386483 -0.15415293 -0.11949946 -0.09819648 0.24920665 0.1410633 -0.30685106 -0.37652203
-0.25145122 0.0011911965 0.53756243 -0.2496383 -0.30204865 0.1460474 0.06591137 -0.16558522
-0.1437587 -0.30847958 -0.3429574 0.06838409 -0.074379854 0.059435695 0.20538522 -0.2665747
-0.45709252 -0.046424977 0.17710333 0.08244867 -1.1002829 -0.5667351 -0.24269713 0.14281164
-0.0072270203 -0.604911 -0.06412147 -0.1776613 -0.6527409 0.07363266 -0.12390811 0.21309619
-0.026329933 0.08333181 0.11656208 0.12979718 0.16912308 -0.19092003 -0.048862983 -0.15491076
0.11976118 0.042787116 0.16286625 -0.035865158 -0.24949612 0.10155134 -0.003086725 0.030582419
-0.18165047 0.15959948 0.059936903 -0.16134413 0.09176133 -0.028551962 -0.2620186 -0.06982864
-0.14735545 -0.14547876 -0.07467286 0.22063231 -0.10168308 -0.29056805 0.07755749 -0.096866935
0.0072258767 0.17071594 0.22074515 0.062064633 -0.087570645 0.07176385 0.29105732 -0.13061531
0.23813567 -0.12755856 0.033291515 -0.105038285 0.1370916 0.07427898 -0.22547124 0.090606734
-0.18301721 -0.20147157 0.0014668192 0.062358033 0.06355542 -0.24281983 -0.091155045 0.2217175
-0.09232688 0.17976846 0.11594271 -0.4910576 0.31182644 -0.03380686 0.23091292 -0.13258487
0.024512436 0.05215124 0.16380085 -0.059834816 0.13478148 0.20270827 0.14039719 -0.04109617
0.14412037 -0.03758945 -0.124073446 0.15693356 0.04332022 -0.14085963 0.041963436 -0.24325104
0.13948429 0.23431884 -0.1717555 0.0004960684 0.2630003 0.22192083 0.08346368 0.17297535
0.065453134 0.0039010905 0.073814094 0.1269263 -0.25472364 0.043492794 0.18350697 0.022590313
-0.49587646 0.077739075 -0.1719772 -0.21361022 0.051685005 -0.047250617 0.0296253 -0.31108314
-0.0012605028 0.3585399 0.03775541 0.062183894 0.08419849 -0.035850853 -0.033590414 0.033813234
-0.47893888 0.084746696 0.15664595 0.16319734 -0.12246704 0.21797165 -0.31884712 0.16679066
0.49665746 0.0031053827 0.05754045 -0.02646088 0.28930527 -0.24207172 -0.0986397 0.18498175
0.38869724 0.0047347476 0.20420714 0.17339571 -0.24596585 0.2435698 -0.030721135 -0.15074027
-0.24622917 -0.26419792 -0.3541001 0.26412883 -0.73291314 -0.06583434 0.22091053 -0.09231459
0.14143345 0.14272304 0.19083956 0.0047294972 0.12139142 -0.033748277 -0.826928 -0.10229601

layer1.bias f4 [64]
00000000: b509 a23c 1c7a a4bc 74cf 6d3e 854c 25be
00000010: 4726 683c e00a 4fbd ffff 7a3c 7dc2 0c3e
00000020: 760b 843e 0e24 ec3c 7a2c 653e 71d3 3e3c
00000030: 30f9 113e cfda e83c 0849 203e 2790 c83c
00000040: 1b8c 2dbe 06f4 81be c14d a1bc 833f 84bc
00000050: f532 61bd b095 4a3e 48e3 81be 4543 393e
00000060: af48 78be 36b8 32be 594c 22be 68bb 0ebd
00000070: 9d09 d53c 3846 833e 628d 5e3e 9b1e 54be
00000080: 1437 43be b9ba 833c 123a 033c b7c9 3b3d
00000090: 0a45 063e 491a a4bd 3d14 ed3d ad9f 6fbe
000000a0: 30cc 5a3d 6fc7 bc3c a299 d4bd a05b dd3d
000000b0: b0f8 3f3e 6310 48bd 2c26 563e 25f9 343e
000000c0: 100f d43d 92eb cf3c d7f4 eebd 5f63 98bd
000000d0: 1366 f63d 4ddb 14be a477 053e d9b8 703d
000000e0: f0bf f13c 0d40 323e 1ce8 a8bd 7c7b 1abe
000000f0: b858 3c3c a8fb 033e 7868 24be 3c2f f1bb
0.01978002 -0.020077758 0.23223668 -0.16142471 0.014169282 -0.05054748 0.015319823 0.13746066
0.25789994 0.028825786 0.22380248 0.011647091 0.14255214 0.028424649 0.15652859 0.0244828
-0.16947977 -0.25381488 -0.019690396 -0.016143566 -0.054980237 0.19783664 -0.25368714 0.18092068
-0.24246477 -0.17453083 -0.15849437 -0.034846693 0.02600556 0.2563951 0.21733621 -0.207148
-0.1906398 0.016080247 0.0080094505 0.045846667 0.13112274 -0.08012826 0.11576126 -0.23400755
0.053417385 0.023044316 -0.10380866 0.10808492 0.1874721 -0.048843753 0.20912999 0.17673166
0.103544354 0.025380883 -0.11667793 -0.074408285 0.12031188 -0.14536782 0.1303392 0.058770034
0.029510468 0.17407246 -0.08247396 -0.15086168 0.011495762 0.12888968 -0.16055477 -0.007360367

layer2.weight f4 [32, 64]
00000000: 4bfb c33d b3e4 b8bc 8428 7a3d ee32 8cbe
00000010: 5697 debc aab5 d03c 9cea 6fbe c70a 7c3d
00000020: 3596 663c 2d1c a63d 7499 0b3e f1fc 813d
00000030: 0a55 e63d 0613 2f3e e44c 1abd f7c7 02bd
00000040: 5676 763d e0a3 8abc b177 ce3c a586 e23d
00000050: 28bf 8bbd 97b5 87bd 2cf1 1abd 25d2 9a3d
00000060: 06f4 333e 6da2 c33b 527d e43d 1df3 a3bd
00000070: 07d4 043e a9b2 9c3c a414 9cbd 26b7 aebd
00000080: 64fb 733d 7789 9e3c b86b 9dbd 5c15 f1bc
00000090: 04d4 313e eee6 2a3e 39d7 c43d a874 e5bd
000000a0: e474 debd ed11 443e 540c 623d f8e3 9bbd
000000b0: 97fa 14bb 9123 a8bd ac9b d3bc 8ef8 f3bd
000000c0: 0061 d13c f4ad 7b3e b2a1 973d 148d bf3d
000000d0: 37ca b73d 8d44 6dbd 341e 043d e416 ec3d
000000e0: a0a2 ee3d 77af a33c a9c3 aebd e282 d8bd
000000f0: f8af e53d 54e9 e1bd 24a7 9cbd 772c 643d
00000100: 428a 5f3d 5f73 0e3e 43a5 333d 4793 9b3d
00000110: f167 41bd 5d0b a73d c5a9 bc3d 5b9b 8e3d
00000120: c4eb 02bd d8cb eebb 6e59 e7bd 2072 5bbd
00000130: 6fcf c63d e329 8e3c bb74 833c 7aad b23d
00000140: 9513 e53c 00c2 dc3b 9a9a 9d3d 6a76 9d3d
00000150: 4b37 8a3d e5cf 283d aa7d c3bd 0414 6b3d
00000160: 2558 90be 9eb4 45bc 10c5 893c eeb5 cabd
00000170: 4188 46bd 6cc0 a3bd 2a70 be3d a637 d7bd
00000180: c6c9 8d3d bd56 2bbd 7936 1cbd 6f4d 943d
00000190: 3120 08bd a851 2cbe a843 b83d 0083 d13b
000001a0: 03ca c8bd b64c aa3c 6a2a a43d c52d dfbd
000001b0: b986 e1bd 51c6 a0bd e778 cfbd 49ff 55bd
000001c0: 0be4 553d 9a1a 0cbe 8b91 c33c 2ef1 7bbd
000001d0: 2f61 80bd 8ed4 083c eb0a 18be 9c1b 1abb
000001e0: 2278 073d c9e3 6bbd 6afe 043e 8672 e73d
000001f0: 3456 69bd 5f2c b93d 1a15 ec3d 0ad9 153e
00000200: d02f 44bc 98a2 cd3c c479 873d 3042 db3c
00000210: c838 153d 3890 0a3d 18a1 b8bd 866f 8c3d
00000220: 546a 41bd 322d c9bd 58f1 f9bc 6843 e0bd
00000230: 9cf6 74bd 9863 03bd beac b63d 8cdf a43d
00000240: 20a8 df3d 4c60 81bd 8069 6c3b 3015 a0bc
00000250: 28ea 953d 04a9 16bd 68e6 523d 80cb d6bc
00000260: 3ace 84bd 786d 6e3d c0ed 983b 882c 913d
00000270: 80a4 f73b 507a 94bc 800a 5dbb 8030 d73a
00000280: 78cb f1bd 5c8b 95bd 3899 9bbc 8020 53bd
00000290: b0cd 083d e033 b1bd 00ba d33d b0bd 12bc
000002a0: 002d 693b 7c02 243d 2037 10bc 2e5d cabd
000002b0: c253 8abd 6459 2ebd fc17 693d a826 bbbd
000002c0: 00fd 9bba c0ee 0f3c 0645 923d fcb3 22bd
000002d0: e27d dcbd 7ced e8bd 64bf 72bd 96c4 a0bd
000002e0: 28ca 19bd 4278 babd e84a d5bd 682c 56bd
000002f0: f466 293d 5087 a83c 38b5 be3d 18e5 adbc
00000300: 36fe ba3d 50da 1fbc cc61 bebd ad29 90bc
00000310: 3c20 e43d 1427 a9bd e61d d13d 3e62 e93d
00000320: 2232 ffbd 6627 ddbd ae38 80bd 0399 88bc
00000330: 4d78 34bd ad78 9dbc 0585 abbd f707 a83c
00000340: c806 40bd b058 e03c 9c0e c53d 97fa 05be
00000350: 74ed 19bd ca7c 973c 00b5 133a 80d5 4bbd
00000360: 2677 e7bd ce5f cfbd d036 a13d 983e 95bd
00000370: 89cb d53d c149 033d 9d0c 453d 889a e43d
00000380: ca31 c6bd fcff debd ecb0 c83d 7668 4e3c
00000390: 7ca0 d73d 060b e63d a690 41bd c82f 0a3d
000003a0: 82d4 abbd 102d a4bc 700f 3f3d 6dec a83d
000003b0: 57ec ebbd aa12 a23d 6275 67bd 0803 843d
000003c0: 6c9d 27bd 14d5 62bd 50ea 2bbd 2b29 2d3d
000003d0: 2477 58bd 50e4 623c bd66 ddb9 aefb 93bd
000003e0: ba46 febd 42ca 98bd 4c57 a5bd e683 93bd
000003f0: 2463 3cbb 9e80 02bc a0c9 dfbb d8b8 8abd
0.09569415 -0.02256999 0.061073795 -0.27382606 -0.027171772 0.02547725 -0.2342934 0.061533716
0.014073898 0.08110843 0.13632756 0.06347073 0.11246689 0.170971 -0.037670985 -0.031928983
0.060171448 -0.016923845 0.025203558 0.11060838 -0.068235695 -0.066264324 -0.037827656 0.07559613
0.17573556 0.0059702904 0.111567155 -0.080053546 0.12971507 0.01912816 -0.076211244 -0.085310265
0.059565917 0.019352658 -0.07686561 -0.02942913 0.17366034 0.16689655 0.09611363 -0.11203891
-0.10862139 0.19147463 0.05518754 -0.07611841 -0.002273237 -0.08209909 -0.025831066 -0.119126424
0.025558949 0.24578077 0.07403888 0.093530804 0.08974116 -0.057926703 0.032255366 0.115278035
0.11652112 0.01998113 -0.08533413 -0.10571839 0.11215204 -0.11030832 -0.07649067 0.055706467
0.054575212 0.13911198 0.043858778 0.0759645 -0.047218267 0.08156464 0.092120685 0.069632255
-0.031963125 -0.0072874837 -0.11296354 -0.053575635 0.097075336 0.017353958 0.016046872 0.08724494
0.027963439 0.006736994 0.076955035 0.07688601 0.067488275 0.04121389 -0.09545453 0.057392135
-0.2819225 -0.012066988 0.0168176 -0.098979816 -0.048469786 -0.07995686 0.09298737 -0.10508661
0.06923251 -0.041830767 -0.038137887 0.07241332 -0.033233825 -0.16828024 0.089972794 0.0063937902
-0.09804156 0.020788532 0.08015902 -0.10897402 -0.110120244 -0.07850326 -0.10130482 -0.052245412
0.05221943 -0.13682023 0.023873111 -0.061509304 -0.06268536 0.008351458 -0.14847915 -0.0023514992
0.033073552 -0.05759028 0.12987676 0.113011405 -0.056966975 0.09041666 0.11527462 0.14633575
-0.01197429 0.025101945 0.06615022 0.02676496 0.036431104 0.033828944 -0.09015101 0.06857209
-0.047220543 -0.098230734 -0.03051059 -0.10950357 -0.059805498 -0.032077402 0.08919667 0.08050451
0.10920739 -0.06317195 0.0036073625 -0.019541353 0.073200524 -0.03678228 0.051489264 -0.026220083
-0.06484647 0.058209866 0.004667014 0.07088572 0.0075574517 -0.01812473 -0.0033728182 0.0016417652
-0.11806387 -0.07301971 -0.018993959 -0.051544666 0.033399284 -0.086524725 0.10338211 -0.008956358
0.00355798 0.04004143 -0.008802205 -0.09881054 -0.06754257 -0.04256572 0.05690764 -0.091382325
-0.0011900961 0.00878495 0.071420714 -0.039722428 -0.10766198 -0.113734215 -0.059264556 -0.07849996
-0.037546307 -0.091049686 -0.10414678 -0.052288443 0.04135795 0.020572335 0.093119085 -0.021227404
0.09130518 -0.00975664 -0.09295997 -0.017597998 0.11138961 -0.08259407 0.10210781 0.11395691
-0.12460734 -0.1079853 -0.06260811 -0.016674524 -0.04406004 -0.019222582 -0.08374981 0.02051161
-0.046881467 0.02738604 0.09621927 -0.13083874 -0.03757997 0.018492121 0.0005634576 -0.049764156
-0.11302023 -0.10125695 0.07871783 -0.072873294 0.10439212 0.03205276 0.048107732 0.11162287
-0.09677465 -0.10888669 0.0979937 0.012598148 0.10528657 0.11232571 -0.047257088 0.033736974
-0.08390142 -0.020041019 0.04664558 0.0824822 -0.115196876 0.07913716 -0.05650843 0.06445891
-0.040921614 -0.05537899 -0.041971505 0.04227559 -0.052847996 0.013848379 -0.0004222895 -0.072257385
-0.12415834 -0.074604526 -0.08073291 -0.07202892 -0.0028745616 -0.007965235 -0.0068294555 -0.067735374

layer2.bias f4 [32]
00000000: 0303 823d 2e07 cc3d a4c0 88bd 8c8f 90bc
00000010: a070 bcbd 3ad5 e8bd 7496 a03d 9b54 8f3d
00000020: de14 ac3d 5aeb 063d 6d4b ce3d 29f6 ce3d
00000030: 8b8d 0cbe 5c83 ae3d 60d1 a43c fb65 923d
00000040: 97ff 7ebd 77fd 95bd 26d7 03be bb54 503d
00000050: 4ec5 cfbd c37c 56bd dce0 72bb 0f25 87bd
00000060: 9c79 d1bd 8e45 e4bd 8218 b13d 6aac febc
00000070: 5a9d b2bd d608 8ebd 2c79 a5bd bd6a 32bd
0.06348231 0.09962307 -0.06677368 -0.017646573 -0.09201169 -0.11368795 0.07841197 0.06998559
0.084024176 0.032939292 0.1007298 0.10105545 -0.1372587 0.085211486 0.020119369 0.071483575
-0.06225547 -0.07323735 -0.12875041 0.050862055 -0.10145055 -0.052365076 -0.0037060296 -0.06598865
-0.10228273 -0.11146079 0.086472526 -0.031088073 -0.08721419 -0.06935279 -0.08079752 -0.043558825

layer3.weight f4 [1, 32]
00000000: 324d 043d 40e9 0dbe 6086 ee3b 4777 27be
00000010: 3982 86be 2013 453d 64ee 313e fc9c efbd
00000020: d379 333e ee2b 04be a906 8a3d 2d70 0fbe
00000030: d672 21bc 1368 93be a00a 0abe d4ed debd
00000040: ea31 9e3d 6015 18bd c776 903d e505 aa3d
00000050: 00f6 773b 8ef2 db3d f785 393e 961e 863e
00000060: 5359 afbd e047 cb3b 1783 983c 4983 0abe
00000070: 643e 343e 7b6b 0ebe 8e99 a93e 1284 00be
0.03230018 -0.13858509 0.0072792023 -0.16354094 -0.26271227 0.048113942 0.17376095 -0.11699864
0.17526941 -0.12907383 0.067395516 -0.14007635 -0.009854039 -0.2879034 -0.13480616 -0.10885206
0.07724364 -0.03712976 0.07053905 0.083019055 0.0037835836 0.10739623 0.1811751 0.2619521
-0.08561959 0.0062036365 0.018617196 -0.13526644 0.17601925 -0.13908188 0.33124965 -0.12550381
