mat_model/model_name_first/density_model.pth (torch, 15236 bytes, 5 tensors)

layer1.weight f4 [64, 15]
00000000: 974f 4a3d 955f 493e a5fe 903d 1be3 843e
00000010: 6d02 f53b e62f e0bd be2e c53b 6d81 13be
00000020: a55f 893c b2b3 a4bd e70e 683e 3192 56bd
00000030: 74ff 583e 0f00 39be 418f babd 65ae 2dbe
00000040: 79a4 a4bd f90f 503e 6c61 943c bd25 643d
00000050: 9f2a 71be c181 4cbe 4549 413e 787b 033e
00000060: c10e 543e f76b 17bd ad19 0f3e 3f46 7fbe
00000070: bfae a83d f7eb 833e 29ae d1bc 8c74 723e
00000080: 2383 46be 52e6 3b3e b2b6 8cbd ff57 aabe
00000090: 05ad 333b ed08 e13c ed32 8abe 7392 913d
000000a0: ea75 303e a54a fe3d 4c1b 893d d40e b4bd
000000b0: 466f 843d 020b 2a3e de89 16bc 188a 773e
000000c0: 2800 983e eb33 283e c745 12bc 27f6 ec3d
000000d0: f50a 733e daf6 b0be cabe 09be c7e8 a4bc
000000e0: 7c6d 1cbe 9b6f b1bb 6695 5d3e 9143 3abe
000000f0: 3c0f a03d 712e ffbd 0e3a 41be 2910 1fbe
00000100: 242b c83d 3bee f63d 3be4 0abd f4ce 393e
00000110: f331 94be 553c 773e c7b1 0b3e 477d c0bc
00000120: b643 52bb 8686 1a3c 5799 85bd b28c de3d
00000130: ba52 a23d fbc5 523d dd5e 6dbe e872 2dbe
00000140: 9938 733e f62e 583d d1a1 4a3e 01a0 763e
00000150: 9838 6cbd 54c0 a4bd 7b1c 84be 6a46 3b3e
00000160: 5670 fbbc b0d5 0c3e 8b70 9d3c bb95 febd
00000170: ee1f 74be 8af3 d23d ceec 01bd 0bd7 583e
00000180: e806 80bc b34c 28be dcb5 88be e077 1d3e
00000190: 7c0b 65be a71c df3d d05c 43be 9e0d 893d
000001a0: c653 993e 9ce6 773d bbab 943e a79c 973e
000001b0: b298 233e d3c7 1ebe 024e cb3d fd6c 053e
000001c0: 835d 273e f202 eebc 6fec b83c 0314 823d
000001d0: 95f2 44be f39f 1cbf 7eb9 563e 24d4 6b3e
000001e0: be04 cfbd 5633 323e 5e6d 6fbd 283c 823d
000001f0: 827a 103e e932 2cbe eb20 61be 83b6 02bd
00000200: 9325 65be 3e85 c1bd ecb9 5e3e 6518 b33d
00000210: 1a69 6bbe b4bd 44be d21f a83e 41de 06be
00000220: a1cf 183e a00a 48bd 155e 0b3e 471a 3c3e
00000230: 81b8 113e 9b40 4a3e 9f24 143e 0dd5 16be
00000240: 6d48 673e eed7 243e 9399 afbc b9e7 d8be
00000250: 19e1 293d a9d9 193e 9770 6d3e 0770 29bd
00000260: ae14 2bbd 187a 65bc 5d09 35be b603 09be
00000270: edca 28bd 8fa6 a0bc 2f0d e93d 2b88 30bd
00000280: 9b39 1bbe a3f0 b7bd 22cd e53d 1782 423e
00000290: b242 b1bc e5d3 a3bd f557 82bd 70c9 b23d
000002a0: 8fa2 92bc ac83 8d3e be0c 313e 6b76 403e
000002b0: b081 66be 90d7 883d 083a e2bd 3be9 21be
000002c0: cbe2 7a3c db23 f3bd e57d 893e 4191 903e
000002d0: b17e a6ba 675b 98be 27c1 09bd da2e 2e3e
000002e0: 9fbf 4fbe 7368 b53d 213e aebe e579 0abd
000002f0: 0e04 acbd 2b17 bd3d 3a11 b03c 0f77 abbd
00000300: 4522 e63d 5a4f 293d 0019 b63d f745 0ebe
00000310: 357f 463d fc5b 813e 4a99 793e b949 62be
00000320: 7c2a 26be 8599 ac3d 5ead ed3d 3590 1d3e
00000330: 5692 d4bd 6f9e 87bd 65c4 503e 8733 f53d
00000340: e2ab 723e a8d0 6a3d 51d9 703e 2e20 a53e
00000350: dd91 b2bd 55b7 5dbd a17f 34be 99f4 d03d
00000360: 799a 2e3e 65bd 59be eaef 0c3e dba7 4e3d
00000370: 291f ae3d 4df2 8cbe 952f 45be 1ea7 64be
00000380: e006 20be 643d 29bd 1cdb 48bc 2a68 34bd
00000390: 6788 31be e6ed cfbd 9d20 b6bd 310b dc3d
000003a0: 26b2 1abe edf6 50be c6c1 013e c4c3 963c
000003b0: bbd2 b0bd 0208 3fbd ca6c 2fbd 6516 97bc
000003c0: 5154 e9bd 5dab aa3e 9d8e 133d a5d6 01be
000003d0: fd9d 813e bbb8 dbbd fce1 d8bd 12f1 81bd
000003e0: d256 193e f6d7 3d3e f64e 05be 46ee 63bd
000003f0: 3a98 39bd ddd7 7a3e 8170 4ebe 30e0 4b3c
0.04939231 0.19665368 0.070798196 0.25954518 0.007477096 -0.10946636 0.006017535 -0.14404841
0.01676924 -0.08042087 0.22661935 -0.052385513 0.21191198 -0.18066429 -0.09109355 -0.16961057
-0.08039183 0.20318593 0.01811286 0.055700053 -0.23551415 -0.19971372 0.18875606 0.12840068
0.20708753 -0.036968198 0.13974638 -0.2492914 0.08236455 0.25765964 -0.025595741 0.23677272
-0.19385962 0.18349579 -0.06870784 -0.3327026 0.002741636 0.027470076 -0.26991978 0.07108011
0.1723248 0.12416581 0.066946596 -0.08791891 0.06466536 0.16605762 -0.009188144 0.24173772
0.2968762 0.16426055 -0.008927769 0.11570387 0.23734649 -0.34563333 -0.13451687 -0.020130528
-0.1527614 -0.0054149157 0.21639022 -0.18189837 0.07815406 -0.1246003 -0.18869802 -0.15533508
0.097738534 0.120571576 -0.033909064 0.18145353 -0.28944358 0.24144109 0.13642035 -0.023497237
-0.0032083816 0.009431487 -0.06523388 0.10866679 0.07925935 0.05145834 -0.23180719 -0.16938365
0.23752059 0.05277916 0.1978829 0.24084474 -0.05767116 -0.08044496 -0.2580298 0.1828858
-0.030693214 0.1375339 0.019218704 -0.124309026 -0.23840305 0.10300358 -0.031719975 0.21175782
-0.015628293 -0.16435508 -0.26701248 0.1537776 -0.22367662 0.10894137 -0.19078374 0.066920504
0.29946727 0.06052266 0.2903727 0.29611704 0.15976217 -0.15505914 0.09926988 0.13029857
0.16344266 -0.029054139 0.022573678 0.06351473 -0.19233163 -0.61181563 0.20969197 0.23030144
-0.101083264 0.17402396 -0.05845391 0.0635913 0.14109233 -0.16816296 -0.21985213 -0.031912338
-0.22377615 -0.09449242 0.21750611 0.08744887 -0.22989312 -0.19212991 0.32836777 -0.1317072
0.14922954 -0.048838258 0.13610108 0.18369399 0.14230539 0.19751208 0.14467095 -0.1472971
0.22586222 0.16097996 -0.021435535 -0.4236429 0.041474435 0.15024437 0.23187481 -0.041366603
-0.04176777 -0.01400616 -0.17679353 -0.13380322 -0.04120915 -0.019610671 0.11379468 -0.04309861
-0.15158693 -0.08981445 0.112207666 0.18994938 -0.021638248 -0.079994 -0.06364433 0.087298274
-0.01789978 0.2763952 0.17290017 0.18795173 -0.2251041 0.0668174 -0.11046225 -0.15811627
0.015312861 -0.11872073 0.26853862 0.2823582 -0.0012702552 -0.29757234 -0.03363147 0.1701006
-0.20287941 0.08857813 -0.34031776 -0.033807654 -0.08399211 0.092329346 0.02149259 -0.08372318
0.11237005 0.04133544 0.08891487 -0.13893877 0.048461158 0.2526549 0.24374881 -0.22098435
-0.16227144 0.08427719 0.11605333 0.15387042 -0.10379474 -0.06622016 0.20387419 0.11972719
0.2369838 0.057327896 0.235204 0.32251114 -0.087192275 -0.054129917 -0.17626812 0.10202903
0.17051114 -0.21263655 0.13763395 0.05045305 0.08502037 -0.2752861 -0.19256432 -0.22329375
-0.15627623 -0.041318312 -0.012259271 -0.04404465 -0.1733719 -0.101527974 -0.08892939 0.10744322
-0.1510702 -0.20406695 0.12671575 0.018403895 -0.08633944 -0.046638496 -0.04282836 -0.018443296
-0.11393035 0.33333865 0.03602468 -0.12679537 0.25315848 -0.10728594 -0.10589978 -0.06344809
0.14974526 0.18539414 -0.13018402 -0.055647157 -0.04531119 0.24496408 -0.20160104 0.012443587

layer1.bias f4 [64]
00000000: eb99 7c3e 541c 5bbd 1b80 ca3b 7a22 11bc
00000010: 0f54 4d3d a795 383d 6029 0b3e c7a3 d3bd
00000020: bdce 633e a64e c6bd a2af 253d f2d7 233e
00000030: 2ff3 f6bc 534d 4e3d 6423 41be 8e78 f93d
00000040: bd9c a0bb 0541 34bc cb4e bbbc f36d 893d
00000050: 5544 b5bd cf81 bebd 3b25 eb3d c92c 743d
00000060: def3 b9bd 1cd5 503d e836 4f3d 6fa6 4e3d
00000070: 79f5 56be 69b6 0abe b8dc 1d3d a2b9 f7bb
00000080: ab93 d6bd 5081 60be 7436 1d3e 1a81 bbbd
00000090: 0da2 59be d593 62be 474e 45bd c95d f7bd
000000a0: 93c4 183e c1b9 2a3e 9c43 5d3e a725 3e3e
000000b0: baa5 aabd 9198 d5bd 7efd d3bd 39af c13d
000000c0: 58ca 213d 3201 2ebe fd5a 743d 8da7 433e
000000d0: 9af0 cb3c 1283 453e c10c 7fbe f6d3 763e
000000e0: 0f36 423e 4a81 303e e809 593e 4fd2 4c3d
000000f0: d652 ea3d 3d3b 6ebe c4eb 763d 3f5f f0bd
0.2466809 -0.053493813 0.006179822 -0.0088583175 0.050128993 0.045064595 0.13590002 -0.103339724
0.22246833 -0.0968297 0.0404507 0.16000345 -0.030145256 0.05036671 -0.18861157 0.12181197
-0.004901497 -0.01100183 -0.02286472 0.06710424 -0.08850924 -0.09302103 0.114817105 0.059613023
-0.09079717 0.050984487 0.050589472 0.050451692 -0.20992078 -0.13546146 0.038540572 -0.007559971
-0.10477384 -0.21924329 0.15352803 -0.091554835 -0.21253224 -0.22126706 -0.048170354 -0.12078435
0.14918737 0.16672422 0.21607822 0.1856905 -0.08332391 -0.1042949 -0.10351084 0.09457249
0.03949961 -0.16992643 0.059657086 0.19106884 0.024895001 0.1928828 -0.24907209 0.24104294
0.18965934 0.1723682 0.21195185 0.050005253 0.11441581 -0.23264785 0.060283437 -0.11736917

layer2.weight f4 [32, 64]
00000000: c455 9a3c 9f8f c13c dc29 e53c cc35 4d3c
00000010: 904d 9d3d 803d 243c 3eb9 5bbd 6d33 06be
00000020: a236 793d a501 ae3d 3c19 8f3d 7fe8 aebd
00000030: 0de3 af3d 556f 92bd 996b 8dbd d3c9 e63b
00000040: f129 0ebe 3bbe 58be 8ed6 6a3d bdb7 67bd
00000050: a5ad 03bb 720e 0e3d f424 23bd 3c43 8a3c
00000060: f410 06be 7138 c2bd f62c cebd 6ce0 95bd
00000070: 5ca7 003d 2e14 e53c da8e e6bd fa10 05be
00000080: 3841 e8bd 7d98 aabd f0e7 f53b c019 023e
00000090: 808b 053d 823a e53e e783 b93d f3a2 61bb
000000a0: 44e8 98bc 59fd 05be 0989 903d 88a0 c6bd
000000b0: f944 bcbc 9639 573f 4c2b 4f3c 6c2b 043c
000000c0: 34e3 dabc 4956 563d d1de e23c 65d5 0cbe
000000d0: ef4b f23d bcd7 bebc 36d2 55bd 4da6 853d
000000e0: 393a b7bd d2e7 ac3d e2d7 7f3d f9d1 45bc
000000f0: 68e3 47bd 050d f73d 6b59 dd3c 737b 00be
00000100: 3510 d73c 86af 863d 9048 053d 4f87 ecbd
00000110: e2a0 d8bd 8beb 99bd b01b 17bb 0c4d 513e
00000120: 84df cd3d f4d7 4b3d 035a 92bd bd5a 9dbd
00000130: 0867 f63d 2699 3c3d 5164 283e 0dd5 d23d
00000140: 89e2 4ebc ae8d 6fbe ebd1 3dbd 2019 ca3d
00000150: ee8f 5c3d 7f3e 123d 1b67 4cbd f2dc b5bd
00000160: 062f 8e3d 90e3 683c 978a 573c ed89 183d
00000170: 1aec f33d d311 d63b c0c8 c9bc 9596 fc3d
00000180: 7ae3 5fbd 6ce1 cdbd a5af 913e 0f61 10be
00000190: f4dc 51bd 5e06 95be db47 303d 75fa 403e
000001a0: 9ab4 e2bd eea7 ba3d 333e 8a3d 2337 d33d
000001b0: 931e e33d 063c eb3e be33 d23d ed46 d8bd
000001c0: 1f28 9d3d 820d 8b3d 3db2 a73d 04e1 e63d
000001d0: 5b1f 37bd 9df4 f93d 3c89 69bc 7097 a83d
000001e0: 1449 ff3d 0769 553d 2802 efbd 9b83 c1bd
000001f0: 211d a93d 33ec 3dbe 447e 79bd 7e41 a13d
00000200: 4f7f 293d 675b 2b3c 0c08 4cbd d628 c73d
00000210: cdc7 13bd fbb9 aa3d be44 a8bd 8ba3 9f3d
00000220: b1ba 3c3d 9b04 a33d b003 c0bd 9ebd 53bd
00000230: 5b7d 08be d7aa efbc 5e70 63bd 29a7 853d
00000240: 0121 5f3b d688 743e fe5b aa3d 738c 673d
00000250: c045 8abd 86c4 90bc 7b83 94bc c356 ee3c
00000260: 925f 49bd bf46 87bd e133 74bd d897 db3d
00000270: 3420 8a3d f8b2 2d3d acdb bf3d 39e9 eebc
00000280: b0a1 ef3c d858 863d eb69 363d 6f1f 64be
00000290: 6826 103d 897f b3ba 2076 d4bd cb9a 11be
000002a0: 236d e0bd e88d 7e3d 2ad8 da3c c1cb dc3d
000002b0: 5516 b73d 0383 abbe 6093 29bc 41ac a43c
000002c0: bef9 da3d c2e9 56bd b956 f2bc 1d07 a8bd
000002d0: 2a0b 923d 6cdf 91bc b2a9 5a3c 5537 03be
000002e0: 1689 b73d 56e4 cdbd 7f9a c9bd 76bc 15bd
000002f0: a7cb 24bd 20d6 033d b063 5abd daa2 7f3d
00000300: c834 b2bd 904b 7cbd 9a60 e8bd e03a ed3d
00000310: 0a52 95bd caeb dcbd dced 993d 9e35 c5bd
00000320: 9cb2 1e3d 6cd7 1cbd 5e8b e8bd 8ce3 fd3d
00000330: fe82 9a3d f078 7abd 802a 993a ea55 a73d
00000340: d0b8 20bc 1801 e43c 22b5 b5bd 1a70 b63d
00000350: c6d5 a0bd 003b 543c 04a1 ff3d 8c4d 60bd
00000360: a0af 5d3c a0fc 65bd 687f e9bd 80a9 ef3d
00000370: 184d 85bd fe2f b5bd 583c c0bd eecd b73d
00000380: 74b5 7d3d e664 be3d a2f5 d0bd 4038 883b
00000390: 5848 04bd c03f b5bd 3cb8 28bd 20cd 50bc
000003a0: 5cfc 5f3d f6d0 d13d c0a2 a9bb 78ea ab3c
000003b0: 2c4d afbd 1c45 3dbd fc3d 93bd d818 fa3d
000003c0: 1aeb a3bd 24cf 053d fa8c c6bd 1494 483d
000003d0: 4031 553d 6c6f cabd 2443 31bd fe4e a0bd
000003e0: 1832 82bd 6009 b03b 5430 c63d 0427 a5bd
000003f0: 40c6 70bb 50fc 7bbd 1c76 bc3d 2084 e8bc
0.018839724 0.023628054 0.027974062 0.012525033 0.076808095 0.010024428 -0.053643458 -0.13105555
0.060843118 0.084964074 0.06987235 -0.08540439 0.085882284 -0.07150141 -0.06905288 0.0070431023
-0.13883187 -0.21166317 0.05733352 -0.05657171 -0.0020092514 0.034681745 -0.039830163 0.016877763
-0.13092405 -0.094834216 -0.10067169 -0.07318196 0.031409606 0.027963724 -0.112577155 -0.12994757
-0.113405645 -0.08329866 0.0075044557 0.12705135 0.03260374 0.447712 0.090583615 -0.00344294
-0.01866544 -0.13084926 0.070573874 -0.09698588 -0.022982107 0.84072244 0.0126446 0.008066993
-0.026719667 0.05232838 0.027694138 -0.13753279 0.118308894 -0.02329623 -0.052202426 0.0652586
-0.08946652 0.08442654 0.06246174 -0.012073987 -0.048800856 0.1206303 0.027020177 -0.12547092
0.026252845 0.06576447 0.032539904 -0.115492456 -0.10577561 -0.075156294 -0.0023057275 0.20439547
0.10052398 0.049766496 -0.071460746 -0.076833226 0.120313704 0.04604449 0.16444518 0.102945425
-0.012627252 -0.2339389 -0.04634277 0.098680735 0.0538482 0.035704132 -0.049903017 -0.088800326
0.06942563 0.014214411 0.013155601 0.03724091 0.11910267 0.0065328865 -0.024631858 0.12333409
-0.054660298 -0.100527614 0.2845432 -0.14099525 -0.051236108 -0.2910642 0.043037277 0.18845542
-0.11069603 0.09114061 0.06750145 0.10313251 0.11089816 0.45944232 0.10263775 -0.10560403
0.07673668 0.06789686 0.08188293 0.11273387 -0.044707637 0.122048594 -0.014253911 0.082320094
0.124651104 0.052102115 -0.11670333 -0.0944893 0.08257509 -0.18547134 -0.060911432 0.0787382
0.041381177 0.010458804 -0.04981236 0.09724586 -0.036079217 0.08336254 -0.082162365 0.07794865
0.04607648 0.07959863 -0.09375703 -0.051694505 -0.1332907 -0.029256267 -0.055527084 0.06526024
0.0034046771 0.23880324 0.08318327 0.056530427 -0.06751585 -0.017671835 -0.018129101 0.029094106
-0.04916341 -0.066052906 -0.059619788 0.10722321 0.067444235 0.042407006 0.09368071 -0.029163944
0.029251903 0.06559914 0.044534605 -0.22277616 0.035192877 -0.0013694625 -0.10374093 -0.14219205
-0.10958316 0.06214705 0.026714403 0.107810505 0.08939806 -0.33498392 -0.010350078 0.020101668
0.10692166 -0.052469023 -0.029582368 -0.08204482 0.071310356 -0.017806731 0.013346123 -0.12814076
0.08961694 -0.10053317 -0.09843921 -0.036556683 -0.04023328 0.032186627 -0.053317726 0.062411167
-0.087014735 -0.0615955 -0.1134655 0.11583495 -0.07291038 -0.10787161 0.07516071 -0.09629367
0.038744554 -0.03829138 -0.11354707 0.12396917 0.07544516 -0.06115049 0.001168564 0.08170684
-0.009809688 0.027832553 -0.08872439 0.089081004 -0.07853274 0.01295352 0.12481883 -0.054761454
0.013530642 -0.056149125 -0.11401254 0.117022514 -0.06508845 -0.088470444 -0.0938651 0.08974825
0.061940625 0.092965886 -0.10203101 0.004157096 -0.032295555 -0.0885005 -0.041191325 -0.012744218
0.054684028 0.10244934 -0.005176872 0.020985827 -0.08559641 -0.046208486 -0.07189557 0.1221177
-0.080038264 0.032668248 -0.09694858 0.048969343 0.05204892 -0.09884533 -0.04327692 -0.078275666
-0.06357211 0.0053722113 0.096771866 -0.08064082 -0.003673926 -0.06151992 0.09202215 -0.028383315

layer2.bias f4 [32]
00000000: 3f64 d73c 9204 053e 609b 673c b895 a8bd
00000010: 4bee b53c d989 c4bd 7eb3 7bbd 72c2 b2bd
00000020: 8b33 ae3d 2ea6 a83b a186 e23c 1d6d 443d
00000030: c7c2 b43c 0321 adbd 10aa 013d 995f cb3d
00000040: d62a 803d 0d00 de3d e0ed a43d 95c5 023e
00000050: 2588 b5bd bef3 933c 2544 2b3d 3831 fd3d
00000060: d976 d93d 0c37 a43d 3444 e2bd 9fd7 d63d
00000070: 0574 a6bd 94ca b4b7 0460 e83d 6b9a 733c
0.026292918 0.12990025 0.014136165 -0.082316816 0.022208354 -0.09596605 -0.061450474 -0.08728494
0.08505925 0.0051467633 0.027652087 0.04795562 0.022065533 -0.08453562 0.031656325 0.09930343
0.0625817 0.108398534 0.080531836 0.12770684 -0.08863858 0.018060561 0.041813035 0.12362903
0.106183715 0.08018312 -0.11048165 0.10490345 -0.08127598 -2.1552005e-05 0.113464385 0.014868359

layer3.weight f4 [1, 32]
00000000: 6a68 80bd 04b8 ba3d d80d 10be c0a7 233b
00000010: f441 89bd 3adc b3be dc00 81bd fe3c 973d
00000020: 54b9 a63c 89bd ccbc 94e7 433e a689 a4bd
00000030: f1aa a93c fd3b c5bd 87e4 2b3d dc43 ad3d
00000040: 60f2 953c a249 ad3d 5582 813d a07b 743d
00000050: 2700 413e 95a5 dbbd 4eb8 353e 3088 813d
00000060: 8f26 ff3d ead1 d03d f7ab 1f3e eff3 20be
00000070: ee1b 2fbf 29c3 f93d 66b9 693d b164 3c3e
-0.062699154 0.091171294 -0.14067781 0.0024971813 -0.06702033 -0.35128957 -0.06298992 0.0738468
0.020352043 -0.024992721 0.19131309 -0.08034067 0.020711394 -0.096305825 0.041965988 0.08460209
0.01830405 0.0846131 0.06323687 0.05968821 0.18847714 -0.10724942 0.17746088 0.06324804
0.12458526 0.10196288 0.15592943 -0.15718053 -0.6840199 0.12195427 0.057061575 0.18397786
