mat_model/model_name_first/iziritsu_model.pth (torch, 15246 bytes, 5 tensors)

layer1.weight f4 [64, 15]
0	0xbdacc890	-0.08436692
1	0x3e5c0794	0.21487266
2	0x3e5aef94	0.21380454
3	0x3e90cff6	0.28283662
4	0xbd8dcd5c	-0.06923935
5	0x3e35aea9	0.17742409
6	0x3e8456fd	0.25847617
7	0xbd905330	-0.07047117
8	0xbe4e6899	-0.20157088
9	0x3dfcd478	0.12345213
10	0xbe5196cb	-0.20467679
11	0x3e31205b	0.17297499
12	0xbc5cd9a7	-0.013479627
13	0xbd0e9b18	-0.034815878
14	0x3d18a44e	0.03726607
15	0x3e69d154	0.22833759
16	0x3e2300f5	0.15918334
17	0x3e05a1b7	0.1304997
18	0xbe5ca124	-0.21545845
19	0x3dbdd019	0.09268207
20	0x3e6562d5	0.22400983
21	0x3e675a46	0.2259303
22	0x3db3d980	0.08781719
23	0xbce05a81	-0.027386906
24	0xbe0b6821	-0.13613941
25	0x3d75db44	0.06002356
26	0x3da310f0	0.07962215
27	0x3e1ea7ba	0.1549367
28	0x3e7318ce	0.23739931
29	0x3e534fb7	0.20635878
30	0x3e4abfb4	0.19799691
31	0x3e36de49	0.17858233
32	0x3cdb03d2	0.02673522
33	0x3d36fafd	0.044672955
34	0x3d7478fa	0.059685685
35	0x3e80f11f	0.2518396
36	0xbddd8f4c	-0.10818347
37	0x3ca6cb30	0.02036056
38	0xbd48a2a9	-0.04898325
39	0x3e50b880	0.20382881
40	0x3e86160a	0.2618869
41	0x3e87170f	0.2638478
42	0xbdd98fcf	-0.106231324
43	0xbdd57e8b	-0.10424527
44	0xbe5bb8d0	-0.21457219
45	0xbdac38a8	-0.08409244
46	0x3ea885e8	0.32914662
47	0xbd834045	-0.06408743
48	0x3e89adb2	0.26890332
49	0xbe229cd1	-0.15880133
50	0xbc8fdcb4	-0.017561294
51	0x3d9f6278	0.07782453
52	0x3e693fcf	0.22778247
53	0x3e01924f	0.12653469
54	0xbca97cc2	-0.020689372
55	0xbdbf34d7	-0.0933625
56	0xbd02d479	-0.03194091
57	0xbe3f3983	-0.18674283
58	0xbe06085a	-0.13089123
59	0xbe305972	-0.1722162
60	0xbda88d0c	-0.082300276
61	0x3e999b4b	0.30001292
62	0x37c424ae	2.3382101e-05
63	0xbcef320b	-0.029198667
64	0xbd0aa6d0	-0.03385049
65	0xbbef816a	-0.0073091285
66	0x3e17db42	0.14829734
67	0xbe04d0b9	-0.12970246
68	0x3e21e750	0.15810895
69	0x3e49ec1f	0.1971898
70	0xbde41995	-0.11137692
71	0xbd0b41d4	-0.033998325
72	0xbd4fc2c6	-0.05072286
73	0x3e14e685	0.14541061
74	0xbe08d0f0	-0.13360953
75	0xbdd16cf4	-0.10225859
76	0xbc955d20	-0.018232882
77	0x3e7d3fa6	0.24731311
78	0xbe54bbf2	-0.2077482
79	0x3c3884a0	0.011262089
80	0xbdb591ee	-0.088657245
81	0xbbb16640	-0.0054138005
82	0x3d9d23b8	0.076728284
83	0xbdc26f3a	-0.09493871
84	0xbdca38c0	-0.098741055
85	0x3cc6bb40	0.02425921
86	0xbcd04b28	-0.025426462
87	0x3e2bfbf4	0.16795331
88	0xbd84a918	-0.064775646
89	0xbd0fb1b0	-0.035081565
90	0x3e12dc29	0.14341797
91	0xbec57d78	-0.38572288
92	0x3dcc4a41	0.099751
93	0xbca17d83	-0.019713169
94	0x3df7b620	0.120952845
95	0x3e63327f	0.22187231
96	0x3d31ca80	0.04340601
97	0x3d3a7a70	0.04552692
98	0x3e8f11fa	0.27943403
99	0x3e0e475c	0.13894409
100	0x3ce3f77a	0.027827967
101	0xbe49b297	-0.19697033
102	0x3db5cbd3	0.08876767
103	0x3db5bb77	0.08873647
104	0x3e4a4f5a	0.19756833
105	0x3d81dab0	0.063405395
106	0x3d9d5120	0.07681489
107	0xbe3250cc	-0.17413634
108	0x3c5440c0	0.012954891
109	0xbd5d4f10	-0.054030478
110	0xbe222db6	-0.1583775
111	0x3df0f478	0.11765379
112	0x3e16e8e8	0.14737284
113	0xbe59fac2	-0.21287063
114	0xbe43aa70	-0.19107985
115	0x3e63a92a	0.222325
116	0xbdd68246	-0.104740664
117	0xbe0709c6	-0.13187322
118	0x3e3a7e7c	0.18212312
119	0x3e4ce710	0.20010018
120	0xbe6839a7	-0.22678243
121	0x3eb50e84	0.35362637
122	0x3e8b366a	0.27189952
123	0x3d49a30a	0.04922775
124	0xbe1233bc	-0.14277548
125	0x3dda6a7c	0.106648415
126	0x3dd53855	0.10411135
127	0x3b2a7917	0.0026012117
128	0x3e23f1f6	0.1601027
129	0xbf362dbe	-0.7116355
130	0x3e4505ed	0.19240542
131	0xbd555111	-0.052079264
132	0x3e2801e9	0.16406979
133	0x3dfd98a0	0.123826265
134	0xbe21a43a	-0.15785304
135	0x3d1d7469	0.038441096
136	0x3e8bc0e2	0.27295595
137	0x3e840ea6	0.25792426
138	0x3dc4c3c9	0.096076556
139	0x3d91c9b6	0.071185514
140	0xbe9ebcbb	-0.31003365
141	0xbd69f695	-0.057119925
142	0xbe5f7646	-0.21822461
143	0xbe43e9a2	-0.19132093
144	0xbddaffee	-0.10693346
145	0x3e69cdae	0.22832367
146	0xbd965a18	-0.07341403
147	0x3da9d114	0.082918316
148	0x3d352aa7	0.04423013
149	0xbe1f445d	-0.15553422
150	0xbd7ac714	-0.061225012
151	0x3e4b727f	0.19867896
152	0xbe13c1a5	-0.14429338
153	0x3e6837c6	0.22677526
154	0x3d3534f7	0.044239964
155	0xbe8d4ed9	-0.27599218
156	0x3dcb7f99	0.09936447
157	0x3dbc61e4	0.09198359
158	0x3d4acbb7	0.049510684
159	0x3c441933	0.011968899
160	0x3d6ca01f	0.05776989
161	0xbe61c9d5	-0.22049649
162	0xbe197544	-0.1498614
163	0xbd013cda	-0.031552173
164	0x3e2ac3c0	0.16676235
165	0x3e4f035f	0.2021613
166	0x3e914b30	0.28377676
167	0xbd7fa687	-0.062414672
168	0xbdea4cf3	-0.11440458
169	0x3da5790b	0.08079728
170	0x3dfacd9c	0.12246248
171	0x3ea690de	0.325324
172	0xbd92d63c	-0.07169768
173	0x3d6ebc36	0.05828496
174	0xbd201d50	-0.039090455
175	0x3de16503	0.110055946
176	0x3d701112	0.05861003
177	0x3e41a129	0.18909134
178	0x3e23fc10	0.16014123
179	0x3e883d7a	0.26609403
180	0xbe07746b	-0.13228004
181	0xbd03429b	-0.03204594
182	0xbe443520	-0.1916089
183	0xbd0bcbba	-0.034129836
184	0x3e209c54	0.15684634
185	0x3d7805bf	0.060552355
186	0x3e31ad07	0.17351161
187	0x3e89853e	0.26859468
188	0x3e33ef67	0.17571793
189	0xbe49bcce	-0.1970093
190	0xbd2dc8fc	-0.042428
191	0x3db126fa	0.08650012
192	0x3d686767	0.056739237
193	0x3dd13afb	0.10216328
194	0x3d5ba0e5	0.053620238
195	0x3d8b49a8	0.06801158
196	0x3e94c725	0.29058185
197	0x3e86f99f	0.2636232
198	0x3e63c3ba	0.22242633
199	0x3ea1eaaa	0.31624347
200	0x3e5121fa	0.20423117
201	0x3dca0d6d	0.09865842
202	0x3e13df4e	0.14440653
203	0x3d575cfe	0.05257892
204	0x3d4e0a33	0.050302695
205	0x3d9b4013	0.075805806
206	0xbe06af76	-0.1315287
207	0xbe5f409d	-0.21801992
208	0x3dab4308	0.083623946
209	0x3e7c1693	0.24617986
210	0xbee03486	-0.43790072
211	0xbe48bb7e	-0.19602773
212	0xbe8e8c1d	-0.27841273
213	0xbe41725f	-0.18891285
214	0xbec1a784	-0.37823117
215	0x3ec7af0b	0.39000735
216	0x3ef5983c	0.47967708
217	0xbe9b883e	-0.30377382
218	0x3ecd6750	0.40117884
219	0xbf093d1d	-0.53608876
220	0xbd9fe992	-0.07808222
221	0xbe9e15d2	-0.30876023
222	0x3e4fdcbf	0.20299052
223	0xbecea096	-0.40356892
224	0xbe2c75c5	-0.168418
225	0x3e684b16	0.22684893
226	0xbd9ea78e	-0.07746802
227	0xbe4c9e96	-0.1998237
228	0x3e52e64b	0.20595662
229	0xbeba3865	-0.3637115
230	0xbe3f7a00	-0.18698883
231	0x3ce585ae	0.028017845
232	0xbe602b18	-0.21891439
233	0xbd438651	-0.047735516
234	0x3cd51136	0.026009183
235	0x3e16ca08	0.14725506
236	0xbe37fdc9	-0.17967905
237	0x3e896405	0.2683412
238	0xbe20b575	-0.1569422
239	0xbd335557	-0.04378256
240	0xbe017d32	-0.12645414
241	0xbda65943	-0.08122494
242	0x3e6b8c07	0.23002635
243	0xbe052a36	-0.13004383
244	0xbe033e11	-0.12816645
245	0x3e560205	0.20899208
246	0xbe56ca5a	-0.20975628
247	0x3d65b70e	0.056082778
248	0xbe5b5865	-0.21420439
249	0xbdbf7025	-0.09347562
250	0x3cbed2ff	0.02329397
251	0xbe03f10e	-0.12884924
252	0x3dd287f7	0.102798395
253	0x3e1f2644	0.15541941
254	0x3e1b3896	0.15158305
255	0xbe256a6e	-0.16153881

layer1.bias f4 [64]
0	0x3dd95851	0.10612548
1	0x3d9b0035	0.07568399
2	0x3e0a73a3	0.13520674
3	0x3e937207	0.28797933
4	0xbca219cd	-0.019787693
5	0xbe4ca273	-0.19983844
6	0xbe4d56b1	-0.20052601
7	0xbe2a527a	-0.16633025
8	0xbdccbf34	-0.099974066
9	0xbd8b348a	-0.067971304
10	0x3e812fb8	0.2523172
11	0xbda1e32f	-0.0790466
12	0x3e75e56c	0.24013299
13	0x3e8ecc7f	0.27890393
14	0x3d672a69	0.05643693
15	0xbe1bc041	-0.15210058
16	0xbd55f0e0	-0.05223167
17	0x3e7c2388	0.24622929
18	0x3cd4e50d	0.025988126
19	0xbda8a1e4	-0.08234003
20	0x3e6e0fbd	0.23248191
21	0xbd6af940	-0.05736661
22	0xbd05e9eb	-0.032693785
23	0xbdcf26d5	-0.101148285
24	0x3e546452	0.20741394
25	0xbde52f40	-0.11190653
26	0x3e029394	0.12751609
27	0xbe7e2fba	-0.24822894
28	0x3e0272e3	0.12739138
29	0x3eb3e0c4	0.3513242
30	0xbcb65fbf	-0.022262452
31	0x3daeedeb	0.08541473
32	0x3d7b97b0	0.061423957
33	0xbd2be854	-0.041969612
34	0xbcdb9b64	-0.026807494
35	0x3e947d93	0.29002056
36	0x3e4d9583	0.20076565
37	0x3dfb689a	0.122758105
38	0x3d0defdf	0.034652587
39	0xbe2e171a	-0.17001
40	0xbe062503	-0.13100056
41	0x3d88e0a8	0.06683475
42	0xbe801766	-0.25017852
43	0xbe067a31	-0.1313255
44	0xbe34fa0e	-0.17673513
45	0x3e4d1fbd	0.20031638
46	0x3e530ac3	0.20609574
47	0xbe10c89c	-0.14139026
48	0x3e59d4e9	0.21272625
49	0x3e7f7afc	0.24949259
50	0x3e54d89c	0.20785755
51	0x3e6eedc0	0.23332882
52	0x3e84903f	0.258913
53	0xbe16c80a	-0.14724746
54	0xbe288f73	-0.16460972
55	0xbe16136f	-0.14655851
56	0x3dda2a8a	0.10652645
57	0x3e1b4a76	0.15165123
58	0x3e7e1f4c	0.24816626
59	0xbe85424c	-0.26027143
60	0x3e7982c0	0.24366283
61	0xbc5942c4	-0.013260547
62	0x3e22e2e2	0.15906861
63	0xbd9ce3ce	-0.07660638

layer2.weight f4 [32, 64]
0	0x3d3ea844	0.04654719
1	0x3d4fdb90	0.0507465
2	0xbdc5c82c	-0.096573204
3	0xbd964594	-0.0733749
4	0x3d0f2c64	0.034954444
5	0xbd06d238	-0.032915324
6	0x3c513990	0.012770072
7	0x3c956d30	0.018240541
8	0xbc5c99f0	-0.013464436
9	0xbdf4d214	-0.11954132
10	0xbdd6be68	-0.10485536
11	0xbdd901aa	-0.105960205
12	0xbd2b872c	-0.041876957
13	0x3be6a580	0.007038772
14	0xbcaba9d8	-0.020955011
15	0x3bcb2880	0.0061998963
16	0xbc92ada8	-0.017905071
17	0xbda46872	-0.08027734
18	0x3deb54de	0.114907965
19	0x3d3de388	0.04635957
20	0x3dc1b698	0.09458655
21	0x3ad92a00	0.0016568303
22	0x3b2df240	0.0026542097
23	0xbd9ace7a	-0.075589135
24	0xbdce719e	-0.100802645
25	0x3d78a618	0.060705274
26	0xbd3f3718	-0.0466834
27	0xbc587990	-0.0132125765
28	0xbd6f5810	-0.058433592
29	0xbd008d84	-0.03138496
30	0x3db26482	0.087105766
31	0xbda524d4	-0.08063665
32	0xbdf6aede	-0.12045072
33	0x3d5902b8	0.05298111
34	0xbdff6760	-0.12470889
35	0x3cfbe938	0.030750856
36	0xbd461c18	-0.048366636
37	0x3c5285f0	0.012849316
38	0x3d7e0a44	0.06202151
39	0xbd9e6860	-0.07734752
40	0xbcea45e0	-0.028597772
41	0xbd4c9180	-0.049943447
42	0x3d7cba54	0.061701134
43	0xbd60f360	-0.0549196
44	0xbc6c64c0	-0.014428318
45	0x3c735190	0.014850989
46	0x3d21f7c4	0.03954293
47	0x3d1a62bc	0.037691817
48	0x3da51544	0.08060697
49	0xba937180	-0.0011249036
50	0x3de99dda	0.11407061
51	0x3c30ae80	0.010783792
52	0xbd98d720	-0.07462907
53	0x3d7bd6e0	0.061484218
54	0x3db95dd6	0.09051101
55	0x3d8442ec	0.06458077
56	0xbbd63980	-0.0065376163
57	0x3d84629e	0.06464122
58	0xbd18f3a8	-0.037341744
59	0xba80e000	-0.0009832382
60	0x3ddd3b2a	0.108023
61	0x3db3310c	0.08749589
62	0xbd9fe782	-0.078078285
63	0xbcf62330	-0.030046076
64	0x3de12aa6	0.10994463
65	0x3d899be1	0.06719185
66	0x3df1147b	0.117714845
67	0x3c8bb9b3	0.017056322
68	0x3e2bea2b	0.16788547
69	0xbd945f54	-0.07244745
70	0xbdb5a8e0	-0.08870101
71	0x3d4cc0c8	0.049988538
72	0xbea9012d	-0.3300871
73	0xbe991536	-0.29898995
74	0x3e19c189	0.15015234
75	0x3e2154bb	0.15754978
76	0x3db17342	0.08664562
77	0x3e001908	0.12509549
78	0xbeda5951	-0.42646268
79	0xbdef7e1e	-0.11693977
80	0x3dc63717	0.09678476
81	0x3e0ee8c3	0.13955979
82	0xbed0c33d	-0.40773955
83	0xbd31aac1	-0.043375734
84	0x3e1839ad	0.14865752
85	0x3af91e0d	0.0019006148
86	0x3d19242c	0.03738801
87	0xbc96b04b	-0.01839461
88	0x3e248fc2	0.16070464
89	0x3d88fe70	0.06689155
90	0xbec2191b	-0.3790978
91	0xbd3bd190	-0.04585415
92	0x3d6b9c7b	0.05752228
93	0xbe67e000	-0.22644043
94	0xbd9a1090	-0.0752269
95	0xbeb260d7	-0.34839508
96	0xbd59ee03	-0.0532055
97	0x3e386f93	0.18011312
98	0x3e1e2614	0.15444213
99	0x3dd2bdc3	0.102901004
100	0x3e1fd34b	0.15607946
101	0xbcdb0238	-0.026734456
102	0x3e126d70	0.1429956
103	0x3dbf05f5	0.09327308
104	0x3c4418e8	0.011968829
105	0x3cd74e98	0.026282594
106	0x3db6ea3d	0.08931396
107	0x3d5289d6	0.05140098
108	0xbcb9ee8d	-0.022696758
109	0xbcff5d76	-0.031172495
110	0x3e1a0acd	0.15043183
111	0xbd444768	-0.04791966
112	0x3b55e25b	0.003263614
113	0x3dbae9db	0.09126636
114	0x3e055a0e	0.13022634
115	0x3c91913d	0.01776945
116	0x3cfe894f	0.031071333
117	0x3de621f2	0.11236943
118	0xbecbbf9e	-0.3979463
119	0x3cd6dabd	0.02622735
120	0x3e104f01	0.14092638
121	0x3dd418f4	0.10356322
122	0x3d3e993d	0.04653286
123	0xbdbe32e7	-0.092870526
124	0x3deef400	0.11667633
125	0xbd2255ab	-0.03963248
126	0x3e0ea99d	0.1393189
127	0xbcf12988	-0.029438749
128	0x3dc30c01	0.09523774
129	0x3da838fc	0.08213994
130	0xbe052ee7	-0.13006173
131	0x3c2fabea	0.01072214
132	0x3d0c9b4c	0.03432779
133	0x3d7edaf8	0.062220544
134	0xbdaa6644	-0.08320287
135	0xbd9b1dc2	-0.07574035
136	0x3d0dc728	0.03461376
137	0xbded447c	-0.11585328
138	0xbe0099d5	-0.12558682
139	0xbda36338	-0.07977909
140	0x3d256961	0.0403837
141	0xbd4ab34e	-0.049487405
142	0x3d9cde3b	0.076595746
143	0x3d2d7929	0.042351875
144	0x3d4a1f24	0.049346104
145	0xbcb2e9fd	-0.02184009
146	0xbd3ea308	-0.046542197
147	0x3d4f73dc	0.0506476
148	0x3bcf5935	0.006327773
149	0x3d04fa7c	0.032465443
150	0x3cb71ee3	0.022353595
151	0xbddd491d	-0.10804961
152	0x3db479af	0.08812272
153	0x3c191080	0.009342313
154	0xbda68773	-0.08131304
155	0x3de08b0c	0.10964021
156	0xbd3820c7	-0.044953134
157	0xbdfbcb08	-0.122945845
158	0x3bb026b0	0.0053757057
159	0x3b9a1740	0.0047024786
160	0xbcc733bb	-0.02431666
161	0xbc5bfb31	-0.013426588
162	0xbde4b3c2	-0.111670986
163	0x3d0e35df	0.034719344
164	0x3dbc0f65	0.09182624
165	0x3d04b764	0.032401457
166	0x3d6f558d	0.058431197
167	0x3dec953f	0.11551904
168	0x3d950a54	0.072773606
169	0xbdbbe4d6	-0.09174506
170	0x3d0385a2	0.032109864
171	0xbdffdf1e	-0.12493728
172	0xbcd99370	-0.026559561
173	0x3d7a6deb	0.061139982
174	0xbd9e0a21	-0.07716776
175	0xbd9cef02	-0.076627746
176	0xbdaf24cb	-0.085519396
177	0xbd86f0bd	-0.06588886
178	0xbd272f63	-0.040816676
179	0xbd1c4c61	-0.038158778
180	0xbc35d327	-0.011097706
181	0x3d9e2ae0	0.077230215
182	0x3c3399b0	0.010961935
183	0x3c275b40	0.010214627
184	0x3d70fb25	0.05883326
185	0x3da407b6	0.08009283
186	0xbd97edc8	-0.074184
187	0x3de8cc24	0.11367062
188	0xbd907669	-0.07053835
189	0xbca48bbf	-0.020086167
190	0xbd8ba01e	-0.06817649
191	0xbd3fa42c	-0.046787426
192	0x3c379ce0	0.0112068355
193	0x3d510ca0	0.05103743
194	0x3db864c1	0.09003592
195	0x3d85e5ba	0.065379575
196	0x3e1eaf86	0.15496644
197	0xbd9b4e6c	-0.07583317
198	0x3c9cf390	0.019159108
199	0x3dd2481c	0.1026766
200	0xbedf731f	-0.43642518
201	0xbece287d	-0.40265265
202	0xbc1cd148	-0.009571381
203	0x3e000a36	0.12503895
204	0xbd400ee1	-0.04688919
205	0xbaf9a72e	-0.0019047016
206	0xbede9cf1	-0.43479112
207	0xbe79d5f4	-0.24398023
208	0xbb0b4379	-0.0021249934
209	0x3b52acc6	0.0032146438
210	0xbeda9ae3	-0.42696294
211	0x3dbb1497	0.091347866
212	0x3e15fd08	0.14647305
213	0x3e16aa50	0.14713407
214	0x3cd2cc6f	0.025732247
215	0x3d17361c	0.036916837
216	0x3db6b4fe	0.0892124
217	0xbdb45e34	-0.0880703
218	0xbe95eba9	-0.29281357
219	0x3dd36e0e	0.10323726
220	0xbddd72c5	-0.10812906
221	0xbee6d4f4	-0.45084345
222	0x3d63dc1a	0.055629827
223	0xbeb18a6e	-0.34675926
224	0xbd4505b6	-0.04810115
225	0x3d9977fd	0.07493589
226	0x3e286ebf	0.16448496
227	0x3b9906b5	0.004669989
228	0x3dd1d2f9	0.10245318
229	0x3c3989b8	0.011324339
230	0x3d0cef90	0.034408152
231	0x3d43fddb	0.047849517
232	0x3d006e82	0.03135539
233	0x3de231bb	0.110446416
234	0xbd17b15c	-0.037034377
235	0x3d16addf	0.03678691
236	0x3dd74858	0.10511845
237	0x3dc49efc	0.09600636
238	0xbcb5a35f	-0.022172628
239	0x3c344540	0.011002839
240	0x3de09bc8	0.10967213
241	0x3da61855	0.0811011
242	0x3d6ea171	0.05825943
243	0xbce4ed31	-0.027945133
244	0xbda5400b	-0.08068856
245	0x3e1263a1	0.14295818
246	0xbec711bf	-0.38880727
247	0xbcc7549f	-0.024332343
248	0x3e19c717	0.15017353
249	0x3ddaa1c4	0.106753856
250	0x3dcea111	0.10089315
251	0xbde91444	-0.113808185
252	0x3de065c4	0.1095691
253	0x3de4de98	0.11175269
254	0xbda20ca6	-0.07912569
255	0x3d3006fc	0.04297541

layer2.bias f4 [32]
0	0xbd8448e8	-0.06459218
1	0xbd990ae2	-0.07472779
2	0xbc8e5b4f	-0.017377524
3	0xbd02dd7b	-0.0319495
4	0x3d8e163b	0.06937834
5	0x3c9d9bc7	0.01923932
6	0x3db62ef8	0.08895677
7	0x3e150e1e	0.14556167
8	0xbdc3d568	-0.095621884
9	0x3d02c627	0.031927254
10	0xbdb5cfb7	-0.08877509
11	0xbddaf77b	-0.106917344
12	0x3d884441	0.066536434
13	0xba8df3cd	-0.0010830105
14	0x3de78bf5	0.113059916
15	0x3d9cb4b8	0.07651657
16	0x3e04ede3	0.12981372
17	0x3d54c926	0.051949643
18	0x3d3cc705	0.046088237
19	0x3d94db24	0.0726836
20	0xbdb7a273	-0.089665316
21	0x3db22898	0.08699149
22	0xbd94de59	-0.07268972
23	0x3ca89b56	0.020581882
24	0xbdd10513	-0.10206046
25	0xbc7d2697	-0.015451095
26	0xbdd8660a	-0.105663374
27	0xbddf20bc	-0.108949155
28	0x3ca64585	0.020296821
29	0x3d876d7c	0.06612679
30	0x3e06f311	0.1317866
31	0xbdcd1f81	-0.100157745

layer3.weight f4 [1, 32]
0	0x3e15bd93	0.14623098
1	0x3d887b11	0.06664098
2	0xbd6aff17	-0.05737218
3	0x3e20cafd	0.15702434
4	0x3e2aaf05	0.16668327
5	0xbe491b64	-0.19639355
6	0x3e11ee4d	0.14251061
7	0x3d73fa19	0.059564684
8	0xbb9ec860	-0.004845664
9	0xbd902b85	-0.07039551
10	0xbc46c9eb	-0.012133102
11	0xbdfabeee	-0.12243448
12	0x3e42769f	0.18990563
13	0x3e4d54e5	0.20051916
14	0x3e32c79c	0.17458957
15	0x3d3d8d57	0.04627737
16	0x3d8e8654	0.06959215
17	0x3e4b5f02	0.19860461
18	0xbd9ef7fd	-0.07762144
19	0x3e1a999f	0.15097664
20	0x3b62c7e0	0.0034603998
21	0xbc18ac37	-0.009318403
22	0xbdfa192f	-0.12211835
23	0x3dfa8c39	0.122337766
24	0xbdd53ccc	-0.10411987
25	0x3e01bacc	0.12668914
26	0xbdfa7f15	-0.1223127
27	0xbe1435e6	-0.14473686
28	0x3d7a132b	0.061053436
29	0xbdef2a82	-0.116780296
30	0x3d82f690	0.06394684
31	0x3cc8346d	0.024439061
