mat_model/model_name_first/Pd80_05_model.pth (torch, 15236 bytes, 5 tensors)

layer1.weight f4 [64, 15]
0.23771809 0.029837834 0.014686639 0.09937857 0.03252422 0.19359954 -0.0120670255 -0.110604115
0.2368682 0.051244132 0.058959574 0.19710475 0.029441245 -0.020386823 -0.21197382 0.06722682
0.27213192 0.20022674 0.03727013 -0.053958714 0.23632628 -0.16243118 -0.14418373 0.20043646
0.2805153 -0.14177427 -0.06661473 -0.006362786 0.0018798203 -0.07299746 0.15487528 -0.20264474
0.15749398 0.10013584 0.2868348 -0.06759961 0.1653049 -0.15637746 0.10913937 0.09788033
0.05574029 -0.033770368 -0.12065262 0.05839476 -0.3250432 -0.17649382 -0.49528933 -0.17009906
0.1740646 0.08022529 -0.17953946 0.15946323 -0.030055145 0.035943586 -0.11806516 -0.0053010536
-0.22400492 -0.1562672 -0.05860658 -0.041473996 0.25307345 -0.08470623 0.05387068 -0.14175555
0.165135 -0.11629955 0.21397147 0.18562378 0.15649703 0.2508764 -0.04006388 0.13494375
-0.06572064 -0.110476024 0.067400396 -0.3959473 0.2742759 -0.2960914 -0.09181963 -0.24549186
0.2658458 0.30619273 -0.49216875 -0.28263786 0.3746987 -0.19196472 -0.19078642 -0.23400034
0.27547857 0.050403714 0.09577001 -0.8098128 -0.09064431 -0.041008644 -0.30880752 0.1157123
-0.19448717 -0.034237634 0.25194266 -0.15971519 0.16738334 -0.053935006 0.20307207 -0.38341582
0.19408076 -0.1905704 0.18617785 -0.14150792 -0.16777055 -0.14636958 -0.11583801 -0.48423296
-0.15761521 0.17445238 0.033587 -0.13845162 -0.20925337 -0.41733032 -0.089007966 -0.29599848
-0.16275774 -0.3336954 0.06418068 -0.17926472 0.06926853 0.10422525 -0.25878194 0.10222335
-0.04437728 0.15679169 -0.3251757 -0.049993936 0.3448694 -0.048988953 -0.14206769 0.05562118
0.005261462 -0.005538859 0.0854402 0.24451259 0.25217775 -0.24279875 0.23200469 -0.25240517
0.006600426 -0.10854174 -0.19422278 -0.04355927 -0.03743574 0.047040645 -0.1781736 -0.447753
0.039002888 -0.11033886 0.0058294283 0.13399316 -0.10605182 0.08154349 -0.3218661 0.3465602
-0.064294204 -0.22242314 -0.43701118 0.26153722 -0.07839935 0.015690573 0.19907106 -0.09914011
-0.21679796 -0.2757026 0.13773969 -0.05153512 0.022801105 -0.014091233 0.24640964 0.07786545
-0.2081478 0.011765665 -0.110242195 -0.54336894 -0.1370145 -0.015884224 -0.17042707 -0.095194295
0.09348233 0.004677713 -0.21648206 -0.20388217 0.20317289 0.11924482 -0.09749839 0.018816357
0.032386363 -0.05781038 -0.116501175 -0.2243316 0.1247021 -0.15649079 -0.12282687 -0.2759306
0.074132636 0.05399935 -0.17310824 -0.13269217 0.19516692 -0.24767289 0.06504938 0.045700926
0.102820165 0.14061712 -0.20051913 0.07226691 -0.07336263 -0.16116765 0.071522295 -0.17644039
-0.1063095 -0.18333423 -0.24081075 0.09054661 -0.095812425 0.007013142 -0.14325234 -0.22504258
-0.099785656 0.091562524 -0.23253544 -0.13217223 -0.19777463 -0.0979573 0.089947194 0.248605
0.096844785 0.1998413 0.18584779 -0.29806793 0.031262245 -0.039967682 -0.20990309 -0.01978493
0.21263759 0.20458463 0.12891254 0.04574146 0.17583661 -0.3000898 0.15749498 -0.31515795
-0.2766464 -0.3479498 0.10686036 -0.13871239 0.20369498 0.09081167 -0.029308408 0.33500895
00000000: 5f6c 733e 796e f43c 3ba0 703c fe86 cb3d
00000010: 1e38 053d f53e 463e c6b4 45bc 6984 e2bd
00000020: 948d 723e 5ee5 513d 987f 713d d4d5 493e
00000030: c42e f13c 4402 a7bc aa0f 59be 37ae 893d
00000040: e054 8b3e 3d08 4d3e 90a8 183d d003 5dbd
00000050: 84ff 713e 5c54 26be e6a4 13be 373f 4d3e
00000060: b49f 8f3e 462d 11be 4e6d 88bd eb7e d0bb
00000070: 4d64 f63a b17f 95bd a097 1e3e 1a82 4fbe
00000080: 1a46 213e 0514 cd3d 03dc 923e aa71 8abd
00000090: b045 293e 6a21 20be 7684 df3d 7c75 c83d
000000a0: ee4f 643d cc52 0abd b918 f7bd 582f 6f3d
000000b0: 106c a6be ccba 34be 9096 fdbe 732e 2ebe
000000c0: fe3d 323e 284d a43d 31d9 37be 544a 233e
000000d0: 3536 f6bc 9539 133d 26cc f1bd 76b4 adbb
000000e0: 8c61 65be 8204 20be 740d 70bd a3e0 29bd
000000f0: d892 813e 767a adbd 81a7 5c3d 5e28 11be
00000100: 2619 293e 752e eebd 561b 5b3e 2914 3e3e
00000110: c240 203e df72 803e 061a 24bd b22e 0a3e
00000120: 8b98 86bd 4141 e2bd 3809 8a3d 9bb9 cabe
00000130: e46d 8c3e 4b99 97be ee0b bcbd 3862 7bbe
00000140: f11c 883e 4bc5 9c3e 8bfd fbbe e9b5 90be
00000150: 82d8 bf3e 6692 44be 845d 43be c99d 6fbe
00000160: 870b 8d3e 2074 4e3d 1123 c43d e44f 4fbf
00000170: b9a3 b9bd aef8 27bd 051c 9ebe 92fa ec3d
00000180: a527 47be c33c 0cbd a1fe 803e 618c 23be
00000190: 8a66 2b3e f4ea 5cbd 20f2 4f3e 144f c4be
000001a0: 1bbd 463e e324 43be 68a5 3e3e 74e7 10be
000001b0: 0bcc 2bbe e8e1 15be 7b3c edbd 62ed f7be
000001c0: e265 21be a5a3 323e 8692 093d 43c6 0dbe
000001d0: 8446 56be 52ac d5be cf49 b6bd 1d8d 97be
000001e0: f7a9 26be 20da aabe 2971 833d 2c91 37be
000001f0: a9dc 8d3d 0c74 d53d 117f 84be 7a5a d13d
00000200: f3c4 35bd 008e 203e 6e7d a6be 71c6 4cbd
00000210: b992 b03e a4a8 48bd 317a 11be 09d3 633d
00000220: 5868 ac3b 517f b5bb 46fb ae3d 8261 7a3e
00000230: 711d 813e 3ca0 78be a392 6d3e 403b 81be
00000240: 6348 d83b 224b debd 56e2 46be 356b 32bd
00000250: 3856 19bd b1ad 403d 2473 36be e23f e5be
00000260: 7ec1 1f3d 57f9 e1bd ca04 bf3b 8135 093e
00000270: b231 d9bd 4600 a73d a2cb a4be 5770 b13e
00000280: aeac 83bd e4c2 63be eebf dfbe 35e8 853e
00000290: d78f a0bd 8489 803c 49d9 4b3e f809 cbbd
000002a0: 4900 5ebe e428 8dbe a20b 0d3e 7d16 53bd
000002b0: 62c9 ba3c eade 66bc cf52 7c3e ec77 9f3d
000002c0: b224 55be c7c4 403c a9c6 e1bd 3a1a 0bbf
000002d0: 874d 0cbe a21f 82bc 6f84 2ebe 3af5 c2bd
000002e0: aa73 bf3d 8047 993b 79ad 5dbe 7dc6 50be
000002f0: 8e0c 503e a136 f43d 3cad c7bd c324 9a3c
00000300: 90a7 043d 94ca 6cbd 2b98 eebd 2fb7 65be
00000310: d163 ff3d 1f3f 20be a78c fbbd c746 8dbe
00000320: dad2 973d 6c2e 5d3d 4943 31be 75e0 07be
00000330: d6d9 473e f69d 7dbe 9c38 853d e530 3b3d
00000340: 6193 d23d effd 0f3e e354 4dbe ac00 943d
00000350: 263f 96bd 2209 25be 487a 923d caac 34be
00000360: ccb8 d9bd f8bb 3bbe 1897 76be 8070 b93d
00000370: 4e39 c4bd 80ce e53b beb0 12be 9071 66be
00000380: 6c5c ccbd 2285 bb3d c51d 6ebe 2858 07be
00000390: 6f85 4abe d69d c8bd 3c36 b83d 4f92 7e3e
000003a0: 8f56 c63d 33a3 4c3e e24e 3e3e 5c9c 98be
000003b0: d70c 003d 27b5 23bd d6f0 56be 0114 a2bc
000003c0: abbd 593e a27e 513e a601 043e 665b 3b3d
000003d0: 830e 343e 5fa5 99be 5d46 213e 625c a1be
000003e0: 99a4 8dbe 7a26 b2be 9bd9 da3d 9f0a 0ebe
000003f0: 6b95 503e 78fb b93d 3018 f0bc 4b86 ab3e

layer1.bias f4 [64]
0.08939454 0.07018469 0.13511574 0.13758743 0.104468375 -0.16677324 0.011553483 0.10431902
0.0034560852 0.1442493 0.022983782 0.09387884 -0.17487064 0.054967094 -0.20387918 0.022480723
0.17442876 -0.14189842 0.2605082 -0.11215007 0.1539348 -0.21399814 0.06890908 0.23720862
-0.07419099 -0.03453603 -0.18854149 -0.1574209 0.14368069 0.14464173 0.22811753 -0.21714157
-0.12290362 0.0770629 0.22234944 0.20551337 -0.15238634 0.21664286 -0.41206944 -0.08127172
-0.19704579 0.04333537 0.122000955 0.09254587 -0.23432541 -0.24573818 0.0073975986 -0.13043003
-0.13294524 -0.2245004 -0.2157975 -0.15915382 -0.17319004 -0.18484023 0.07128553 -0.042170163
-0.08163846 0.17946468 0.20928952 0.10097065 0.10575553 0.10683657 0.22528072 0.21009202
00000000: 7c14 b73d febc 8f3d c85b 0a3e b8e3 0c3e
00000010: 84f3 d53d 9bc6 2abe d24a 3d3c 36a5 d53d
00000020: 7d7f 623b 17b6 133e 7c48 bc3c 8d43 c03d
00000030: 4a11 33be 2d25 613d b4c5 50be 7e29 b83c
00000040: 749d 323e d24d 11be 5561 853e f0ae e5bd
00000050: 16a1 1d3e 5422 5bbe 3420 8d3d d1e6 723e
00000060: 72f1 97bd a775 0dbd 0511 41be f232 21be
00000070: 0821 133e f61c 143e a497 693e 5c5a 5ebe
00000080: e5b4 fbbd 27d3 9d3d 92af 633e 1972 523e
00000090: 2a0b 1cbe a0d7 5d3e c4fa d2be ca71 a6bd
000000a0: 5fc6 49be 6e80 313d a3db f93d b088 bd3d
000000b0: 00f3 6fbe caa2 7bbe 8e67 f23b 738f 05be
000000c0: cc22 08be 6fe3 65be 05fa 5cbe 38f9 22be
000000d0: bb58 31be c246 3dbe 26fe 913d 9fba 2cbd
000000e0: 1132 a7bd 97c5 373e fe4f 563e b3c9 ce3d
000000f0: 5b96 d83d 22cd da3d fdaf 663e 5d22 573e

layer2.weight f4 [32, 64]
-0.072453514 0.101570934 0.063818336 0.026132926 -0.073903784 -0.027058825 -0.06968857 0.02979216
-0.10123135 -0.057887733 -0.08650547 -0.054436907 -0.0077241957 0.0061736405 1.6391277e-07 -0.04569839
-0.0179836 0.017625526 0.04133883 -0.057976454 -0.02497761 0.10072006 0.033552915 0.05459331
-0.11948688 -0.115633905 -0.03837703 0.06447072 0.03139454 -0.046815753 0.036385566 0.12129608
-0.044916853 0.00326854 0.013334453 0.028523251 -0.11192286 0.05723989 -0.06261471 0.04384671
-0.07311992 0.056066364 -0.11486322 -0.10100818 -0.06427358 -0.12071444 -0.011302665 0.106077656
0.08940463 0.091515094 0.010926336 -0.096548855 0.015008569 -0.0604669 0.09007999 0.020857185
0.034821376 -0.08320953 -0.09483047 -0.090914115 -0.043774053 0.036088914 0.011001006 -0.051953077
0.02145397 0.022111956 0.05721951 -0.05473693 -0.0751246 0.043688778 -0.078903325 -0.106270015
0.02135229 -0.050906375 -0.00022959807 0.09399649 0.10571037 -0.043052837 -0.039683312 -0.13408768
-0.08955169 -0.06197612 -0.13065065 -0.07616945 -0.1026948 0.029638877 0.045464493 0.024684986
-0.049897432 0.006079355 0.0030653682 0.0007286338 0.014527471 -0.064676635 0.09968931 -0.042667814
0.08509724 0.008799195 -0.0006781255 -0.13524991 0.089671925 0.02328354 -0.101135716 -0.09569339
0.043261092 -0.02027587 0.037303824 0.0793351 -0.06899589 0.10427393 -0.0065392423 -0.01462282
0.07694645 -0.042985138 -0.004588575 0.0846497 -0.11714877 -0.10991466 0.10477954 0.07796651
0.010372332 0.09034021 -0.09033496 -0.006983265 0.09561809 -0.03781783 0.084843986 -0.019919125
0.09010456 0.010432965 -0.016926603 0.02652186 -0.07089706 -0.150191 -0.058298506 0.116324335
0.09623974 0.05561191 0.010766429 0.11071135 -0.07875626 -0.018769745 -0.016107172 0.06112679
0.012156096 0.43332306 0.11369182 0.002228497 0.012827104 0.11900177 -0.192124 -0.023722991
-0.06750001 0.30278087 0.042564567 0.13194811 0.02961472 -0.11414415 0.10186315 -0.007035018
0.07991477 0.052512098 0.08844084 0.017176634 0.090942994 -0.05530692 0.52753675 0.20570543
0.12833905 0.03385192 0.118122905 -0.10315917 0.12223525 -0.041860223 -0.03223071 -0.064312354
0.04523939 0.06486595 0.22937909 0.017077059 0.053045515 -0.087560326 0.052649885 -0.05865954
0.23858987 0.10170597 -0.039643183 -0.044194397 -0.06867201 -0.1030612 0.10147012 -0.04181061
0.11161382 0.11139581 0.054231573 -0.14388087 0.08708839 -0.20112084 0.10636165 0.08221558
0.123305134 -0.08158723 0.050928447 0.114744365 0.009518189 0.0967486 -0.11714542 -0.09330022
-0.032466654 0.48812392 -0.10211987 -0.103642695 -0.040541552 -0.02187464 -0.11186854 -0.102311514
-0.07308646 0.27933756 0.19187602 0.011563376 -0.091485426 -0.07853847 -0.007891609 -0.041738372
0.07538477 0.08685262 -0.049733028 -0.0091547975 -0.04122575 -0.06728411 0.5710765 0.24807271
0.054664697 0.05243113 0.06623013 -0.032009296 0.015608609 0.06599724 -0.09976268 -0.1704547
0.11537163 -0.030256687 0.37120467 -0.062480032 0.19391865 0.115082085 0.15246864 -0.074774615
0.2970113 0.018499471 0.115922116 0.04650981 0.049882594 0.115676485 -0.068209164 0.08959758
00000000: 8262 94bd 6c04 d03d 30b3 823d b814 d63c
00000010: de5a 97bd 78aa ddbc e2b8 8ebd b00e f43c
00000020: 6252 cfbd b01b 6dbd c829 b1bd 3cf9 5ebd
00000030: 401b fdbb 404c ca3b 0000 3034 3c2e 3bbd
00000040: 5852 93bc 6863 903c e852 293d b878 6dbd
00000050: d89d ccbc 5246 ce3d c86e 093d 3c9d 5f3d
00000060: 8ab5 f4bd 78d1 ecbd 3c31 1dbd 3a09 843d
00000070: 9097 003d e0c1 3fbd 0809 153d 146a f83d
00000080: bcfa 37bd 0035 563b c078 5a3c 98a9 e93c
00000090: d037 e5bd 6074 6a3d 243c 80bd 9c98 333d
000000a0: e6bf 95bd d8a5 653d 683d ebbd 60dd cebd
000000b0: dea1 83bd 2239 f7bd d02e 39bc 3e3f d93d
000000c0: c619 b73d 446c bb3d 6004 333c 68bb c5bd
000000d0: 80e6 753c 24ac 77bd dc7b b83d b0dc aa3c
000000e0: dca0 0e3d c269 aabd 7a36 c2bd 2e31 babd
000000f0: 6c4c 33bd f8d1 133d 903d 343c c0cc 54bd
00000100: 3cc0 af3c 2224 b53c 015f 6a3d d533 60bd
00000110: edda 99bd 01f3 323d 1198 a1bd 18a4 d9bd
00000120: ffea ae3c 3483 50bd 43c0 70b9 3b81 c03d
00000130: ae7e d83d 2c58 30bd f88a 22bd 484e 09be
00000140: e066 b7bd acda 7dbd 49c9 05be bbfe 9bbd
00000150: a751 d2bd 3bcd f23c fa38 3a3d 2b38 ca3c
00000160: 4061 4cbd 5335 c73b 58e4 483b c901 3f3a
00000170: a104 6e3c 2f75 84bd e929 cc3d 72c4 2ebd
00000180: 7647 ae3d 802a 103c 3bc4 31ba f47e 0abe
00000190: eaa5 b73d 1fbd be3c 3e20 cfbd e5fa c3bd
000001a0: 8b32 313d 9519 a6bc e5cb 183d 717a a23d
000001b0: b84d 8dbd 928d d53d 2447 d6bb 8d94 6fbc
000001c0: 1a96 9d3d 2f11 30bd c25b 96bb d25c ad3d
000001d0: b2eb efbd f01a e1bd a896 d63d e8ac 9f3d
000001e0: b7f0 293c 4a04 b93d 8901 b9bd dfd3 e4bb
000001f0: 6bd3 c33d dee6 1abd afc2 ad3d 6f2d a3bc
00000200: bd88 b83d 07ef 2a3c a9a9 8abc 5f44 d93c
00000210: 7a32 91bd abcb 19be 6aca 6ebd 743b ee3d
00000220: 5719 c53d 50c9 633d ad65 303c a2bc e23d
00000230: f64a a1bd 02c3 99bc 30f3 83bc 1660 7a3d
00000240: 5d2a 473c 85dc dd3e 42d7 e83d fa0b 123b
00000250: c628 523c 33b7 f33d 27bc 44be b856 c2bc
00000260: 723d 8abd 1806 9b3e 2f58 2e3d 681d 073e
00000270: 929a f23c 68c4 e9bd a19d d03d 0286 e6bb
00000280: 5baa a33d ed16 573d 7920 b53d 03b6 8c3c
00000290: 5240 ba3d 8289 62bd a60c 073f 72a4 523e
000002a0: 506b 033e 50a8 0a3d 6cea f13d 1d45 d3bd
000002b0: 7a56 fa3d a075 2bbd 5904 04bd 32b6 83bd
000002c0: f04c 393d 70d8 843d 5ae2 6a3e 30e5 8b3c
000002d0: 4146 593d d452 b3bd 68a7 573d fc44 70bd
000002e0: e750 743e 384b d03d e460 22bd 2f05 35bd
000002f0: e9a3 8cbd c011 d3bd 91cf cf3d 9a41 2bbd
00000300: c995 e43d 7d23 e43d ed21 5e3d 8255 13be
00000310: 665b b23d 9ff2 4dbe 23d4 d93d a460 a83d
00000320: 6787 fc3d 3517 a7bd 599a 503d 18ff ea3d
00000330: 2ef2 1b3c 2124 c63d f0e9 efbd 3014 bfbd
00000340: c1fb 04bd 61eb f93e 3924 d1bd 9f42 d4bd
00000350: e60e 26bd 7232 b3bc 551b e5bd b388 d1bd
00000360: 5bae 95bd 5505 8f3e 267b 443e 5074 3d3c
00000370: b65c bbbd c7d8 a0bd cf4b 01bc dbf5 2abd
00000380: 5563 9a3d c9df b13d dcb4 4bbd 01fe 15bc
00000390: 55dc 28bd 40cc 89bd 1232 123f c606 7e3e
000003a0: 17e8 5f3d 06c2 563d aaa3 873d 2e1c 03bd
000003b0: 40bb 7f3c 9029 873d 6050 ccbd ad8b 2ebe
000003c0: f647 ec3d dfdc f7bc 8a0e be3e 10eb 7fbd
000003d0: 9c92 463e 28b0 eb3d bd20 1c3e 6f23 99bd
000003e0: dd11 983e 348c 973c 9368 ed3d 1281 3e3d
000003f0: b151 4c3d cbe7 ec3d 3fb1 8bbd f07e b73d

layer2.bias f4 [32]
-0.10163103 0.024986114 0.12455666 0.1266938 -0.015469021 -0.12675177 -0.10711105 0.03208247
0.033752564 0.08828827 -0.13367817 0.017239278 -0.007324284 -0.08770814 -0.0070943194 -0.014599457
0.11797283 0.026248582 0.1121917 0.08524554 -0.072747536 0.004973327 -0.018530123 -0.11648534
-0.042741526 -0.039796915 0.10325927 -0.106177755 -0.11462247 0.078296594 -0.13042852 0.046700783
00000000: ee23 d0bd aeaf cc3c 9017 ff3d 05bc 013e
00000010: c771 7dbc 37cb 01be 0a5d dbbd e868 033d
00000020: 2140 0a3d 7bd0 b43d eee2 08be 6339 8d3c
00000030: 8c00 f0bb 53a0 b3bd 7777 e8bb 9032 6fbc
00000040: bd9b f13d 4407 d73c c3c4 e53d 3795 ae3d
00000050: a9fc 94bd 4af7 a23b 7ccc 97bc de8f eebd
00000060: bd11 2fbd 1702 23bd 9979 d33d b973 d9bd
00000070: 30bf eabd f759 a03d 0e8f 05be 5249 3f3d

layer3.weight f4 [1, 32]
-0.011292532 -0.07385664 0.037177354 0.12862752 0.20296343 -0.098414786 0.0057876855 0.06556138
-0.04636669 0.0065224306 0.09252393 -0.070963636 -0.07968362 -0.12874684 -0.13817716 0.1140077
0.18357146 -0.9185345 -0.12219537 0.18834145 -0.15324831 -0.12501006 0.0062211193 0.0842665
0.08323014 0.37374353 0.13340172 0.5361579 0.6434753 -0.15476279 0.76146454 -0.16298175
00000000: 5004 39bc 2642 97bd 4847 183d efb6 033e
00000010: a5d5 4f3e b18d c9bd a0a6 bd3b 0b45 863d
00000020: 00eb 3dbd 1dba d53b 307d bd3d 6255 91bd
00000030: 2a31 a3bd 36d6 03be 507e 0dbe de7c e93d
00000040: 28fa 3b3e 1425 6bbf 9141 fabd 95dc 403e
00000050: 20ed 1cbe a302 00be 88da cb3b ea93 ac3d
00000060: 9074 aa3d 505b bf3e 769a 083e a541 093f
00000070: ccba 243f 237a 1ebe 57ef 423f b0e4 26be
