mat_model/model_name_first/Pd80_04_model.pth (torch, 15236 bytes, 5 tensors)

layer1.weight f4 [64, 15]
-0.2197238 0.05764808 0.19440247 -0.03072426 0.22960474 -0.061395288 0.31644344 0.24881275
0.09728252 0.25395358 -0.16970967 0.1634737 -0.10631412 -0.33312526 0.09323981 -0.4267689
-0.07685478 0.11333876 0.17337883 -0.027660578 -0.009186742 -0.2780506 -0.4428993 0.288488
0.21501654 -0.18723181 -0.20999007 -0.068927094 0.22032268 -0.057626475 -0.070601895 -0.13602674
-0.27635908 -0.23067681 0.14938179 -0.031019397 0.23544507 0.34714088 0.2062251 0.03256306
-0.07440993 -0.1494544 0.20703326 -0.29700395 0.6004724 0.033891074 -0.13799442 -0.13078903
-0.21218713 0.09741597 0.26573244 0.053457752 -0.1964061 -0.1582184 0.27302378 -0.20831986
0.058358096 -0.2055156 -0.3478851 -0.18698238 -0.09751861 -0.075577974 0.14460072 -0.14567894
0.18068305 -0.11826329 -0.20172179 -0.16071415 -0.17226326 -0.25806534 -0.06394668 -0.19446695
0.046973974 0.16307357 -0.17886016 0.09502983 -0.011747941 -0.15688668 -0.18856624 -0.07174371
0.16085264 -0.14059314 -0.15336518 -0.0551565 -0.114293665 -0.22525069 0.074548244 0.07952359
-0.14144152 0.079139054 0.17253737 0.20956887 0.21889102 0.08025823 0.22291896 -0.0024744356
0.17284721 -0.023355616 0.22870767 -0.24492148 0.020377992 0.18316466 0.10118517 -0.0007656252
-0.06658558 -0.250868 0.15797731 -0.057979163 0.20475182 -0.24810508 -0.025841 0.28927606
0.18998037 0.03796232 0.29120642 0.0653937 -0.22139257 0.041152608 0.16957836 0.025293205
0.0078033027 -0.012106277 -0.07316535 -0.0069415807 -0.13880968 0.0785434 -0.16605355 -0.21577752
0.50468767 0.33557105 -0.03102137 0.066292986 -0.15199082 -0.54506266 -0.47626206 0.0300565
-0.05703893 -0.13574365 -0.067785114 -0.06904636 0.15337078 0.048851576 -0.035509486 0.12473995
0.17079993 0.36637327 -0.21645153 0.41734603 -0.012947205 0.21897005 0.21303244 -0.06445752
-0.21835168 0.29955718 -0.29510528 -0.075842954 -0.277099 0.03800536 0.14761084 0.19480646
0.00015723892 0.02830572 0.28521916 -0.013784706 -0.27711174 -0.2886758 -0.34302935 0.31036505
-0.1549178 0.28129786 0.26781365 0.06467752 0.10029679 0.044522673 0.0181583 -0.043951254
-0.013371814 -0.10983985 -0.026056318 0.11116738 0.074186474 -0.17090699 -0.12620568 -0.002797703
0.18554924 0.12374154 -0.18022834 0.20019898 -0.23642798 0.16532218 0.06718749 -0.2182762
0.06927255 0.2764083 0.17149481 -0.25248992 -0.06982251 -0.14146334 -0.112692684 0.21520507
0.04742133 -0.29325348 0.0006365584 0.10002537 0.38443416 -0.031925153 -0.06600671 -0.3379113
-0.21800742 0.1358904 -0.1202766 -0.4267245 -0.14491512 0.039427068 -0.06581438 -0.28594363
0.027380098 -0.080527976 -0.4793326 0.29209524 -0.12908992 0.056643996 0.0734859 -0.23160608
0.25603172 -0.20367494 -0.10922484 -0.09100601 -0.14188376 -0.026198924 -0.21260786 -0.026661694
-0.023303434 0.24386558 -0.08637312 -0.07968493 0.14676175 -0.09000684 0.033090293 -0.22090608
-0.23098648 -0.11363194 0.14256206 0.1761649 -0.02714575 0.018324934 -0.036889687 0.02350594
-0.2866523 -0.261962 0.038667 0.10952293 -0.05100465 0.271455 0.34106454 0.1590999
00000000: 47ff 60be 6520 6c3d 7111 473e 71b1 fbbc
00000010: 811d 6b3e a079 7bbd e004 a23e c5c8 7e3e
00000020: 0f3c c73d 3406 823e 5fc8 2dbe a665 273e
00000030: 38bb d9bd 658f aabe 83f4 be3d 7481 dabe
00000040: 0a66 9dbd 271e e83d 388a 313e 7098 e2bc
00000050: fd83 16bc a65c 8ebe b2c3 e2be b3b4 933e
00000060: 4c2d 5c3e b2b9 3fbe a307 57be a629 8dbd
00000070: 459c 613e bd09 6cbd ba97 90bd 984a 0bbe
00000080: f07e 8dbe 8b36 6cbe 8af7 183e 641c febc
00000090: 8318 713e 73bc b13e ac2c 533e d860 053d
000000a0: 3c64 98bd 930a 19be 8700 543e e710 98be
000000b0: 8fb8 193f 5ed1 0a3d 694e 0dbe 8fed 05be
000000c0: 9547 59be 0682 c73d 150e 883e 84f6 5a3d
000000d0: ae1e 49be 0104 22be c6c9 8b3e cd51 55be
000000e0: e608 6f3d ae72 52be ff1d b2be 4f78 3fbe
000000f0: d6b7 c7bd a0c8 9abd 3612 143e dc2c 15be
00000100: fa04 393e 0634 f2bd 2890 4ebe 4092 24be
00000110: c865 30be 2421 84be 7af6 82bd 5822 47be
00000120: c867 403d c2fc 263e 1e27 37be 009f c23d
00000130: 707a 40bc e7a6 20be 8217 41be 5eee 92bd
00000140: 8eb6 243e a6f7 0fbe c30b 1dbe c8eb 61bd
00000150: cc12 eabd 1ea8 66be c0ac 983d 44dd a23d
00000160: 0cd6 10be a813 a23d a3ad 303e 3999 563e
00000170: f824 603e 6d5e a43d de44 643e 242a 22bb
00000180: dcfe 303e 4754 bfbc 5832 6a3e b2cc 7abe
00000190: bfef a63c 848f 3b3e 2c3a cf3d 3db4 48ba
000001a0: 055e 88bd c571 80be cec4 213e 8f7b 6dbd
000001b0: 76aa 513e 420f 7ebe 81b0 d3bc fe1b 943e
000001c0: 378a 423e 617e 1b3d 0219 953e 22ed 853d
000001d0: bcb4 62be a38f 283d f3a5 2d3e b233 cf3c
000001e0: d9b2 ff3b 6859 46bc b7d7 95bd 3376 e3bb
000001f0: 2024 0ebe 5ddb a03d f109 2abe c8f4 5cbe
00000200: 3633 013f f8cf ab3e 8720 febc 9ec4 873d
00000210: 7ba3 1bbe 3a89 0bbf 9fd8 f3be 0d39 f63c
00000220: a7a1 69bd 6200 0bbe ecd2 8abd 2e68 8dbd
00000230: 3b0d 1d3e 9718 483d 6572 11bd a977 ff3d
00000240: 2de6 2e3e 4795 bb3e 78a5 5dbe 61ae d53e
00000250: 8420 54bc af39 603e 2d25 5a3e 4e02 84bd
00000260: 9597 5fbe 8f5f 993e 0a18 97be 8d53 9bbd
00000270: ecdf 8dbe 82ab 1b3d 4c27 173e 587b 473e
00000280: 80e0 2439 66e1 e73c 3f08 923e 3fd9 61bc
00000290: 97e1 8dbe 51cd 93be 8ba1 afbe 2be8 9e3e
000002a0: c6a2 1ebe 4606 903e df1e 893e a675 843d
000002b0: 6768 cd3d 685d 363d b7c0 943c 3b06 34bd
000002c0: 7415 5bbc b7f3 e0bd 0f74 d5bc b9ab e33d
000002d0: 14ef 973d 3e02 2fbe 103c 01be ab59 37bb
000002e0: 9f00 3e3e 346c fd3d c78d 38be f600 4d3e
000002f0: 2d1a 72be 384a 293e 9899 893d cc83 5fbe
00000300: c4de 8d3d 6485 8d3e 569c 2f3e 5c46 81be
00000310: 1bff 8ebd c4db 10be 6ccb e6bd b85e 5c3e
00000320: de3c 423d 5225 96be b6de 263a 1ada cc3d
00000330: 8ed4 c43e f3c3 02bd 872e 87bd b602 adbe
00000340: 563d 5fbe da26 0b3e 9453 f6bd a27b dabe
00000350: a164 14be 477e 213d b1c9 86bd 3467 92be
00000360: 3a4c e03c daeb a4bd 156b f5be 828d 953e
00000370: 2630 04be 8903 683d c77f 963d 252a 6dbe
00000380: 9716 833e 2a90 50be 46b1 dfbd 5c61 babd
00000390: fa49 11be 209f d6bc e0b5 59be a069 dabc
000003a0: d8e6 bebc e6b7 793e 64e4 b0bd da31 a3bd
000003b0: b648 163e 8255 b8bd b089 073d 3435 62be
000003c0: b887 6cbe ddb7 e8bd cafb 113e 9264 343e
000003d0: c460 debc 2c1e 963c a419 17bd 878f c03c
000003e0: 17c4 92be e21f 86be 4a61 1e3d 8f4d e03d
000003f0: 40ea 50bd 26fc 8a3e 03a0 ae3e 16eb 223e

layer1.bias f4 [64]
-0.023152601 0.061921164 0.06461484 0.2220926 -0.067430794 -0.23899217 0.0050791744 0.07323534
-0.33686712 -0.12464042 0.16768484 -0.15332595 -0.0024065757 -0.18607126 0.017762829 -0.20407203
-0.07077517 -0.08117227 -0.11560745 -0.23607923 0.30661893 0.008903491 0.26404572 0.09921178
-0.122982964 0.08284392 -0.11197855 -0.08422448 0.104644276 0.21969621 0.25472423 0.010368962
0.14911924 0.04291722 -0.1891485 -0.052594565 0.033453092 0.2941115 -0.15547033 -0.23330039
0.22333789 0.16624488 0.22263813 -0.1433392 0.20373118 0.15923639 0.043321267 0.18126935
0.17058219 -0.14742191 -0.22431813 -0.18079272 -0.24373277 -0.14640404 0.0839384 0.057213582
0.074749984 0.16708826 0.19778754 -0.081077024 -0.09696275 0.23145323 0.1063906 0.32519087
00000000: 86aa bdbc 0ca1 7d3d c954 843d 3e6c 633e
00000010: 2819 8abd 5dba 74be 346f a63b 69fc 953d
00000020: d979 acbe 7a43 ffbd 93b5 2b3e 7a01 1dbe
00000030: a4b7 1dbb 7789 3ebe 5a83 913c 42f8 50be
00000040: 93f2 90bd a63d a6bd 99c3 ecbd c1be 71be
00000050: 28fd 9c3e f3df 113c 0031 873e 8c2f cb3d
00000060: 7ede fbbd 13aa a93d 0355 e5bd e27d acbd
00000070: bd4f d63d 0bf8 603e 376b 823e 94e2 293c
00000080: b7b2 183e f8c9 2f3d 25b0 41be 666d 57bd
00000090: 1c06 093d c895 963e 9d33 1fbe 4ce6 6ebe
000000a0: b0b2 643e 193c 2a3e 40fb 633e 83c7 12be
000000b0: e89e 503e dd0e 233e a471 313d ac9e 393e
000000c0: 19ad 2e3e c5f5 16be a7b3 65be ba21 39be
000000d0: 1595 79be f1ea 15be e5e7 ab3d ca58 6a3d
000000e0: 8516 993d 2f19 2b3e d188 4a3e b60b a6bd
000000f0: 6894 c6bd 1302 6d3e 51e3 d93d 6b7f a63e

layer2.weight f4 [32, 64]
0.07723454 -0.113244295 0.09378095 0.06946389 -0.03528583 -0.056903392 -0.09983096 0.07419672
-0.12793586 -0.1179847 0.12494958 0.11076141 0.049801413 -0.13460478 -0.08632964 0.066863984
0.14525971 -0.052542716 -0.051434644 -0.06569253 -0.06363241 -0.08947515 0.110529944 0.011311374
0.0554408 0.15684868 -0.05789996 0.10446691 -0.0065902527 0.11467594 -0.09586897 0.22641772
0.22652599 0.07274429 -0.45975155 -0.02738382 0.08658556 -0.061375517 -0.17053072 -0.11972895
-0.24637148 0.016647132 -0.10636562 -0.14277449 -0.04634202 0.0631779 -0.11764626 0.0011359681
0.08420354 -0.22347371 -0.22328828 -0.054934375 0.06561653 0.08692555 -0.07765535 0.13341099
-0.06323074 -0.05914645 0.05181254 -0.21385469 -0.30734247 0.030617625 -0.0084315855 0.0051962226
0.060716018 0.2619459 -0.3202071 0.099772006 -0.050619304 0.0351315 0.22343807 0.10793962
0.38693035 0.058106627 0.051221304 -0.1516625 0.11559699 0.7876775 0.14593731 0.04901558
-0.057990506 0.10176593 0.3726022 -0.07120977 -0.20898294 0.2453273 -0.015771618 0.18800665
-0.0011607856 -0.10805836 0.07097349 -0.084810466 -0.28300026 -0.183416 -0.057890408 -0.42648262
-0.34722328 -0.16596955 0.6425532 0.06656524 -0.5308235 -0.09281429 0.21121608 -0.072735876
-0.24704584 0.16310054 0.012635771 0.40853417 -0.11010727 0.061514743 -0.12001846 0.05575076
-0.08110601 0.44119895 0.38102633 0.029815504 -0.05105321 -0.013191551 0.15068433 0.17811401
0.13252261 0.12862648 -0.013783672 -0.018403184 0.17940184 -0.016081924 -0.119506955 -0.25769186
-0.012485129 0.060390167 0.028312067 0.13299724 -0.0123856515 -0.034911215 -0.04891525 0.022484226
-0.17024903 -0.05088219 0.03253067 0.088424034 -0.07034306 -0.31303516 -0.19440004 -0.052795157
0.10733349 0.0935065 -0.07336344 -0.0577116 0.058960937 -0.11648734 -0.06470173 -0.076542124
-0.0050132573 0.2556639 -0.13243575 0.07988593 0.109483734 -0.02895636 0.1124919 0.20878208
0.09325515 0.024148876 -0.117643766 0.08861612 0.121518165 0.110637285 -0.029059166 0.109825745
-0.18833283 -0.07467025 0.033654522 -0.18241934 0.1526536 -0.08185065 0.037644267 0.024085099
0.047339816 -0.1530135 -0.020049075 -0.15119122 0.11308652 -0.05750999 0.10329803 -0.049705558
-0.34451222 -0.037588246 -0.031825576 -0.1928556 -0.26266834 0.07348469 -0.028536072 0.06756653
0.08246388 0.06437552 -0.16512042 0.09697842 0.11373505 0.07191989 0.17449309 0.07527204
0.1653571 0.008246654 -0.065437235 -0.1497925 0.097653255 0.20717101 0.11335298 -0.038072094
-0.12328061 -0.037043408 0.05980738 -0.03891149 0.13286412 0.324399 0.01838139 0.05515244
0.028102443 -0.055128817 0.20940588 -0.06585193 -0.21366955 0.06219238 0.09196257 -0.22387905
-0.110406235 -0.024794115 0.23757018 -0.06676876 -0.22633542 -0.09640393 0.25156406 -0.041272625
0.043981347 -0.06829851 0.02887079 0.056191668 0.15754 -0.002405894 0.10820432 0.024070606
-0.07424697 0.16833296 0.18722102 0.04573084 -0.008195564 0.085040584 -0.025760747 0.024178274
0.24346292 -0.0055692545 -0.0856533 0.05819311 0.20218801 0.008485772 -0.056569546 -0.08584121
00000000: 242d 9e3d a0ec e7bd 3a10 c03d 1543 8e3d
00000010: e087 10bd 8813 69bd 2d74 ccbd 73f4 973d
00000020: 9e01 03be f6a1 f1bd 91e5 ff3d e1d6 e23d
00000030: 91fc 4b3d d6d5 09be 98cd b0bd fcef 883d
00000040: f6be 143e 0837 57bd 22ad 52bd ce89 86bd
00000050: b551 82bd bf3e b7bd 865d e23d 5753 393c
00000060: e415 633d f19c 203e 8228 6dbd bff2 d53d
00000070: 0cf3 d7bb 38db ea3d f356 c4bd 0cda 673e
00000080: 6ef6 673e f5fa 943d 8e64 ebbe 0854 e0bc
00000090: c553 b13d e564 7bbd 9b9f 2ebe 7434 f5bd
000000a0: ce48 7cbe 915f 883c 38d6 d9bd 7a33 12be
000000b0: 21d1 3dbd 6a63 813d 86f0 f0bd c4e4 943a
000000c0: e872 ac3d 4bd6 64be afa5 64be de02 61bd
000000d0: f661 863d 0606 b23d c509 9fbd e49c 083e
000000e0: 1e7f 81bd 8c43 72bd 6339 543d b9fc 5abe
000000f0: fe5b 9dbe d0d1 fa3c a224 0abc 1345 aa3b
00000100: 5cb1 783d c61d 863e 2ff2 a3be 4455 cc3d
00000110: 3056 4fbd 0ce6 0f3d f3cc 643e 730f dd3d
00000120: bc1b c63e 3701 6e3d 6ecd 513d 6a4d 1bbe
00000130: 1dbe ec3d 3ca5 493f 9770 153e 90c4 483d
00000140: 7487 6dbd a86a d03d b7c5 be3e 6ed6 91bd
00000150: a0ff 55be 1437 7b3e 7b33 81bc d184 403e
00000160: 8025 98ba b44d ddbd 8d5a 913d 1cb1 adbd
00000170: 69e5 90be 67d1 3bbe 7e1e 6dbd ee5b dabe
00000180: 40c7 b1be ecf3 29be 5e7e 243f 5b53 883d
00000190: 0de4 07bf 6b15 bebd 0749 583e 8cf6 94bd
000001a0: 96f9 7cbe d403 273e 4406 4f3c 642b d13e
000001b0: ec7f e1bd e2f6 7b3d 3dcc f5bd e95a 643d
000001c0: e81a a6bd d4e4 e13e e215 c33e a53f f43c
000001d0: 2c1d 51bd 6021 58bc fe4c 1a3e 8563 363e
000001e0: 02b4 073e a9b6 033e e9d4 61bc 46c2 96bc
000001f0: 1eb5 373e 3dbe 83bc 10c0 f4bd 30f0 83be
00000200: 6d8e 4cbc ae5b 773d b5ee e73c 6e30 083e
00000210: 30ed 4abc 10ff 0ebd 5b5b 48bd d730 b83c
00000220: c355 2ebe d869 50bd e13e 053d a917 b53d
00000230: 0610 90bd 2546 a0be ce10 47be bc3f 58bd
00000240: a9d1 db3d 5680 bf3d 923f 96bd 0063 6cbd
00000250: 0681 713d ea90 eebd 5782 84bd 1ec2 9cbd
00000260: 4046 a4bb 61e6 823e 3d9d 07be 3c9b a33d
00000270: 0239 e03d e335 edbc 2762 e63d f8ca 553e
00000280: 8efc be3d ddd3 c53c 37ef f0bd 5e7c b53d
00000290: 84de f83d cd95 e23d 7d0d eebc 52ec e03d
000002a0: 52da 40be b7ec 98bd 53d9 093d 23cc 3abe
000002b0: 3a51 1c3e 50a1 a7bd e030 1a3d 1d4e c53c
000002c0: 65e7 413d 92af 1cbe f53d a4bc dfd1 1abe
000002d0: e899 e73d 988f 6bbd eb8d d33d 0e98 4bbd
000002e0: e863 b0be 22f6 19bd 895b 02bd f07b 45be
000002f0: 777c 86be 247f 963d 7bc4 e9bc 5260 8a3d
00000300: d3e2 a83d 50d7 833d 5415 29be 9f9c c63d
00000310: eced e83d bc4a 933d 51ae 323e 3a28 9a3d
00000320: 5f53 293e f91c 073c f503 86bd 3563 19be
00000330: 6efe c73d a324 543e 9b25 e83d 7cf1 1bbd
00000340: 8b7a fcbd d4ba 17bd 95f8 743d a861 1fbd
00000350: 880d 083e a017 a63e 9294 963c 86e7 613d
00000360: 1837 e63c c1ce 61bd 7f6e 563e 60dd 86bd
00000370: 31cc 5abe 70bd 7e3d df56 bc3d 8d40 65be
00000380: aa1c e2bd 071d cbbc 9945 733e 0fbe 88bd
00000390: 79c4 67be 6c6f c5bd 01cd 803e 7c0d 29bd
000003a0: c925 343d 17e0 8bbd 6f82 ec3c 3c29 663d
000003b0: 2a52 213e 34ac 1dbb 3a9a dd3d b82f c53c
000003c0: cc0e 98bd 7a5f 2c3e deb6 3f3e 4350 3b3d
000003d0: b046 06bc c229 ae3d 3408 d3bc 8411 c63c
000003e0: 584e 793e 4b7e b6bb ff6a afbd e65b 6e3d
000003f0: 600a 4f3e e807 0b3c 78b5 67bd 84cd afbd

layer2.bias f4 [32]
0.06276799 -0.108100906 0.042559955 0.109981135 0.025411306 0.085654795 -0.04329784 0.1499291
-0.06087084 -0.04352556 -0.09025961 0.11283672 0.09078749 0.07820116 0.11304485 0.040264077
-0.03749872 -0.029519308 0.06014211 0.039392926 -0.023393448 -0.11758897 -0.09309627 -0.07949022
0.120012514 -0.022994082 -0.07593395 0.056816403 -0.03936094 -0.09563738 -0.0688886 0.08485752
00000000: 818c 803d 0264 ddbd 5953 2e3d ca3d e13d
00000010: 5f2b d03c c86b af3d 1359 31bd 0487 193e
00000020: b453 79bd dc47 32bd 08da b8bd f016 e73d
00000030: cbee b93d ee27 a03d 0f84 e73d f2eb 243d
00000040: 4298 19bd 7ad2 f1bc 9357 763d 7a5a 213d
00000050: 9ea3 bfbc 7cd2 f0bd 42a9 bebd c5cb a2bd
00000060: 1fc9 f53d 165e bcbc 4283 9bbd 51b8 683d
00000070: f038 21bd 88dd c3bd 7715 8dbd c8c9 ad3d

layer3.weight f4 [1, 32]
-0.101966664 0.5623508 -0.21618845 0.28590557 -0.035322446 -0.15720123 0.15702714 0.1430542
-0.17081577 -0.15604346 0.5426753 -0.24045731 -0.23373736 -0.23307109 -0.17849377 -0.10774166
-0.1560324 -0.4751028 -1.0228369 -0.17665753 -0.1782407 0.4339655 -0.0049605137 0.121442944
0.16910645 -0.6113776 0.04045277 0.2055874 -0.096057326 0.15354027 -0.14260438 0.20816468
00000000: e6d3 d0bd 39f6 0f3f 8160 5dbe 3762 923e
00000010: 45ae 10bd 5cf9 20be b9cb 203e cd7c 123e
00000020: 54ea 2ebe dbc9 1fbe c5ec 0a3f 713a 76be
00000030: d958 6fbe 30aa 6ebe 12c7 36be a9a7 dcbd
00000040: f5c6 1fbe ad40 f3be 52ec 82bf b6e5 34be
00000050: bb84 36be ba30 de3e ce8b a2bb 14b7 f83d
00000060: 3e2a 2d3e 3e83 1cbf ceb1 253d 8185 523e
00000070: b4b9 c4bd a939 1d3e e206 12be 1f29 553e
