mat_model/model_name_second/cap_model.pth (torch, 15196 bytes, 5 tensors)

layer1.weight f4 [64, 15]
0.23882063 0.17557327 -0.15267883 0.08911559 0.053332593 0.18069492 -0.047428332 0.116422825
0.077178314 0.024374975 -0.03381516 0.22232498 0.023654612 -0.22606958 -0.21500851 -0.09943396
0.08869404 0.10941098 0.08973518 -0.05068802 -0.16736896 0.16918862 -0.0007472176 0.044643577
-0.020932537 0.014993787 -0.15992668 0.18824819 0.09573391 0.18112776 -0.19112474 -0.2787868
0.18733501 0.017959878 -0.1630427 -0.35832354 0.097440705 0.031205242 0.05488379 0.21046813
0.07990005 0.28803703 0.059360202 -0.17594086 0.14556625 0.18453634 0.11041124 0.08157763
0.034447305 0.11325593 0.20879488 0.22022595 0.12446534 -0.1250474 -0.13785417 -0.041072153
0.25193745 0.004098374 -0.23510852 -0.13969187 -0.2931636 0.116369076 -0.19030374 -0.14039108
-0.024097389 0.048527557 -0.1528812 -0.024196573 0.40171272 0.6179104 0.051392924 -0.09153193
0.06396738 -0.42008796 0.22578505 -0.23193315 -0.030143276 0.20503208 -0.11025824 -0.2141249
-0.20899278 0.04365313 0.23938498 -0.0014304519 -0.15840705 -0.041586608 0.08047506 -0.08372179
-0.17183816 0.17206153 0.082487606 0.2075035 -0.008073927 -0.06911558 0.18096767 -0.1491767
-0.09434948 -0.0069436193 -0.214457 0.14409065 -0.09050004 0.055727817 -0.05015002 0.033874243
-0.2237692 -0.1815765 -0.4105267 0.15739702 -0.15180089 -0.45218572 -0.21465498 0.31701615
-0.1372485 0.14449199 -0.1096483 -0.109247975 -0.14636523 -0.0041804053 -0.15629254 0.2430727
-0.2510126 0.089083835 0.13125694 -0.19992574 0.12902008 -0.1397751 -0.06811438 0.12436684
-0.21576737 -0.23416112 0.07290432 -0.024231376 -0.011618126 0.051095497 -0.15545635 0.24348691
-0.44314924 -0.0056192568 0.099201046 0.22281486 0.085717954 0.38704222 -0.156011 -0.026666451
0.11847282 0.18153706 -0.19329031 0.28121483 0.26192516 -0.07980554 -0.1256738 0.07277664
-0.05006656 -0.06724926 -0.21502334 -0.24275441 0.12915587 0.13971886 -0.11596734 0.18092899
-0.024770742 -0.09950493 -0.13513711 0.21128334 0.23992221 0.123306215 -0.19314203 0.17867841
0.16757952 0.11567988 -0.1381188 -0.0010734914 -0.17892854 0.20000488 0.28895298 -0.114106834
-0.08364227 0.16530526 0.18747005 -0.006971806 -0.0941281 0.15248185 -0.0513376 -0.028146222
-0.02840355 -0.16609299 -0.08487959 -0.21215113 -0.16227737 -0.074558794 0.2389017 -0.22329122
-0.0030913055 0.08779827 -0.15124166 -0.021055682 -0.3630565 -0.12490608 0.105616406 0.020769946
0.20635857 0.05003167 0.22359818 0.095601335 -0.044940487 0.0127016185 -0.004790459 0.18207453
-0.07924463 -0.1586272 -0.24275774 -0.48818067 -0.16859238 -0.19677347 0.056466267 -0.16283564
0.0006837404 0.053076398 0.13910325 0.38051316 0.14383829 0.022543607 -0.10978082 -0.10936211
0.15192477 -0.060383733 0.13517427 -0.09529809 -0.079546 0.17654024 -0.16466647 0.20099887
-0.01184853 -0.22457753 0.044202406 -0.21297126 -0.13310923 0.047385458 0.11233187 -0.2615091
-0.13196962 0.035570096 0.2154133 -0.001845931 -0.19942947 0.1715747 -0.09193411 -0.15847534
-0.032181278 -0.121906556 0.030877823 -0.25580508 -0.09995435 -0.08525094 0.18913797 -0.14124161
00000000: 658d 743e 7bc9 333e d757 1cbe 3c82 b63d
00000010: 4773 5a3d 1708 393e 3644 42bd 176f ee3d
00000020: aa0f 9e3d 07ae c73c c481 0abd 29a9 633e
00000030: 51c7 c13c c97e 67be 312b 5cbe 08a4 cbbd
00000040: 39a5 b53d dd12 e03d 14c7 b73d 3e9e 4fbd
00000050: c562 2bbe c83f 2d3e ede0 43ba 2fdc 363d
00000060: b67a abbc 80a8 753c d2c3 23be 22c4 403e
00000070: 2410 c43d 8e79 393e 34b6 43be 25bd 8ebe
00000080: c0d4 3f3e 9820 933c aaf4 26be 2f76 b7be
00000090: fe8e c73d 23a2 ff3c d3cd 603d f584 573e
000000a0: a3a2 a33d 9779 933e af23 733d d729 34be
000000b0: 520f 153e 18f7 3c3e 4a1f e23d 2c12 a73d
000000c0: 9e18 0d3d baf2 e73d 53ce 553e e982 613e
000000d0: afe7 fe3d 6d0c 00be a529 0dbe 463b 28bd
000000e0: f2fd 803e a74b 863b 4ac0 70be 630b 0fbe
000000f0: 8a19 96be e952 ee3d fcde 42be aec2 0fbe
00000100: e367 c5bc d5c4 463d e48c 1cbe e437 c6bc
00000110: 4aad cd3e 602f 1e3f 6381 523d 1875 bbbd
00000120: 5401 833d c515 d7be 3234 673e e27f 6dbe
00000130: 08ef f6bc eef3 513e 12cf e1bd 8f43 5bbe
00000140: 3402 56be a0cd 323d 5621 753e 007e bbba
00000150: 7535 22be b856 2abd 1cd0 a43d 5476 abbd
00000160: 58f6 2fbe e630 303e 43ef a83d cc7b 543e
00000170: 8148 04bc 788c 8dbd 974f 393e c7c1 18be
00000180: 4d3a c1bd 4d87 e3bb 9e9a 5bbe 808c 133e
00000190: 1658 b9bd da42 643d 1b6a 4dbd b8bf 0a3d
000001a0: c123 65be 31ef 39be 8e30 d2be af2c 213e
000001b0: b171 1bbe e384 e7be 84ce 5bbe f14f a23e
000001c0: df8a 0cbe b5f5 133e 4a8f e0bd 67bd dfbd
000001d0: c4e0 15be c8fb 88bb 270b 20be 0de8 783e
000001e0: b984 80be 9671 b63d 3868 063e 55b9 4cbe
000001f0: d71d 043e 3421 0fbe 8d7f 8bbd 0bb4 fe3d
00000200: 1ff2 5cbe efc7 6fbe dc4e 953d e180 c6bc
00000210: f459 3ebc 8349 513d f32f 1fbe a254 793e
00000220: 75e4 e2be be21 b8bb eb29 cb3d 9429 643e
00000230: e58c af3d 662a c63e 59c1 1fbe 9a73 dabc
00000240: e1a1 f23d dae4 393e e5ed 45be 64fb 8f3e
00000250: 0e1b 863e 1671 a3bd a2b0 00be eb0b 953d
00000260: 9812 4dbd fbb9 89bd 142f 5cbe 9d94 78be
00000270: 7041 043e 7612 0f3e 4980 edbd 7345 393e
00000280: 03ec cabc 3ec9 cbbd 6261 0abe a95a 583e
00000290: 2bae 753e f887 fc3d 06c7 45be 79f7 363e
000002a0: f799 2b3e 93e9 ec3d 046f 0dbe 65b4 8cba
000002b0: 0b39 37be 14ce 4c3e a5f1 933e d8b0 e9bd
000002c0: a34c abbd c845 293e 26f8 3f3e bf73 e4bb
000002d0: 3cc6 c0bd 3424 1c3e 6047 52bd e892 e6bc
000002e0: 90ae e8bc 4814 2abe 5ad5 adbd 253e 59be
000002f0: 0a2c 26be 48b2 98bd a6a2 743e 74a6 64be
00000300: 8097 4abb 94cf b33d 18df 1abe f77c acbc
00000310: 8be2 b9be c2ce ffbd 6a4d d83d bc25 aa3c
00000320: a94f 533e 02ee 4c3d ecf6 643e a2ca c33d
00000330: 8413 38bd 731a 503c 48f9 9cbb bf71 3a3e
00000340: 024b a2bd 2b6f 22be 7c95 78be d1f2 f9be
00000350: 7ba3 2cbe fc7e 49be 2c49 673d 63be 26be
00000360: 0b3d 333a a366 593d 1571 0e3e 9fd2 c23e
00000370: 584a 133e 5fad b83c c4d4 e0bd 3ef9 dfbd
00000380: 2b92 1b3e ef54 77bd 206b 0a3e a52b c3bd
00000390: 03e9 a2bd f7c6 343e 549e 28be a6d2 4d3e
000003a0: 5620 42bc a7f7 65be 950d 353d 2315 5abe
000003b0: c94d 08be 4117 423d 400e e63d 85e4 85be
000003c0: 0b23 07be f3b1 113d 4e95 5c3e 2bf3 f1ba
000003d0: 3d37 4cbe 47b1 2f3e f347 bcbd 5c47 22be
000003e0: 84d0 03bd 25aa f9bd 7df3 fc3c e2f8 82be
000003f0: deb4 ccbd 0b98 aebd 62ad 413e a4a1 10be

layer1.bias f4 [64]
0.12436926 -0.19943315 -0.21070571 0.2515503 -0.303185 -0.22272368 -0.049221534 0.2111556
0.23693943 -0.12508331 0.1514379 -0.10210267 -0.24274859 0.21366306 -0.08230484 0.030609753
0.16019613 0.055961125 0.24013673 -0.046749122 0.13459136 0.22810076 0.18222722 0.022524089
-0.17102475 0.20822446 0.23301126 0.09497017 0.10651112 -0.15303524 0.1352249 -0.2614263
0.048153855 0.07808911 -0.13100342 -0.20233881 -0.055417627 0.008516701 0.14519115 0.17138486
0.2623663 -0.34843487 0.22600257 -0.16218747 -0.14455876 -0.06253902 -0.15378836 0.15616173
-0.016365267 -0.22820902 0.2177776 0.06197842 -0.075696066 -0.031449493 0.26895577 -0.08659331
-0.1691313 0.15572156 -0.072071835 0.03802646 0.30229357 -0.09820713 -0.07868675 -0.05417082
00000000: 50b5 fe3d 3438 4cbe 3dc3 57be 33cb 803e
00000010: 103b 9bbe ad11 64be 859c 49bd 2c39 583e
00000020: 40a0 723e d715 00be 8912 1b3e 341b d1bd
00000030: 1693 78be 7dca 5a3e 718f a8bd 4ec1 fa3c
00000040: 740a 243e 7e37 653d 67e6 753e 027c 3fbd
00000050: 51d2 093e 3f93 693e c699 3a3e 7084 b83c
00000060: 1d21 2fbe cb38 553e 819a 6e3e b87f c23d
00000070: 8122 da3d 45b5 1cbe 6578 0a3e abd9 85be
00000080: fa3c 453d 2fed 9f3d c325 06be e831 4fbe
00000090: 98fd 62bd a289 0b3c fdac 143e 837f 2f3e
000000a0: e054 863e 0e66 b2be 386d 673e 7914 26be
000000b0: 3607 14be 7514 80bd b27a 1dbe dce8 1f3e
000000c0: 7410 86bc a0af 69be 1701 5f3e 15dd 7d3d
000000d0: 8a06 9bbd 2fd1 00bd 92b4 893e d557 b1bd
000000e0: c130 2dbe 7975 1f3e 669a 93bd a2c1 1b3d
000000f0: 39c6 9a3e d220 c9bd 8526 a1bd 39e2 5dbd

layer2.weight f4 [32, 64]
-0.0012232546 -0.061917067 -0.05389257 0.12258191 -0.27351066 0.094062015 0.04271956 0.09739429
0.0055323504 0.10460098 0.09682393 0.14331037 0.11132398 -0.013630827 0.04783464 0.05899684
0.05579213 -0.03927923 0.14382438 0.0113226175 -0.060552657 0.16238093 0.089144915 0.026574114
-0.43536752 0.08374329 0.14577582 0.0833747 0.026061803 0.055727117 0.0041598296 0.18252769
-0.054905668 -0.025549268 -0.5091536 -0.0014578754 0.17547971 0.1338222 0.077499844 0.16372384
0.033975314 -0.4173259 0.064550824 -0.019733535 -0.013633033 0.019073175 -0.05219993 0.049567144
0.117851935 0.08055612 0.05611177 0.055704266 -0.018125148 -0.021900786 0.031386416 -0.05215187
-0.052902993 0.062145125 0.1513525 -0.095762864 0.04454118 0.020531546 0.040083494 -0.29831907
0.009278458 -0.01083993 -0.026461631 -0.03491265 0.041821793 0.08381702 0.015483841 0.07646973
-0.108226165 0.03662373 0.025899895 0.02532221 0.1231025 -0.0042596576 0.057334032 -0.026224079
-0.11164831 -0.086807355 0.059713416 -0.10712715 -0.13498634 0.037354942 0.10791218 -0.08690301
0.01591596 -0.12306853 0.062469233 -0.007565031 0.017283652 -0.06829184 0.063795514 0.11723584
0.045157224 0.005700736 0.04886289 -0.02683483 0.03189531 -0.12960108 -0.035981897 0.033878278
-0.12866966 -0.116704136 -0.13539033 -0.04647759 -0.071181595 0.025540294 -0.0341973 0.080616765
0.07071793 0.07767089 -0.061478294 -0.056085106 0.08664286 0.071299806 -0.043389004 -0.06084839
-0.012368023 0.03350986 -0.063261695 -0.064557895 -0.11568212 0.09885672 -0.10473206 0.024664462
0.12329134 0.10420109 -0.0040128827 -0.047282875 0.114988856 0.053766534 -0.1075667 0.028900335
0.016037747 -0.07858692 0.03324785 0.11495795 0.04795356 -0.12182639 0.10531401 0.050209597
-0.06978726 0.0794555 0.005023877 0.05638951 -0.10172782 -0.08883388 -0.09888431 -0.1052141
0.08107452 0.05967786 -0.06395349 -0.024108449 -0.043787234 0.11154446 0.044411078 0.09262451
0.08632594 0.057179537 0.008485923 -0.07475388 -0.08018237 0.00067622226 -0.09735698 -0.04893275
0.0024504827 -0.030105725 -0.08795149 0.05531933 0.102929115 0.07341328 0.061091125 0.10974314
0.09887713 -0.02137588 -0.06628583 0.12200704 0.071354166 0.024407923 -0.0815999 0.052826174
-0.11917931 -0.1087797 -0.07708798 -0.0055597275 -0.07785337 -0.04993391 0.09655298 -0.09069882
-0.11162345 -0.064531505 0.08683832 0.07420227 -0.1063751 0.011054158 -0.114093035 -0.09933169
-0.008250311 -0.026466265 0.0669239 -0.10708366 0.106166884 -0.06280765 -0.11447665 0.026507735
-0.059023052 0.051972955 0.03619857 -0.040560454 0.037684113 0.06539081 0.022608787 -0.06545426
0.08207621 0.070310906 -0.09405054 -0.11439797 -0.0698306 0.050499693 -0.010396883 -0.109190196
0.015512332 -0.04684253 -0.05530934 0.0010132641 -0.120308906 0.049166813 -0.06053227 0.0039409846
0.035203412 -0.0936155 -0.12272845 0.08314757 -0.12046747 -0.015702143 0.07158151 0.04586351
0.04275146 -0.124419644 -0.01316908 -0.015204549 -0.036890373 0.058981374 -0.023969531 0.033823356
0.09684169 0.07094942 0.003695041 -0.1170471 -0.07630475 -0.021443114 -0.04229386 -0.07474133
00000000: 9d55 a0ba c09c 7dbd 75be 5cbd 390c fb3d
00000010: 9709 8cbe 96a3 c03d b5fa 2e3d a876 c73d
00000020: b848 b53b 0a39 d63d a04b c63d f4bf 123e
00000030: d4fd e33d d553 5fbc 41ee 433d aca6 713d
00000040: 4a86 643d 42e3 20bd b346 133e 8082 393c
00000050: 1006 78bd 3047 263e 9c91 b63d f5b1 d93c
00000060: 7ee8 debe 9a81 ab3d 4246 153e 5bc0 aa3d
00000070: 907f d53c 1e42 643d 2e4f 883b 8ae8 3a3e
00000080: c4e4 60bd b34c d1bc e457 02bf 2e16 bfba
00000090: f4b0 333e b008 093e 3db8 9e3d 39a7 273e
000000a0: b329 0b3d beab d5be 3933 843d 39a8 a1bc
000000b0: 165d 5fbc 593f 9c3c 98cf 55bd eb06 4b3d
000000c0: 5b5c f13d 9bfa a43d 75d5 653d 282a 643d
000000d0: 317b 94bc 4769 b3bc 0b8f 003d 339d 55bd
000000e0: cfb0 58bd e38b 7e3d 26fc 1a3e 521f c4bd
000000f0: d070 363d c631 a83c 972e 243d 47bd 98be
00000100: ac04 183c f699 31bc 10c6 d8bc 9100 0fbd
00000110: 544d 2b3d 42a8 ab3d f0af 7d3c 299c 9c3d
00000120: aea5 ddbd c402 163d 042c d43c 8670 cf3c
00000130: 2a1d fc3d 9994 8bbb 17d7 6a3d e1d3 d6bc
00000140: dfa7 e4bd 0ec8 b1bd 0e96 743d 7b65 dbbd
00000150: dc39 0abe 7f01 193d 1001 dd3d 35fa b1bd
00000160: 3062 823c 5a0b fcbd bddf 7f3d 14e4 f7bb
00000170: 7296 8d3c 98dc 8bbd 39a7 823d 5819 f03d
00000180: c8f6 383d 3dcd ba3b 7424 483d b8d4 dbbc
00000190: a8a4 023d 25b6 04be c161 13bd f3c3 0a3d
000001a0: fbc1 03be 9402 efbd c3a3 0abe 495f 3ebd
000001b0: a8c7 91bd e139 d13c 7812 0cbd 671a a53d
000001c0: 90d4 903d ea11 9f3d aad0 7bbd 7fb9 65bd
000001d0: d071 b13d a205 923d abb8 31bd 293c 79bd
000001e0: 40a3 4abc a341 093d 598f 81bd ee36 84bd
000001f0: bfea ecbd 6475 ca3d c37d d6bd 200d ca3c
00000200: 2c80 fc3d 6267 d53d 807e 83bb b0ab 41bd
00000210: 477f eb3d 4c3a 5c3d ee4b dcbd 65c0 ec3c
00000220: 9861 833c 2ef2 a0bd e62e 083d 136f eb3d
00000230: f46a 443d 1d80 f9bd dfae d73d 94a8 4d3d
00000240: 9fec 8ebd 91b9 a23d 569f a43b b0f8 663d
00000250: ad56 d0bd 8aee b5bd db83 cabd 7d7a d7bd
00000260: 660a a63d c670 743d 0cfa 82bd 157f c5bc
00000270: 3e5a 33bd 6c71 e43d 64e8 353d ebb1 bd3d
00000280: a8cb b03d 1735 6a3d 8a08 0b3c 9018 99bd
00000290: a836 a4bd 8244 313a 1963 c7bd b56d 48bd
000002a0: 4798 203b 48a0 f6bc e91f b4bd 8696 623d
000002b0: 80cc d23d b459 963d b03a 7a3d 03c1 e03d
000002c0: 1880 ca3d 781c afbc dec0 87bd d4de f93d
000002d0: 2222 923d 20f3 c73c d91d a7bd 4260 583d
000002e0: 4814 f4bd e4c7 debd 4ee0 9dbd 602e b6bb
000002f0: 9671 9fbd 8087 4cbd 92bd c53d 4ec0 b9bd
00000300: d69a e4bd 1829 84bd 4ad8 b13d 5cf7 973d
00000310: 30db d9bd 801c 353c 9ca9 e9bd 6a6e cbbd
00000320: 502c 07bc c8cf d8bc 660f 893d ae4e dbbd
00000330: 066e d93d 4ca1 80bd bc72 eabd c026 d93c
00000340: 28c2 71bd 98e1 543d f444 143d b822 26bd
00000350: a85a 1a3d 9eeb 853d 1036 b93c e20c 86bd
00000360: 9217 a83d 2aff 8f3d 929d c0bd 7c49 eabd
00000370: 5803 8fbd c4d8 4e3d b057 2abc 1c9f dfbd
00000380: 7027 7e3c f4dd 3fbd 0c8c 62bd 80cf 843a
00000390: 8464 f6bd 2463 493d b0f0 77bd 6023 813b
000003a0: 7431 103d 7cb9 bfbd 0e59 fbbd 4649 aa3d
000003b0: a6b7 f6bd c8a1 80bc 5499 923d 60db 3b3d
000003c0: 281c 2f3d bacf febd 20c3 57bc 801c 79bc
000003d0: 5c1a 17bd 7496 713d c05b c4bc 5c8a 0a3d
000003e0: f054 c63d ee4d 913d 8028 723b 64b6 efbd
000003f0: aa45 9cbd 78a9 afbc 543c 2dbd fc11 99bd

layer2.bias f4 [32]
0.09573201 -0.032374118 -0.05964117 -0.05286908 -0.10807074 -0.12382719 0.11306802 0.046633437
0.056025226 -0.0067335214 -0.048687536 -0.010664299 0.08157349 0.1452941 -0.114622205 -0.042423725
-0.06206283 -0.052106623 0.02887442 0.015810957 -0.007822289 -0.117369354 -0.022770444 0.06574673
-0.07809357 0.09157487 0.07647097 -0.022354757 0.05278491 0.037572272 0.087686084 -0.07164842
00000000: 250f c43d b99a 04bd 4d4a 74bd 408d 58bd
00000010: 3154 ddbd 1c99 fdbd 3590 e73d b402 3f3d
00000020: b57a 653d dfa4 dcbb 956c 47bd 50b9 2ebc
00000030: 0010 a73d fac7 143e 0cbf eabd 80c4 2dbd
00000040: 9835 7ebd c16d 55bd 0c8a ec3c fb85 813c
00000050: 0f29 00bc 585f f0bd 1589 babc 39a6 863d
00000060: 86ef 9fbd 9b8b bb3d d09c 9c3d 5321 b7bc
00000070: fd34 583d 62e5 193d c394 b33d 68bc 92bd

layer3.weight f4 [1, 32]
0.21930557 -0.020156233 0.07636896 0.15510286 -0.821398 0.008154154 0.05409645 -0.032341816
-0.1416108 0.14449328 -0.15933521 -0.040437937 -0.02409372 0.19431466 -0.11820245 0.08049065
-0.13921852 0.15040955 -0.12421131 -0.048275795 -0.12923108 -0.05332236 0.12914485 -0.13127363
-0.008664507 0.21604592 0.10949537 -0.12643053 -0.109577216 0.10238262 0.1899282 -0.054677825
00000000: a491 603e af1e a5bc 5467 9c3d 49d3 1e3e
00000010: 2447 52bf 0099 053c 3d94 5d3d da78 04bd
00000020: 6c02 11be 0cf6 133e c528 23be 40a2 25bd
00000030: 3160 c5bc 6cfa 463e 2014 f2bd 48d8 a43d
00000040: 4d8f 0ebe f604 1a3e 8062 febd d7bc 45bd
00000050: 2755 04be 8c68 5abd 8c3e 043e 986c 06be
00000060: 94f5 0dbc 243b 5d3e 1c3f e03d 0177 01be
00000070: 056a e0bd fbad d13d 8a7c 423e dbf5 5fbd
