mat_model/model_name_second/Temp_model.pth (torch, 15206 bytes, 5 tensors)

layer1.weight f4 [64, 15]
000000 70 96 0d bd ec 21 61 bd fc 7d 24 bd 84 19 73 bd
       -0.034567297 -0.05496399 -0.04015921 -0.059350505
000010 80 bc a8 3c 08 f8 27 3e 32 06 00 3e 76 cd 36 be
       0.020597696 0.1640321 0.12502363 -0.17851815
000020 88 13 f3 bd b8 cc 9d 3d 20 5f 0e bd 7b d2 01 be
       -0.1186896 0.07705063 -0.034758687 -0.12677948
000030 5c c5 36 be 58 67 2e 3d ec 5b 52 3e 95 40 a7 3e
       -0.17848724 0.042579025 0.20542878 0.3266646
000040 96 1d bb 3d 06 58 e2 3d e1 34 38 3e 20 ab f8 be
       0.091365024 0.110519454 0.17988922 -0.48568058
000050 87 7a 0c be d7 4f 7e be d3 c2 e0 bc 8c 7e b2 bd
       -0.13718615 -0.24835144 -0.02743665 -0.08715543
000060 2c 4c 2d 3d b4 03 85 3e 54 f9 a0 3c 87 17 01 be
       0.04230897 0.25979388 0.019650139 -0.12606631
000070 f2 00 99 3d 2a 43 82 be 7b 49 c2 3e 7a 80 87 3e
       0.074708834 -0.25441867 0.37946686 0.26465207
000080 b3 70 8b 3e e0 fb 89 3d 02 10 e0 3d 9a bf 9d bd
       0.2723442 0.067374945 0.10940553 -0.07702561
000090 42 11 e6 bd 6d 9a 27 3e de 53 88 3d 1a 72 9b be
       -0.112337604 0.16367503 0.066566214 -0.3036049
0000a0 99 6c 42 be ea ee d1 3d b3 a0 6c 3d e8 07 7c be
       -0.18986739 0.10250647 0.057770442 -0.24612391
0000b0 53 71 cb 3e 2b 33 53 3e 32 ea da bc be f2 00 3e
       0.39734897 0.20624988 -0.026723001 0.12592599
0000c0 11 ba 41 be 3a 54 c5 bd 66 ef 6e 3d 1d f8 88 3e
       -0.18918635 -0.096352056 0.058333777 0.26751795
0000d0 80 df 23 be ac 50 0a 3e 8e d2 00 3e f6 73 49 3e
       -0.16003227 0.13507336 0.1258032 0.19673142
0000e0 66 76 71 bd 3c 2c 30 3e 93 e0 98 bc 6f 1d b4 3e
       -0.058950804 0.17204374 -0.018661773 0.35178706
0000f0 a3 1c 25 be bd 00 b0 3e 4c b2 17 bd f5 b1 3d be
       -0.16124205 0.34375563 -0.03703527 -0.18524916
000100 0e 0a 37 be 7b b9 90 bd 51 c6 d4 bd 4f e8 58 be
       -0.1787493 -0.070666276 -0.10389388 -0.21182369
000110 cc d3 d8 3d 4a 5b 2f 3d 07 33 29 be 89 da 55 3e
       0.10587272 0.04281167 -0.16523372 0.20884146
000120 9e 29 52 3e 50 41 9e bc 4c 25 a6 bc d6 1a b5 bd
       0.20523688 -0.019318253 -0.020281456 -0.08843009
000130 6e fb 0d be ec 51 10 3e fe c0 19 3e c4 02 87 3d
       -0.13865444 0.1409375 0.15015027 0.065923244
000140 2e bb c8 bd 52 19 87 bd 90 8c 21 be 00 a7 7f bd
       -0.09801327 -0.06596626 -0.15776277 -0.062415123
000150 8c 9e 51 bd 18 4c e7 bc 21 c2 66 be 25 38 0d be
       -0.051176593 -0.028234527 -0.22534992 -0.13790949
000160 14 ba 68 be 04 a5 da bd 43 88 85 3e a1 7f 77 bd
       -0.22727233 -0.106760055 0.26080522 -0.06042445
000170 15 98 49 3e 2f 74 fa 3c 56 d0 1f 3e 9a ef eb bd
       0.19686921 0.030572979 0.15606818 -0.1152031
000180 99 36 04 be 2e 8a c7 bc 02 56 14 3d 8c 62 78 3e
       -0.12911452 -0.024357881 0.036214836 0.24256343
000190 df de 4f bd 4a 6f 89 3e 3e 3f 80 be 01 a1 2e 3e
       -0.050749656 0.2684272 -0.2504825 0.17053606
0001a0 f3 ef f0 bd a2 da 28 be 40 5d c4 3b 35 41 19 be
       -0.11764517 -0.16489652 0.0059925616 -0.14966281
0001b0 b8 8d af 3d a8 61 5d be fc 3c 61 3e 80 b8 b8 3c
       0.085719526 -0.21619284 0.2199592 0.022548914
0001c0 88 c0 6a bd 58 55 1d 3e 86 51 16 be 8c b1 69 bd
       -0.05731252 0.15364587 -0.14679536 -0.057054088
0001d0 00 ba 67 3d c0 5d 0e be 30 5c d2 3d a2 57 62 3e
       0.056573868 -0.1390295 0.102714896 0.22103742
0001e0 0f 1c 68 be fd df 43 3e 03 ff 44 3d c1 df 3e 3e
       -0.22666954 0.19128413 0.04809476 0.18640043
0001f0 f5 02 a0 bd cc e2 ac 3e 7c 86 53 be cb db 89 bc
       -0.07813064 0.33766782 -0.2065677 -0.016828438
000200 ba 39 56 3d 0b 31 b5 3e 23 df 96 bd 93 49 eb bd
       0.052301146 0.3538898 -0.07366779 -0.114886425
000210 d9 63 40 3e cc ca 23 be af ef 53 3e 98 cb 51 be
       0.18788089 -0.1599533 0.20696901 -0.20487821
000220 a8 ee cb 3d 00 1e cb bb 9c 70 34 3e a0 46 59 be
       0.099576294 -0.0061986446 0.17621082 -0.21218348
000230 b4 6f 10 3e d0 76 af 3c e8 4b f9 3d 1e 17 6b be
       0.14105111 0.021418959 0.12172681 -0.22958037
000240 ea 32 46 be b4 93 15 3e 5e eb 17 3e cc 52 31 3e
       -0.1935536 0.14607126 0.14835879 0.17316741
000250 2b 23 45 be 38 84 b2 bd 21 49 01 3e 05 dc 51 3c
       -0.19251697 -0.08716625 0.12625553 0.012808804
000260 7d ce 71 be f4 29 8e bd 2d 87 03 be 86 3e 20 be
       -0.23613925 -0.06941596 -0.12844534 -0.15648851
000270 94 22 a8 3d 2d 59 6a 3e ed e6 0b be ed 69 c5 bd
       0.0820972 0.2288558 -0.1366231 -0.09639344
000280 88 a5 fc bd db 84 09 3d 72 31 86 bd b4 09 c7 3d
       -0.1233626 0.033573966 -0.065524 0.097186476
000290 e8 6c 33 be 79 ef 0d be 80 c9 80 be 44 2c de bd
       -0.17522013 -0.13860883 -0.25153732 -0.10848287
0002a0 d5 90 02 bd 06 51 ea 3d c7 ee 77 3e d3 8b 29 be
       -0.031876404 0.11441235 0.2421218 -0.16557245
0002b0 7d 0e 71 bd c3 3c c9 3d 8d 7d bd bd 86 ee 89 3e
       -0.058851708 0.098260425 -0.092524625 0.2693979
0002c0 d3 53 37 be ef 6e c6 bd 88 ed af bd 36 1b 37 be
       -0.1790307 -0.09689128 -0.08590227 -0.17881474
0002d0 38 46 d8 bd db 24 59 be a0 23 43 3d 2c 3a c7 3d
       -0.10560268 -0.21205465 0.047641397 0.09727892
0002e0 d9 56 06 be e8 1f 3a 3e f0 87 5e 3d 40 6f 4e 3d
       -0.13119067 0.18176234 0.05432886 0.050399065
0002f0 0a da e8 bd 16 ad 25 be 0d 8d 50 be fc 95 69 be
       -0.11369713 -0.16179308 -0.20366307 -0.22811121
000300 b0 da d4 3c 14 3c 14 3e be 68 4d 3e 3a 61 bc 3b
       0.025983185 0.14476043 0.20059487 0.005748895
000310 5a ea 6a be b8 ce e5 3d 06 d0 46 3e b6 d9 9d bd
       -0.2294096 0.11221069 0.19415292 -0.07707541
000320 3b a6 ac 3d e0 66 a4 3d 72 ed 47 3e 9a 9a ff 3d
       0.084301434 0.08027434 0.19524172 0.1248066
000330 9f 4b 91 bd 59 5b 22 3d eb e7 65 3d ec a5 4c be
       -0.07094502 0.039637897 0.056129377 -0.19985169
000340 e8 43 07 be d0 43 f1 3b b5 b3 f2 bd 68 35 55 be
       -0.13209498 0.00736282 -0.11850683 -0.20821154
000350 3b ca b3 3d 4f b7 3e 3e 09 88 37 bc 47 76 90 3e
       0.08778807 0.18624614 -0.011201867 0.28215238
000360 dd bb 13 3d 6d 1e b6 3d ad 90 be 3d 56 8a be bd
       0.036067832 0.08892522 0.093049385 -0.09303729
000370 f5 d2 7b be 30 b6 1d 3e fa e4 8f 3d 9b 5e 48 3e
       -0.24592192 0.1540153 0.07026096 0.19567339
000380 06 50 3f 3e 3b 41 ed 3c 80 ad 37 be c5 00 43 3c
       0.1868287 0.028961768 -0.17937279 0.011902039
000390 14 9c c2 be 73 51 17 bd 1d 7f 1c 3e d8 9e cd be
       -0.38009703 -0.03694291 0.15282865 -0.4016025
0003a0 6f 04 8a 3e bd 77 61 bd 16 0c 5f 3e 8a 11 09 bf
       0.26956508 -0.055045832 0.21781954 -0.5354239
0003b0 92 c3 35 3e 97 d9 05 3e 93 05 06 be 30 a3 81 bd
       0.17750385 0.13071285 -0.13088064 -0.06329954
0003c0 35 c6 c5 3d e7 32 42 3d ef 2f 86 bc 2a 7a 98 3d
       0.096569456 0.047411826 -0.016380278 0.07445176
0003d0 cc 6a 07 bd fe 35 34 3d b3 25 65 3d e6 ee 62 bd
       -0.033060834 0.043996803 0.055944156 -0.055403613
0003e0 26 c5 79 3e b4 41 44 3e d2 84 07 be 43 f6 78 3d
       0.24391612 0.19165689 -0.1323426 0.06078173
0003f0 3a 3e 07 3d 85 e1 05 be 9b 87 4f bd c9 9a 06 bd
       0.03301833 -0.1307431 -0.050666433 -0.03286246

layer1.bias f4 [64]
000000 c0 d4 7c be c9 0c 93 bd 21 97 88 bd 71 f5 39 be
       -0.24690533 -0.07180173 -0.066694506 -0.18160035
000010 f2 66 55 3e 3f 1e 34 be 14 a9 44 bd 54 9f 4b be
       0.20840052 -0.17589663 -0.048012808 -0.19884998
000020 2c a4 85 bb 18 1b 7f be ef 0a 3c be 47 3e 88 3e
       -0.0040784087 -0.24912679 -0.18363546 0.26610014
000030 c8 40 64 be 65 4c 82 3d 35 02 2f bc cf c8 75 be
       -0.22290337 0.06362227 -0.010681679 -0.24002384
000040 7f 4a dd 3d ab 68 90 3e a6 10 90 3e bb 3f 56 3e
       0.108052246 0.28204855 0.28137702 0.20922749
000050 ea d1 2f 3e 15 01 24 3e 2f 6f c3 3d 37 b5 0e 3e
       0.1716992 0.16016038 0.09542691 0.13936315
000060 6a 0b a1 3d fa 14 4b 3d 6b e0 cc 3c 8c 53 a9 bd
       0.07863505 0.04958055 0.025009355 -0.082678884
000070 d3 62 45 3d 12 7b 19 3e ef 77 25 3e f9 f6 ee 3d
       0.04818995 0.14988354 0.16159032 0.116682
000080 a0 c6 14 be 1a 22 8e be 47 d0 1b 3e e1 4a 4a 3e
       -0.14528894 -0.27760392 0.1521617 0.19755127
000090 3d 65 b5 3d 64 02 7f 3e c0 82 f1 3d 62 62 12 3e
       0.088572 0.24903256 0.11792517 0.14295343
0000a0 a6 e4 24 be e5 16 32 3d e4 20 18 3e 64 dd 4b 3e
       -0.16102847 0.043478865 0.14856297 0.19908673
0000b0 a9 ca 59 3e 81 0b 0f 3e 0e 31 8d 3e 5e fe 41 3c
       0.21268715 0.13969232 0.27576488 0.011840431
0000c0 1b e7 0d bd e2 27 40 be f3 48 5a 3e 43 6f 93 3d
       -0.034644227 -0.18765214 0.2131689 0.07198956
0000d0 35 fc 80 3e 0f a5 18 be 9a 66 ea bd 8c f6 c2 3d
       0.2519242 -0.14906715 -0.11445351 0.09519681
0000e0 cd c5 e5 bb 01 20 00 3e 4d 02 36 3c 37 af e7 bd
       -0.007012105 0.12512209 0.011108947 -0.113127165
0000f0 4d f2 4d be 7a ec 37 3d 4b ce 33 3e e7 15 68 be
       -0.20111962 0.044903256 0.17559163 -0.22664605

layer2.weight f4 [32, 64]
000000 e8 c7 96 bd cd f8 d6 bd eb d8 f0 3b 2d e9 83 3d
       -0.07362348 -0.10496674 0.0073500774 0.06440959
000010 b9 7f db bd 6e 6c d2 bd 85 d1 8d 3d 80 52 f1 3b
       -0.107177205 -0.102745876 0.06924728 0.007364571
000020 6a 7a 06 bd d4 e1 3e 3d b6 7c e3 3d bc 45 0f bb
       -0.032831587 0.046602085 0.11107771 -0.0021861633
000030 2e 0d f0 3d c3 fa cf bd 91 f0 0b be 11 1c 1b 3d
       0.11721264 -0.10155251 -0.13665988 0.037868563
000040 f1 bd b7 bd fa 6f 82 3d 6b ec 2e bc ef d3 cb bc
       -0.08971775 0.06369014 -0.010676484 -0.024881331
000050 23 b9 96 3d d9 68 c1 bd 38 75 b9 3d a1 5a 6a 3d
       0.07359531 -0.09443826 0.09055561 0.057215337
000060 97 e6 f3 bd e2 6a af bb 49 2c cd bd 8a 73 2e 3c
       -0.11909216 -0.0053533176 -0.10018212 0.010647664
000070 52 3d 9b bd da 76 93 bd 56 4f 21 bc 04 d6 02 be
       -0.07580055 -0.072004035 -0.009845575 -0.12776953
000080 b7 3b 14 be 98 55 58 3d 46 be 03 be 71 dd bc bd
       -0.14475904 0.052816004 -0.12865552 -0.09221924
000090 b4 3d 16 be f3 88 12 be 1b e2 da bd 69 95 99 bd
       -0.14671975 -0.14310054 -0.106876574 -0.07499201
0000a0 f8 2a de bc 59 73 a4 3d b0 54 e7 bd 75 3a a8 bd
       -0.027120098 0.08029813 -0.1129545 -0.08214275
0000b0 ed f3 20 bd e3 52 c0 bc 1a c1 86 3d a1 de 4e 3d
       -0.039295126 -0.023477023 0.065798 0.050505284
0000c0 56 06 b9 bd f8 f6 cf bd 99 bc 69 bd fc 3e 71 3d
       -0.090344116 -0.101545274 -0.057064626 0.058897957
0000d0 14 75 7e 3c 0f 92 a1 bd 81 fc 02 3d e9 cb 45 bd
       0.015530843 -0.078891866 0.031979088 -0.048290167
0000e0 15 83 3a bd 1e 78 73 3d f3 45 97 bd 03 c5 2c 3d
       -0.045535166 0.059440725 -0.07386389 0.042180073
0000f0 00 4b 97 3a d5 50 d8 bd 9f 8a cd bc bb 7d 9a 3d
       0.0011542737 -0.105622925 -0.025090514 0.075435124
000100 80 ea 2d 3b e4 ac cc bd 52 96 43 3d db 37 5f 3c
       0.0026537478 -0.09993914 0.04775078 0.013624157
000110 bd 27 00 bd f0 a0 b1 3d 78 02 81 bd 4b 9c 0c 3e
       -0.031287897 0.086732745 -0.06299299 0.13731496
000120 e0 17 25 3d 58 68 f3 bc fd 70 6e bd 61 9c eb 3c
       0.040305972 -0.02971284 -0.058213223 0.02876109
000130 18 1f e2 3d 59 c4 a3 3b 51 c6 d0 3d 7b f5 17 3e
       0.11041087 0.0049977717 0.10194076 0.14839737
000140 15 fd 92 3d 4d a1 5c 3d c3 62 31 3f 1d ce b9 3c
       0.07177178 0.053864766 0.69291323 0.02268129
000150 31 ce 04 3e 93 ab 8e 3d 17 7a d1 bc 32 89 04 bc
       0.12969281 0.06966319 -0.025570912 -0.008089351
000160 bb 61 bd bc b2 98 b2 3d 1d ec 8c 3d df fe 21 3d
       -0.02311789 0.087205306 0.068809725 0.039549705
000170 b4 27 17 3e 43 fd 57 bd 20 ad 4f 3c d0 15 32 bd
       0.1476124 -0.052731764 0.012675554 -0.043477833
000180 40 cf 37 3e 99 ef 32 bd b8 5a f3 3c f9 60 ff 3d
       0.17950153 -0.04368553 0.029706344 0.12469668
000190 fa 3c 91 bc f5 25 02 3e 70 4a 0b 3f 08 33 db bc
       -0.017729271 0.12709792 0.5441046 -0.026757732
0001a0 a1 33 63 3e be 68 73 3d 20 c9 dd bd 79 f8 d9 3d
       0.22187664 0.05942606 -0.10829377 0.106430955
0001b0 c7 cc d8 bc aa 1e 16 3d a5 75 b9 bd e7 52 ec bc
       -0.026464833 0.036650337 -0.09055642 -0.028848125
0001c0 47 1b 58 3d 90 fd 80 bd f8 2c 8e bc 19 a9 14 3e
       0.05276039 -0.06298363 -0.017355427 0.1451763
0001d0 70 8e ba 3d cd 59 b9 3d 3e dd 1e bd ae bf e6 bc
       0.09109199 0.09050331 -0.03878521 -0.028167572
0001e0 cf 26 5e bd df f6 08 3e df 97 c5 be 2e fb ae 3e
       -0.05423623 0.13375424 -0.3859243 0.3417601
0001f0 d8 ff ec bd 46 91 98 be 94 ce 4f 3d 5f e4 06 3d
       -0.11572236 -0.29798335 0.050734118 0.032932635
000200 e0 92 a6 bd f5 d7 91 3e b0 f1 2a bc 2f e9 aa bd
       -0.08133483 0.28485075 -0.010433599 -0.083452575
000210 26 a4 47 bd 56 49 93 bd e3 49 90 bd df fc b0 bc
       -0.04874053 -0.07191722 -0.07045343 -0.021604953
000220 7e c5 b0 bd 60 aa bd bb 3e d8 49 3d c5 b5 ce bb
       -0.08631419 -0.0057881325 0.04927849 -0.0063082897
000230 e2 d4 f8 3d 07 77 b4 3c 78 32 01 bc 99 e3 84 bb
       0.12149979 0.022029413 -0.007885568 -0.004055452
000240 5a 99 88 3d f3 7d 96 bd b4 7c 3b bf 9c 15 11 3d
       0.066698745 -0.07348242 -0.73237157 0.035421
000250 d6 c5 82 3d 4a ba b6 bd 27 9d 8c bb 8c ee 9a 3b
       0.063853905 -0.089222506 -0.004291195 0.004728144
000260 3c 27 1e bd 7e 5b 31 3c b7 3a 9d bd d9 91 b0 3d
       -0.038611636 0.010825036 -0.076772146 0.08621568
000270 d9 6c f3 bd d3 c7 2e 3d 35 b8 59 bd 14 41 1d be
       -0.118859954 0.042671036 -0.05315419 -0.15356857
000280 f8 83 89 3d 03 65 92 bd b6 da 61 3c 02 06 bb bd
       0.06714624 -0.07148173 0.013785055 -0.09132005
000290 ab e3 50 bd 39 18 1e 3d 3b c7 4f 3d eb b1 c0 3d
       -0.05099837 0.03859732 0.05072711 0.09408935
0002a0 ea 4b b8 3b be 43 03 be 2b bf 1d 3d f9 4e 2e bd
       0.005624284 -0.1281881 0.03851239 -0.042555783
0002b0 b1 57 2b bd 90 31 ac 3d c9 5a 6a 3b ea fe 30 bd
       -0.041831676 0.08407891 0.0035759679 -0.043211855
0002c0 0c dd af 3d 74 9e 4c 3d 35 13 0b bd 21 be af bd
       0.08587083 0.0499558 -0.033953864 -0.08581186
0002d0 d4 57 28 bd 72 48 53 3d 69 59 0e be 74 88 78 bd
       -0.041099384 0.05158276 -0.13901295 -0.060677007
0002e0 a8 30 42 3d 9c c6 1a bb 4b a7 49 be 44 6d 5b be
       0.047409683 -0.0023616916 -0.19692723 -0.214284
0002f0 38 3d fb bc 0e b2 98 3d 3b 48 0f bd 48 e4 3c 3d
       -0.03066884 0.07455836 -0.034980994 0.046116143
000300 24 78 b0 bd dd b5 c7 bd c5 78 44 be e7 9d 3a bd
       -0.08616665 -0.097514845 -0.19186695 -0.045560744
000310 40 86 16 bd 06 33 b1 3d 3c c0 be bd 9c 06 77 bd
       -0.036749125 0.0865231 -0.093140095 -0.060309038
000320 5a fd 0f 3e 34 80 60 bd 80 a4 79 bc 2e 9e 85 bd
       0.1406149 -0.054809764 -0.015236974 -0.06524311
000330 7c 80 41 bd ea a2 01 3b dd a5 07 3e c1 6c 55 3e
       -0.047241673 0.0019780942 0.13246866 0.20842268
000340 ab 4b 1d bd 24 cb 08 3c 01 8d 19 3f a1 a1 17 3e
       -0.03840224 0.008349214 0.5998078 0.1480775
000350 6d 01 98 bd 15 b7 c8 3d 18 d3 1c 3e a6 77 0e 3e
       -0.07422147 0.09800545 0.15314901 0.1391283
000360 8f 1b a4 bd e4 4b 30 3b f5 c1 1a 3d 54 28 f3 3d
       -0.08013069 0.0026900703 0.037782628 0.11872926
000370 f2 57 3c 3d 01 0a e0 3d 5b b3 19 3e 03 51 22 3b
       0.04598231 0.10939408 0.15009825 0.0024767525
000380 4c ee 04 3d 88 92 c7 bc cc 6e 14 3e 61 20 2a bd
       0.03245382 -0.024361864 0.1449539 -0.041534785
000390 90 b7 45 bb a5 2d 09 3e 40 12 a5 3e 33 33 63 bd
       -0.0030169226 0.13396318 0.32240486 -0.05546875
0003a0 9e 99 af 3e 51 1b 2e 3d 7d ba 8d bd 65 73 e3 bc
       0.34296888 0.04250652 -0.069203354 -0.027764985
0003b0 61 61 ae 3d e4 e8 06 bd 6b 71 c5 3d 91 e8 d1 bc
       0.08514667 -0.032936946 0.096407734 -0.025623592
0003c0 c0 78 12 3e 40 59 6c 3b d7 5e 03 3e 65 63 bb 3d
       0.14303875 0.003606394 0.12829147 0.091498174
0003d0 26 0b e8 3c ba 50 06 be 61 ae ec 3d e6 4d 1e 3e
       0.028325628 -0.13116732 0.11556698 0.15459403
0003e0 f2 a3 61 bd 5b 46 e5 bb 22 fd cd be 9a ec a2 3e
       -0.05508799 -0.0069969124 -0.40232188 0.31821138
0003f0 b8 bd 88 bc 17 15 85 be f6 18 21 3e 30 56 8d 3c
       -0.016692027 -0.25992653 0.15732178 0.017253011

layer2.bias f4 [32]
000000 04 67 8f 3d b3 6d 04 3e 97 5c b3 3d 37 d7 f3 bc
       0.070020705 0.12932472 0.087578945 -0.029765708
000010 e0 27 7f 3d 33 b0 05 3d c2 36 1a 3e c7 7f d2 bd
       0.062293887 0.03263874 0.15059951 -0.10278278
000020 a0 8a 76 bd d3 c3 af 3d e9 e6 50 bd d0 47 e5 bd
       -0.060190797 0.085822724 -0.051001463 -0.11195338
000030 57 90 38 3c c6 20 c3 bb e1 6e 6f 3c f8 78 a9 bd
       0.011264882 -0.0059548346 0.014613838 -0.08275026
000040 5d 3d a5 bd 50 5b 17 bb f1 16 11 3e 43 35 11 3d
       -0.08068345 -0.0023095198 0.14168908 0.035451185
000050 8a 5f f5 bd 38 c5 a4 3d 92 7b ed bc c3 9c f1 3d
       -0.11981113 0.08045429 -0.028989587 0.11797478
000060 58 f0 ca 3d 0b d4 c3 bb 32 d2 ba bd c2 64 1e 3d
       0.09909123 -0.005976205 -0.09122123 0.03867031
000070 9d ea 2e bc 6d 77 03 3e f2 26 20 bd e1 d2 ce 3a
       -0.010676053 0.12838526 -0.03909964 0.00157794

layer3.weight f4 [1, 32]
000000 79 0b d6 bc 7b 69 98 3d 6a ef cc bc 2d b2 68 3e
       -0.026128517 0.07441994 -0.025016505 0.22724219
000010 ab fa 53 bc 4d e3 b7 bd e4 b6 9a 3d 5c 9b 7d bd
       -0.012938182 -0.08978901 0.07554415 -0.06191574
000020 00 24 01 bb 3f 78 96 bc 29 4d 46 3e 52 62 ce 3d
       -0.0019705296 -0.018367885 0.19365372 0.10077347
000030 05 f8 0a be 7d 39 0a be 91 94 ea bd 78 31 50 3d
       -0.13571174 -0.13498493 -0.11454118 0.050828427
000040 f2 f6 a6 be 5c 3c 66 3e 33 e3 3f 3e b3 7f 10 be
       -0.3261028 0.22483963 0.18739013 -0.14111213
000050 7a 5e 04 be 7d d8 8f be 74 73 ad 3d 2a 61 0b 3e
       -0.12926665 -0.28094855 0.084692866 0.13611284
000060 d0 66 33 3e 6f 8e 09 be 69 f1 3e bd 76 80 36 3e
       0.17519689 -0.1343324 -0.046616945 0.17822441
000070 21 88 7c 3d 21 7e 53 3d 06 ef 5f bd 8f 12 a4 3d
       0.06165326 0.051633958 -0.05467131 0.08011352
