mat_model/model_name_CAE/cap_model.pth (torch, 15196 bytes, 5 tensors)

layer1.weight f4 [64, 15]
00000000: eaaf 263c 7cda 2c3b da0a 953e 35ba 593e
00000010: 7d54 7dbd f15d 00be 6f3f 963c 1506 16bd
00000020: 7d96 a93c 8b49 7fbd c172 5c3a e7c1 0cbe
00000030: c5f1 b2bd ccce cebd 1c7f 533e 025b 29bd
00000040: c3d1 b33d 3dde 843c 804f 69bd 6689 98bd
00000050: 5a00 543d 2937 f63b 3fed fa3c 2e92 12bd
00000060: d43e 963e 7fd7 1f3d 1123 43be 07cf c2bd
00000070: 5fbf 0bbe 7753 71bd c258 f2bd d713 59be
00000080: 2323 6c3e 9673 1e3e b9e1 873d f124 4ebc
00000090: dc22 8a3e c0f4 043d 3911 4d3e 48eb 863d
000000a0: 276c b5bd 26be ff3d 768a 62bd 0db4 84bd
000000b0: 9994 fa3d 81e6 9abd 800f 4dbd 1acb 44be
000000c0: 2671 5e3e c2dc 153e adb4 783e 4e88 8abe
000000d0: 24ae 0fbe a406 813e b5a0 d6bc b44c 993d
000000e0: 0450 aebc 9580 febd 3cf4 15be cd64 bcbd
000000f0: 5a58 2fbe 0959 99be 7580 b73d c8f7 02be
00000100: 66b5 4c3d 4672 4dbe 5afb 05bd a897 01be
00000110: 9a69 b0bc 9126 4fbd 64d6 963e f0e5 f8bd
00000120: eb5f de3c cdcf 9f3c 6f0c 073e 8247 88bc
00000130: 37d5 53bc d6a6 0dbe 320c 493d 76e2 a43d
00000140: 13dc 3b3e 5f89 9d3e 6f06 31be f091 f03d
00000150: 3508 f33c d01b 933e 10e5 63be cd7f 11be
00000160: 1877 223c 345f 223e 7413 07bf 6a8b 1cbf
00000170: 52a7 db3c d2fe da3b 1491 1dbf 815e 6b3e
00000180: f3be ca3e a7df 8cbd 820a cc3d b2eb 30be
00000190: f56f 673e d231 87be 2790 3dbe b230 c2bd
000001a0: b83f 78be 31df 563c e035 cd3d 909d 7d3e
000001b0: 23e6 38be 6476 30be 0598 37be fb6d 623e
000001c0: 458f 2d3e 57aa b8bc 472c 85be dad1 6a3c
000001d0: 7e74 0b3e 24e4 1f3e 14e8 bd3d 284e 43bd
000001e0: 3c59 2b3e 4d18 723d 4d64 e83d 75ae 4ebd
000001f0: d2a7 6b3e 6191 1b3e e138 d13d c8f5 803e
00000200: a046 3fbe 9593 313e 33d8 873e 1850 2fbe
00000210: 2bbd ccbd 55ce dabd 610e fcbd 90b3 7cbd
00000220: ec14 8a3d fcb2 6abd 1627 cfbd cc31 2abe
00000230: cc99 12bd 31e3 31be d0b0 733e 14ff b4bd
00000240: c854 41be 34d3 4b3e 804a 533b dc44 8bbd
00000250: 901b 553d f0d8 5a3d 19e0 993d 36ed 693d
00000260: ac44 563e b5c1 94bc 32e8 353d e689 4f3e
00000270: ec3e 15bd 6384 5dbe 7b58 363e 4626 6f3e
00000280: 288e e33d a544 ec3b 89cd dcbc 83ce 143e
00000290: 7fdf bd3b 558a c6bd c895 00ba a939 95bd
000002a0: 1823 403e 9e21 283e 7663 0e3e 2ac6 7e3e
000002b0: 5b7c e03d cc5d 193e d8cd 9f3e 629b f03d
000002c0: db21 9dbc 95bf 373e b6b8 a1bd 98c4 14be
000002d0: 1782 9ebd f6f0 8c3e 7418 cbbb 2d7d 673e
000002e0: 5ea3 903e 53df c63d 16f2 8fbe 96ef 883e
000002f0: 3e58 2bbd 97bd a5bd d016 343e 7c9f 81bc
00000300: 942c 1bbe 2788 b03c d852 093c 8284 213d
00000310: 13de 38be 4bbb 43be ed0b 4d3d de63 8ebd
00000320: fcb5 253e 5ee3 b33d bbed 373c 2b94 fb3d
00000330: 11fa b7bd 85be 123e 7f15 703e a2ab 773e
00000340: 046c 0d3d 4360 24be 73e1 1a3e a344 67bd
00000350: 31b9 bcbd f0cd 5f3e 26b3 8dbd d3c9 1b3d
00000360: 3910 b3bd 2780 cd3c a8dc 3abe bed3 213e
00000370: afaa eb3c d3e6 63bd eaa0 87be 8abd edbc
00000380: 22c6 003e 103f 293e 8567 fbbd a989 1f3e
00000390: bbab 013e 7de3 4bbd c3b1 19bd 5238 723e
000003a0: 824f f83d 0667 1ebd 7ca3 263e 376f 403d
000003b0: ab5f e8bd 9428 9e3d 03e2 1bbe c524 46be
000003c0: e8c1 803e ceca 9f3e e5e8 923e 431a 643d
000003d0: 0597 3d3e 08b5 6dbd a7ee e83d 4245 a1be
000003e0: 2be0 94bd 542f 0d3e f07c 0ebf 3945 0cbd
000003f0: a2d8 bb3d 58bb e13d 50e3 07bf 5978 d43d
0.010173777 0.0026375344 0.29109842 0.21262439 -0.061848152 -0.12535836 0.018340794 -0.036626894
0.020701641 -0.062325995 0.00084094336 -0.13745843 -0.0873752 -0.10098037 0.20653957 -0.041346557
0.08780243 0.016219253 -0.056960583 -0.07448082 0.051758148 0.0075139 0.030630706 -0.03578394
0.2934481 0.039023872 -0.19056346 -0.095121436 -0.13647221 -0.05891749 -0.118333355 -0.21198975
0.23060279 0.1547378 0.0663485 -0.01258205 0.2697972 0.032459974 0.20026101 0.06587845
-0.08858519 0.1248744 -0.055307828 -0.064796545 0.12235374 -0.075634964 -0.05006361 -0.19218102
0.2172285 0.14634994 0.24287672 -0.27057117 -0.14031273 0.2520038 -0.026199678 0.07485333
-0.021278389 -0.12426869 -0.1464395 -0.09198914 -0.17123547 -0.2995074 0.08960048 -0.12789834
0.049977683 -0.20063123 -0.03271041 -0.12655509 -0.02153473 -0.05057389 0.29460442 -0.12153232
0.027145347 0.019508267 0.13188337 -0.01663566 -0.012929252 -0.13833174 0.049083896 0.080510065
0.1834567 0.30768868 -0.1728761 0.11746585 0.029667 0.28732157 -0.22255349 -0.14208908
0.0099160895 0.1585663 -0.5276406 -0.6115023 0.026813183 0.006683209 -0.61549497 0.22985269
0.39598808 -0.06878596 0.09962942 -0.1727741 0.22601302 -0.26405197 -0.18512021 -0.09481944
-0.24243057 0.013114736 0.100200415 0.24767137 -0.1805654 -0.17232662 -0.17929085 0.22112267
0.16949184 -0.022542162 -0.26010343 0.014332259 0.13618657 0.15614372 0.09272781 -0.047681957
0.16733259 0.059105206 0.11347256 -0.050459344 0.23013237 0.15192176 0.10215927 0.25187516
-0.18679285 0.17341454 0.26532134 -0.17120397 -0.099970184 -0.10683886 -0.1230743 -0.06169468
0.06742272 -0.0572996 -0.10114877 -0.16620559 -0.035791203 -0.17371823 0.23797917 -0.08837715
-0.18879998 0.19904786 0.003224045 -0.06800243 0.05202824 0.053429544 0.07513446 0.057110988
0.20924634 -0.018158773 0.04441089 0.20267448 -0.03643696 -0.21632533 0.1780719 0.23354444
0.111110985 0.0072103315 -0.026953476 0.14531903 0.005794465 -0.096943535 -0.00049051316 -0.072863884
0.18763387 0.16419074 0.13905129 0.24880281 0.10961219 0.14977187 0.31211734 0.11748387
-0.019181183 0.17944176 -0.07896559 -0.1452812 -0.077396564 0.2752759 -0.0061979834 0.22606345
0.2824964 0.097105645 -0.28114384 0.2674529 -0.0418322 -0.08092802 0.17586827 -0.015823118
-0.15153724 0.021549297 0.008381568 0.03943301 -0.18053465 -0.19114415 0.0500602 -0.06952642
0.16182703 0.08783601 0.011226113 0.1228412 -0.08983243 0.1433049 0.234457 0.24186566
0.03452684 -0.16052346 0.15125065 -0.05646194 -0.0921501 0.21855903 -0.069189355 0.03803427
-0.087433286 0.025085522 -0.18248236 0.1580343 0.028767912 -0.055640053 -0.26489955 -0.029021043
0.12575582 0.16527963 -0.12275604 0.15579857 0.12663166 -0.049777497 -0.037523042 0.23654297
0.1212454 -0.03867247 0.16273302 0.046981063 -0.11346372 0.077225834 -0.15222935 -0.19349964
0.2514794 0.31209415 0.2869331 0.055689108 0.1851464 -0.058033973 0.11373644 -0.31498152
-0.07269319 0.13787585 -0.5565939 -0.034245703 0.09172179 0.11022061 -0.53081226 0.10374517

layer1.bias f4 [64]
00000000: 3292 0e3e a239 113e f88a 973d 3fdf 0a3e
00000010: c383 7f3e e9c4 6b3e 52f6 36bb 4bbe 0dbe
00000020: 9464 f53d b080 09be 8bf8 d93d 388e 2abe
00000030: a5c2 603d a8dd 093d d8bd 053d 9ac4 523c
00000040: a367 1abe ebd8 0a3e 06e1 0a3e d02e 263e
00000050: 4bd6 3e3e 5bec 803e 0481 28be 1695 9d3c
00000060: 743c 52be 126a 26be 0a13 8c3d 8bf5 79be
00000070: 35b7 c7bd e8c6 77be 3d40 d8bd 7d87 5bbd
00000080: 2b26 4c3e a9e9 b7bd 11ae 7dbe 4c8a 99be
00000090: c75a 17be 2531 78bd 6a98 ef3d 316c ae3d
000000a0: 12a5 353e 445d 32bb f414 1fbe ab8c 0f3e
000000b0: c994 6f3e f933 ca3c 335c 923d 777c 09be
000000c0: 04a2 023e c37a 2f3e 8992 c63d d3cd 283e
000000d0: 2173 51be 9df3 ff3c 2188 09be 284b bb3d
000000e0: 9f71 23bd fa52 f83d 246e 19be 2eec 533d
000000f0: 7843 0f3d 8a6b ac3d 4598 1c3d 3c26 413d
0.13922957 0.14182141 0.07399553 0.13561724 0.24952607 0.23024334 -0.0027917814 -0.13842122
0.119820744 -0.13427997 0.10643109 -0.16655815 0.054873127 0.033658653 0.032651752 0.012864256
-0.15078597 0.1355931 0.13562402 0.16228795 0.18636434 0.25180325 -0.16455466 0.019236129
-0.20530874 -0.162514 0.06839569 -0.24410073 -0.09751741 -0.2419697 -0.105591275 -0.05359601
0.19936435 -0.08980114 -0.24773432 -0.29988325 -0.14780723 -0.060593743 0.116989926 0.085167296
0.1773875 -0.0027216235 -0.15535337 0.14018504 0.23396601 0.024682986 0.07146492 -0.13426386
0.12757117 0.17136674 0.09695918 0.16484766 -0.20454074 0.031244094 -0.13430835 0.09145194
-0.03990328 0.121252015 -0.14983422 0.05173891 0.034976453 0.08418949 0.038231153 0.047155604

layer2.weight f4 [32, 64]
00000000: cf2c 05be 9482 3ebc 6788 d3bd fc84 b8bd
00000010: 6892 a4bd 40f2 823c e49b ecbd 993d c83d
00000020: 1fd9 fbbd 006c 23bb 006a c7bd b05f 26bc
00000030: 3b85 403c ca06 db3d 1c2f 00be 1bcd d43d
00000040: e009 bebc 6156 8f3d 452d b73d a6ae 97bc
00000050: eee4 42bd 4672 973d 98fe 663d 80fd debd
00000060: 0035 e73c e42c 523d 679d fabd 30d8 b8bd
00000070: 25da 7dbd b8f4 60bd 7b01 093b 0cd6 cb3d
00000080: 29d8 09be c2ae 8fbd d0f7 b53d c01d a53b
00000090: c67e 8abd f864 8cbd 0027 213b 9d93 0ebe
000000a0: 1594 0dbe 0979 a1bd 84a2 08bd 0ce5 f6bd
000000b0: 4960 363c ee2b e43c 01a5 babd 654d dd3d
000000c0: 14d2 45bd bc45 ebbd 9c88 073b fcde 9cbd
000000d0: a0be b23d fac8 56bd 4694 d3bd fd17 32bd
000000e0: 3f7f 72bd cced 63bd 4636 afbd d0a1 f83c
000000f0: 2e84 ab3d c104 a7bd b231 a5bd ec1a 253c
00000100: 8b1b ca3d 14b3 163e 0d47 0d3d fab9 223c
00000110: 170a 0ebd 7c50 bd3d 4d84 d2bd b3b8 2ebd
00000120: 9805 43bd d04b ee3c bc6e 1c3e e1c0 b03d
00000130: 8e07 1e3e 41a6 36bd 360b 44bd c45e 0b3e
00000140: 5952 8abb 5f71 71bd 2035 21b5 2826 153e
00000150: f880 173e 5ddf 183e 4c62 46bd ca8a ad3d
00000160: 706b d13d 4f1d 533d 83d6 653e c6ec 91bd
00000170: 20cb 9abc 0470 163d d170 e4ba 6e77 93bd
00000180: de3b 5b3d 8b58 aebd b266 66be ea7c 82be
00000190: c1b3 f93d a426 d43d b0af 80bd 55f6 153e
000001a0: 3c2d a1bd 395e 073e 9e22 e9bd db92 ed3d
000001b0: 2d90 64bd ad18 883d 1957 233e da06 eabc
000001c0: 81f9 803b cf3f 5d3d 341c 07be 0193 b53d
000001d0: 0455 a6bd c93d debc bc76 f3bc c5cc b83d
000001e0: e4f9 e3bb d368 5cbc ce35 fe3d 6346 153d
000001f0: 74f5 ab3d 698e 3e3d 8e11 f53d 768b 5f3d
00000200: a43c e5bd 2648 0ebe bff4 143d 0cb0 893d
00000210: d07b 8f3d e9fb e5bd 8969 0abe 6e5c 653d
00000220: 4397 f9bd 5070 553d 34e9 ac3d 6f0b 11be
00000230: b219 863c e604 ea3d bdf3 2a3d c9f1 aab9
00000240: 8545 8f3d eb32 883d ad9f 0cbc f37a 7f3c
00000250: f69d 9a3d 38ac a6bd b03d 73bd 8c5a 9abd
00000260: 1b0e 953c 0abe 453d a68c a4bc 1d27 873d
00000270: 3ca7 513c 27fb a4bd 223b 34bd cdfa 84bd
00000280: 7d7c 513d 36b7 3ebd 066d 64bd 32d5 df3d
00000290: bead be3c c6a5 bc3c e6e7 9ebd 6c3b 1fbd
000002a0: 41cd aabd e9d9 cabd a0de 283d 1299 07be
000002b0: f965 a43d c494 bebd 0b1b e63b 0dd9 253d
000002c0: 9129 dcbc 3544 11be 36a1 dcbc 46a3 593d
000002d0: 00f0 26b9 f875 b83d 61d9 1dbd fa97 043c
000002e0: 1288 b2bc 4599 8dbd f219 c03d f01c b63b
000002f0: 1a96 333d 4390 29bc 0825 75bd 34a5 7e3d
00000300: 3d59 553d 03e0 9b3d dbd7 67bd 9861 453d
00000310: 8acb e23d 35f8 ccbb b89a 58bd e06a 50bc
00000320: 6313 c93c f822 cbbd de21 bfbd 6086 c5bc
00000330: 7329 5b3d d696 bc3d 16f7 193d bb7e a2bd
00000340: 6001 143d f95c 4fbc bece 86bd 9522 a83c
00000350: cebd 00bd 61bf 4ebd b231 a93d fe72 953d
00000360: 6c38 533d 9d65 b5bd 7852 21bd f8b1 1f3d
00000370: d4d2 19bd 1e8a fc3d 02d1 03be 74f0 823d
00000380: 8ccd a53d 9a2b e83d 28a6 39bd 52eb dbbd
00000390: faf0 0d3c 110f adbc a889 40bd 0793 b5bd
000003a0: 464d f2bc 38aa e53d dce5 773d 0c97 2d3d
000003b0: 541b 983d fa15 bbbd c018 59bc 7cea bd3a
000003c0: a8d8 c3bd 12f5 efbd 0878 49bd 1c66 8ebd
000003d0: 8091 7e3b b690 4f3d fd30 19bc ad8f 203c
000003e0: dda6 c33b fae3 dbbc 9404 343d 0502 3c3d
000003f0: 3807 c53d 8069 a8bd b299 f4bc d2ec 983d
-0.13005374 -0.011627812 -0.10328751 -0.0900974 -0.08035737 0.015984654 -0.11553171 0.09777374
-0.12297272 -0.00249362 -0.09737015 -0.01015465 0.011750515 0.10694654 -0.12517971 0.10390683
-0.023198068 0.06998897 0.08944181 -0.018515896 -0.047581606 0.07394843 0.056395143 -0.10888195
0.028223515 0.051312342 -0.12237053 -0.090256095 -0.061975617 -0.054920882 0.0020905423 0.099529356
-0.13461365 -0.07015754 0.08885157 0.005038947 -0.06762461 -0.06855196 0.0024589896 -0.13923497
-0.1382602 -0.07884414 -0.033358112 -0.12055406 0.011131355 0.027852979 -0.09113503 0.108057775
-0.04829605 -0.1148791 0.002068079 -0.076597184 0.08727765 -0.05243776 -0.10331015 -0.04347991
-0.059203383 -0.055646703 -0.08555274 0.030350596 0.08374821 -0.081552036 -0.08066119 0.010077219
0.09868535 0.1471675 0.034491587 0.009932036 -0.03467759 0.09243867 -0.102791406 -0.04265661
-0.047612756 0.029088885 0.15276617 0.08630539 0.1543257 -0.044592146 -0.047862254 0.13610369
-0.0042212424 -0.05894601 -6.005448e-07 0.14565337 0.14795291 0.14928956 -0.048433587 0.084737375
0.1022557 0.051541623 0.22445111 -0.07125239 -0.018895686 0.03672792 -0.0017428641 -0.07200514
0.05352389 -0.08512982 -0.22500113 -0.25485927 0.121924885 0.103589326 -0.0628351 0.1464475
-0.07869956 0.13219537 -0.11383556 0.11600276 -0.05580156 0.066453315 0.15951194 -0.02856772
0.003935993 0.05401593 -0.13194352 0.088659294 -0.08121684 -0.02712907 -0.029719703 0.09023432
-0.0069572795 -0.013452726 0.12412606 0.03644408 0.08396426 0.04652253 0.11966239 0.05457636
-0.11193207 -0.1389471 0.03636622 0.067230314 0.07006037 -0.11229689 -0.13516821 0.05599635
-0.12187054 0.052109063 0.084429175 -0.14164518 0.016369674 0.114267156 0.041736353 -0.0003260507
0.06995682 0.06650337 -0.008582992 0.015593278 0.0754966 -0.08138317 -0.059385 -0.07536802
0.018195203 0.04827694 -0.020086598 0.06599257 0.012796219 -0.08055716 -0.044001706 -0.06493149
0.051144112 -0.046561442 -0.055768035 0.10929336 0.023276206 0.023028266 -0.07759075 -0.03887503
-0.0833993 -0.09904844 0.041227937 -0.13241985 0.08027262 -0.093057185 0.0070222667 0.0404902
-0.02687529 -0.14186175 -0.02693234 0.053134225 -0.000159204 0.09006876 -0.038537387 0.008092875
-0.021793399 -0.069139995 0.09379949 0.005557649 0.04384432 -0.010349336 -0.05984977 0.06216927
0.052087057 0.07611086 -0.05660234 0.048188776 0.11073978 -0.0062551745 -0.052881926 -0.0127207935
0.024545377 -0.09918779 -0.093326315 -0.024111927 0.053506326 0.09208457 0.037589155 -0.07934328
0.036134124 -0.012656444 -0.06582402 0.020524302 -0.03143101 -0.050475482 0.08261432 0.07297324
0.05156748 -0.08857272 -0.03938529 0.038988084 -0.037554577 0.12331031 -0.12872699 0.06393519
0.080958456 0.11336441 -0.045324475 -0.10738243 0.00866341 -0.021125348 -0.04700628 -0.08865934
-0.029577862 0.11214107 0.060521945 0.042380378 0.074270874 -0.09135051 -0.01325053 0.0014489437
-0.09562808 -0.11716665 -0.049186736 -0.069530696 0.003884405 0.050675116 -0.009350059 0.00979988
0.0059708194 -0.026842106 0.04394968 0.045900363 0.096205175 -0.082232475 -0.029858444 0.07467045

layer2.bias f4 [32]
00000000: 291c 5e3d b958 8abd 6546 a23d 3703 95bc
00000010: 3d0d fa3d 2c0a 6e3d 7dc5 c13c 854b 26be
00000020: 3c00 b93a d0ee 8e3c e7c2 a83d 5a0e fdbd
00000030: 2017 f0bd 2931 9c3d cce9 843c 62f0 40bd
00000040: 7f98 7a3c 22da dfbd 5535 953d 0b81 f33b
00000050: 5095 00bd 82d7 8c3c fc3d 24bd fdef fdbc
00000060: 4816 1ebd d2bf 613d 8426 20bd 590f aebd
00000070: 1062 e33c fd10 b03c e47a 9abc b912 753d
0.054226074 -0.06755204 0.07923583 -0.01819001 0.12209556 0.05811517 0.02365374 -0.16239746
0.001411445 0.017447859 0.082403 -0.12356253 -0.11723161 0.07626564 0.016224764 -0.047104247
0.015295147 -0.109302774 0.07285563 0.0074311546 -0.031392395 0.017192606 -0.040098175 -0.030998224
-0.038595468 0.055114575 -0.03909923 -0.08499021 0.02775672 0.021492476 -0.018857427 0.05983231

layer3.weight f4 [1, 32]
00000000: 6e4e e7bd c68a 573e 7cc6 8fbd cc69 aabd
00000010: 9064 0b3e b1fc efbd 28ed 493e ac17 3ebf
00000020: 9697 543e ea7f efbc 52f3 8ebd 151f 63bd
00000030: a96f 9fbd 3f97 103e a5bf 323e fb9b fbbd
00000040: 03da f0ba 0015 d1ba 1800 cabd 0bc5 f1bd
00000050: ffd5 c8bc f068 3a3e ef0a 30bf 625e ffbd
00000060: 3eb2 81bd 1443 583e 28f4 8c3c 2fe3 debc
00000070: 50dd 513d cde4 8cbd 833b 0ebf d9b7 4b3e
-0.11294256 0.21049032 -0.0702028 -0.083209604 0.1361258 -0.11718119 0.19719374 -0.7425487
0.2076095 -0.029235799 -0.069800034 -0.055449564 -0.07784969 0.14120196 0.17455919 -0.1228561
-0.001837552 -0.0015951693 -0.09863299 -0.11805161 -0.024516104 0.18204093 -0.68766683 -0.12469174
-0.06332825 0.21119338 0.017206267 -0.027207939 0.05123645 -0.06879578 -0.5555956 0.19894351
