mat_model/model_name_CAE/density_model.pth (torch, 15236 bytes, 5 tensors)

layer1.weight f4 [64, 15]
0.14783625 0.14018366 -0.15301625 0.23251522 0.18552868 -0.20815691 -0.016695108 -0.07271764
0.002893102 0.011803283 0.0140384855 0.08261588 0.13846555 0.25512457 0.113316454 -0.18832174
-0.06800217 -0.10979318 -0.09365553 0.22056942 0.12737365 -0.069811314 0.25257394 -0.026761694
-0.061191883 0.0012981968 0.063028455 -0.19757022 0.22216195 0.15550323 0.049486443 0.2936816
0.16257046 -0.08655368 -0.07180488 -0.102521576 0.27828467 -0.13837798 0.094947904 0.4882597
0.109107114 -0.045461804 0.19931367 0.0583246 -0.121417604 -0.16092625 0.3650664 -0.08981689
-0.18409188 -0.05580757 0.025838077 -0.08286842 -0.29464665 -0.09069533 0.23410581 0.33975592
-0.17041671 -0.16663766 -0.11841333 -0.4190345 -0.2040923 -0.29594436 -0.02373999 -0.10271579
-0.18393555 -0.17690353 -0.048690073 0.07284623 -0.13665074 -0.13394223 -0.2520815 0.24071239
0.22574596 0.19564576 0.45807242 0.19921848 0.059140988 -0.18020147 -0.05864639 -0.27963883
-0.003129465 -0.02431504 -0.051462818 -0.18216744 -0.14158575 -0.18807131 -0.19856006 0.06969828
0.18893978 -0.1007375 0.1494835 0.34212846 -0.26543766 0.1652251 -0.3189671 -0.23973724
-0.10080064 0.0027249595 -0.4223903 -0.17209086 -0.20546934 -0.14492968 -0.046813045 -0.20166959
0.07137018 -0.23530746 -0.12211398 0.22070003 0.1707483 0.2049851 -0.12131881 -0.23988584
-0.033411168 0.03192678 0.11208946 -0.08681448 0.14959015 0.03837108 -0.17593569 -0.026536373
-0.23462209 0.15873803 -0.20548463 0.12012314 -0.04511482 -0.3407883 -0.047402382 0.05345604
-0.13184637 0.180177 0.2370797 -0.043839924 -0.031652186 0.09045971 0.12634794 -0.24718823
0.14816582 0.00792542 -0.06815124 -0.214918 -0.038638882 0.07100175 0.13976051 -0.24758856
-0.10301961 -0.05844781 0.1709798 -0.01394524 -0.08214972 -0.019231046 -0.19222951 -0.03444855
0.021012932 -0.16148926 -0.25719267 0.168679 -0.10923296 0.20742339 0.03332597 -0.13654432
0.06320977 0.001917839 0.04662341 0.021025807 -0.15518026 -0.24609129 0.10616337 -0.23518594
-0.08338344 0.012697963 -0.12773563 -0.23520625 0.080365084 -0.16507356 0.047882557 0.10885116
0.15567495 0.16528243 -0.07404915 0.0859911 0.26189458 0.114044994 -0.08982812 0.003874058
-0.10168455 -0.107344486 -0.11717311 0.076064646 -0.072917506 -0.15082751 -0.0064623267 0.13099268
0.25854838 0.20885797 0.09908623 -0.0060792537 -0.10555344 -0.031632848 0.060055967 -0.074824736
0.06003773 -0.28775093 0.077431865 -0.24149285 0.18206434 0.15394458 -0.24333744 -0.22402625
-0.04286817 0.048438665 0.23974392 -0.09892518 0.029219108 0.026420118 -0.11567455 -0.02736092
0.046745684 0.16044661 0.1197667 -0.06108083 0.16034187 -0.002024007 -0.092562854 0.14641473
-0.020620653 0.07156191 -0.07094753 0.09424519 0.089269765 -0.065326795 0.030386481 0.20571779
-0.0017570267 -0.2056212 0.1407176 -0.22515938 -0.1447418 0.14736961 0.2712692 -0.023643166
0.24104582 -0.11769457 0.1260945 0.066793405 0.27473643 0.15563948 -0.13492927 0.08793188
0.20530294 -0.033232857 0.18441962 0.26163316 -0.07878 -0.15727502 -0.17399779 0.16140462
00000000: 6362 173e 4e8c 0f3e 4bb0 1cbe 7818 6e3e
00000010: 3bfb 3d3e 1627 55be 2ec4 88bc fcec 94bd
00000020: 329a 3d3b 8f62 413c ad01 663c 8432 a93d
00000030: eac9 0d3e b09f 823e 7512 e83d 6ad7 40be
00000040: b944 8bbd 3fdb e0bd 78ce bfbd f3dc 613e
00000050: 3d6e 023e 3cf9 8ebd 5f51 813e 573b dbbc
00000060: 57a4 7abd 4228 aa3a 1015 813d d94f 4abe
00000070: 6c7e 633e 3d3c 1f3e 4cb2 4a3d 6f5d 963e
00000080: df78 263e 0e43 b1bd 700e 93bd d5f6 d1bd
00000090: 547b 8e3e f5b2 0dbe 0c74 c23d 2dfd f93e
000000a0: 8d73 df3d 2836 3abd e218 4c3e c7e5 6e3d
000000b0: cba9 f8bd dac9 24be fce9 ba3e ebf1 b7bd
000000c0: 9582 3cbe 7b96 64bd 60aa d33c ebb6 a9bd
000000d0: eddb 96be 79be b9bd 6fb9 6f3e 7df4 ad3e
000000e0: b881 2ebe 10a3 2abe b082 f2bd b18b d6be
000000f0: 92fd 50be 0586 97be 5e7a c2bc a85c d2bd
00000100: 9a59 3cbe 3326 35be 3e6f 47bd 6730 953d
00000110: 2cee 0bbe 2728 09be d410 81be 4f7d 763e
00000120: f329 673e 5d57 483e 7888 ea3e eeff 4b3e
00000130: d23d 723d bc86 38be 3237 70bd d22c 8fbe
00000140: b617 4dbb 5630 c7bc adca 52bd 1a8a 3abe
00000150: dbfb 10be c495 40be 5453 4bbe f9bd 8e3d
00000160: 6e79 413e 764f cebd 3412 193e 762b af3e
00000170: 72e7 87be c530 293e a84f a3be ae7d 75be
00000180: 9170 cebd 3c95 323b 8b43 d8be 9638 30be
00000190: 8e66 52be 7268 14be 09bf 3fbd 7982 4ebe
000001a0: 872a 923d 70f4 70be e516 fabd 30ff 613e
000001b0: a4d8 2e3e 9de7 513e ff75 f8bd a2a4 75be
000001c0: 26da 08bd a8c5 023d 298f e53d cacb b1bd
000001d0: 292e 193e fe2a 1d3d 7c28 34be cf62 d9bc
000001e0: c640 70be 398c 223e 906a 52be 1f03 f63d
000001f0: 51ca 38bd ce7b aebe 0029 42bd b8f4 5a3d
00000200: bc02 07be 5280 383e 05c5 723e 7e91 33bd
00000210: b9a5 01bd f142 b93d 5b61 013e e91e 7dbe
00000220: c8b8 173e 9fd9 013c e192 8bbd 7713 5cbe
00000230: ce43 1ebd 5e69 913d 611d 0f3e db87 7dbe
00000240: f2fb d2bd f966 6fbd 5415 2f3e 937a 64bc
00000250: 1d3e a8bd 6d8a 9dbc d0d7 44be ec19 0dbd
00000260: 5023 ac3c 715d 25be c2ae 83be 30ba 2c3e
00000270: 88b5 dfbd cc66 543e d080 083d 46d2 0bbe
00000280: 2074 813d 0060 fb3a 30f8 3e3d 503e ac3c
00000290: 93e7 1ebe 5bff 7bbe 2e6c d93d 95d4 70be
000002a0: f0c4 aabd 1e0b 503c 21cd 02be e8d9 70be
000002b0: 7396 a43d 0b09 29be 8020 443d 5bed de3d
000002c0: 4169 1f3e cc3f 293e 15a7 97bd 1a1c b03d
000002d0: 0c17 863e 6c90 e93d cef7 b7bd e8e3 7d3b
000002e0: fd3f d0bd 6dd7 dbbd 75f8 efbd c8c7 9b3d
000002f0: c655 95bd 8772 1abe edc1 d3bb f222 063e
00000300: 7460 843e ddde 553e b9ed ca3d 7a34 c7bb
00000310: 672c d8bd 7291 01bd 3ffd 753d b63d 99bd
00000320: 1fea 753d 1754 93be 9994 9e3d e749 77be
00000330: 136f 3a3e a6a3 1d3e 732d 79be 2367 65be
00000340: 8996 2fbd 9f67 463d 6e7f 753e 4999 cabd
00000350: e95c ef3c 016f d83c c7e6 ecbd 0224 e0bc
00000360: 6778 3f3d 1e4c 243e 3e48 f53d e42f 7abd
00000370: a930 243e 34a5 04bb 9891 bdbd beed 153e
00000380: a5ec a8bc 0d8f 923d f04c 91bd 9f03 c13d
00000390: 11d3 b63d 0eca 85bd 12ed f83c afa7 523e
000003a0: 084c e6ba 5d8e 52be 4618 103e 2e90 66be
000003b0: 3237 14be 0fe8 163e cce3 8a3e 50af c1bc
000003c0: b7d4 763e da09 f1bd eb1e 013e fbca 883d
000003d0: 41aa 8c3e f55f 1f3e e62a 0abe a115 b43d
000003e0: ef3a 523e 2d1f 08bd 7fd8 3c3e c8f4 853e
000003f0: 6957 a1bd b40c 21be 7a2c 32be 4147 253e

layer1.bias f4 [64]
-0.09314657 -0.144727 -0.17872433 0.10056739 0.1814127 0.22916506 0.022651799 0.2639454
0.16300218 0.1376907 -0.13778707 0.09723106 0.052579273 0.2379006 0.17936724 0.060301527
0.23386593 -0.17096125 0.20475732 0.21957177 -0.121946864 -0.15220328 -0.09531653 0.20082982
-0.1548364 0.21018115 0.030032964 -0.2172885 0.024099104 -0.052673653 0.028991181 0.15735713
-0.15712464 -0.17885168 0.20445688 0.17402783 -0.11001107 -0.049085032 -0.04326066 -0.09555798
0.06527238 0.19811478 -0.004419979 0.22332263 -0.001962514 -0.0928723 0.061067306 -0.14732406
-0.18975507 -0.19763905 -0.20288612 0.22473772 0.07510685 -0.020869326 0.2928652 -0.09807893
-0.16123234 0.06397479 -0.053628042 0.11278652 -0.2505943 0.065759264 -0.15492417 0.26328498
00000000: a1c3 bebd 5133 14be 8303 37be 47f6 cd3d
00000010: 40c4 393e 3faa 6a3e 4490 b93c da23 873e
00000020: 0bea 263e cafe 0c3e 0e18 0dbe 1421 c73d
00000030: 5d5d 573d 379c 733e 0cac 373e bcfe 763d
00000040: 8d7a 6f3e 7710 2fbe e7ab 513e 6cd7 603e
00000050: 47bf f9bd 2ddb 1bbe 5035 c3bd 55a6 4d3e
00000060: 6f8d 1ebe ba39 573e b107 f63c e080 5ebe
00000070: 7c6b c53c 54c0 57bd ea7e ed3c 3a22 213e
00000080: 48e5 20be e524 37be 255d 513e 5a34 323e
00000090: 7c4d e1bd 630d 49bd 1732 31bd e7b3 c3bd
000000a0: 87ad 853d 9ade 4a3e 79d5 90bb b0ae 643e
000000b0: 859d 00bb d533 bebd b621 7a3d 1edc 16be
000000c0: 274f 42be e461 4abe 61c1 4fbe a521 663e
000000d0: 9fd1 993d 26f6 aabc 6df2 953e 9bdd c8bd
000000e0: 171a 25be 3705 833d 14a9 5bbd 9efc e63d
000000f0: e54d 80be cbac 863d 71a4 1ebe 4acd 863e

layer2.weight f4 [32, 64]
0.06776302 0.032931805 0.048546113 -0.012889785 -0.0603292 0.0095278 -0.03976417 -0.059559617
0.08938805 0.03865622 -0.062188208 0.04907589 -0.03566226 0.003302836 -0.041607715 -0.10444257
-0.14306338 -0.025397336 0.0582314 -0.09555918 0.06266637 0.120612204 -0.10197739 -0.105076306
0.08968082 0.021680767 0.013111832 -0.05591665 -0.06990469 -0.0014909704 0.011730438 -0.12674578
-0.04440617 0.02775625 -0.09426933 0.081650816 -0.018259397 -0.075799085 -0.10150468 -0.047784477
-0.007921345 0.045188487 0.093029775 0.09923158 -0.11700212 0.06697388 -0.12362093 -0.038046323
0.06417397 -0.055054784 0.10827455 0.075405255 0.007926787 0.059169266 -0.08049518 -0.062459353
-0.09476375 -0.0070387484 0.092324674 -0.03245305 0.082726255 -0.09522145 0.058405355 0.087001935
-0.032001097 -0.03136171 -0.4675942 0.037944 0.031235144 0.13191088 0.35641673 0.031880558
0.05525068 0.1329491 -0.04151453 0.14102535 -0.004939987 0.01797032 -0.061126057 0.04220652
-0.0076351985 -0.038513754 -0.08377177 -0.07000459 0.0885152 0.025591284 0.07669044 0.14162508
-0.041075803 0.020050138 -0.14308125 0.0957189 0.2824297 -0.0513731 -0.042105976 0.08030312
0.13100657 -0.07755417 0.066664234 -0.01586042 -0.4061779 0.26287717 0.106729925 0.08884544
-0.15917133 0.014928775 0.15814659 -0.0448719 -0.010453606 0.013247171 0.16577496 0.070176326
-0.0070663095 0.117533654 0.0077105016 -0.07986978 0.007374706 -0.012331349 0.14811768 -0.097673155
-0.10199755 0.1618968 0.08939597 0.0915496 -0.0395128 0.06996204 0.117248595 0.10901104
-0.054057855 -0.06363025 0.029340096 -0.132948 0.0587658 0.025070231 -0.13277006 -0.08361508
-0.036939207 0.0024325408 0.036229715 -0.08988741 -0.10027697 -0.08939899 0.022228481 -0.11845907
-0.04818016 0.0010318211 0.07231338 0.06773287 0.043033864 0.10953608 0.033196505 0.07265785
0.022699155 -0.11087951 0.09159757 -0.07562848 -0.037421547 0.11092365 0.015032746 -0.05575447
0.06467064 0.0010984926 -0.044812344 0.042637795 -0.03262506 -0.049682446 0.03627846 0.077464394
-0.10586402 0.0425483 -0.08487869 -0.024520323 -0.09939953 -0.0577398 0.06402284 0.08102284
0.04409273 0.07904261 -0.112110436 -0.06770948 -0.087022744 -0.05741225 0.099429704 -0.10402452
0.08154043 -0.04482013 0.04935559 0.018382154 0.106653616 -0.0947831 -0.122755155 -0.07356244
0.037465326 -0.04779689 -0.27195778 0.21370023 0.055229865 0.02497357 0.24098392 -0.038339276
0.1264673 0.05876623 -0.10228571 0.07297969 0.123477995 0.010534152 0.10916933 0.05748282
-0.058133088 0.07587007 0.08914117 -0.100591965 -0.008349102 -0.05861877 0.02844293 0.014211814
-0.06260126 0.003767117 -0.010997108 -0.052180856 0.09017875 -0.12244994 -0.08876114 0.13078934
0.116174765 -0.16354169 0.053537074 0.141499 -0.22317354 -0.057235986 -0.05416688 0.050190993
-0.05564985 -0.014167121 -0.016379302 0.07986025 -0.09007765 0.13682207 0.2676148 -0.22719572
-0.116864875 0.05207239 0.013124093 -0.013913573 0.058348797 -0.15033904 0.06209405 -0.07638667
-0.14021885 0.06799201 -0.053995032 0.008791988 0.07975027 0.015422927 -0.041683525 0.06997165
00000000: 57c7 8a3d 80e3 063d 4ad8 463d ad2f 53bc
00000010: c01b 77bd 7d1a 1c3c c1df 22bd c9f4 73bd
00000020: 1511 b73d fc55 1e3d 10b9 7ebd cd03 493d
00000030: 9712 12bd 6574 583b da6c 2abd fce5 d5bd
00000040: 357f 12be 130e d0bc 0c84 6e3d 88b4 c3bd
00000050: 3a57 803d 8803 f73d 86d9 d0bd 3f32 d7bd
00000060: 94aa b73d dd9b b13c 02d3 563c db08 65bd
00000070: 312a 8fbd aa6c c3ba 0631 403c a5c9 01be
00000080: 3ee3 35bd 1361 e33c 4710 c1bd 8b38 a73d
00000090: bb94 95bc 8d3c 9bbd b0e1 cfbd a8b9 43bd
000000a0: 87c8 01bc 9017 393d 6586 be3d ed39 cb3d
000000b0: cf9e efbd 9a29 893d f82c fdbd 76d6 1bbd
000000c0: a46d 833d 2081 61bd 0cbf dd3d 126e 9a3d
000000d0: 5bdf 013c 795b 723d a8da a4bd 61d5 7fbd
000000e0: 7f13 c2bd 4da5 e6bb b814 bd3d 7ded 04bd
000000f0: 626c a93d 7703 c3bd 743a 6f3d 122e b23d
00000100: 9513 03bd 2375 00bd 8268 efbe 2b6b 1b3d
00000110: d8e0 ff3c a513 073e 417c b63e 3095 023d
00000120: 894e 623d cf23 083e 240b 2abd f368 103e
00000130: 9ddf a1bb 7e36 933c 515f 7abd bee0 2c3d
00000140: b030 fabb 99c0 1dbd 8990 abbd 915e 8fbd
00000150: 7547 b53d d0a4 d13c e10f 9d3d 2a06 113e
00000160: 1a3f 28bd 3040 a43c e483 12be 4508 c43d
00000170: a09a 903e 9a6c 52bd 5177 2cbd f675 a43d
00000180: 9626 063e b8d4 9ebd 4287 883d b6ed 81bc
00000190: 8df6 cfbe d697 863e 3895 da3d 99f4 b53d
000001a0: cffd 22be d297 743c 2ef1 213e 99cb 37bd
000001b0: 9a45 2bbc aa0a 593c e9c0 293e 9bb8 8f3d
000001c0: 808c e7bb 7cb5 f03d 60a8 fc3b c492 a3bd
000001d0: 85a7 f13b 6d09 4abc 29ac 173e dd08 c8bd
000001e0: 17e4 d0bd 46c8 253e 3c15 b73d 5b7e bb3d
000001f0: 2cd8 21bd 4248 8f3d 0820 f03d 2e41 df3d
00000200: c56b 5dbd 9450 82bd a45a f03c 8523 08be
00000210: 68b4 703d 1660 cd3c e0f4 07be 623e abbd
00000220: 914d 17bd 436b 1f3b 9c65 143d e416 b8bd
00000230: 035e cdbd d116 b7bd 8118 b63c ab9a f2bd
00000240: 8f58 45bd 2c3e 873a 0a19 943d 88b7 8a3d
00000250: 4744 303d 7454 e03d 0ff9 073d a4cd 943d
00000260: 94f3 b93c cc14 e3bd 8297 bb3d 1be3 9abd
00000270: 5647 19bd f02b e33d e84b 763c cd5e 64bd
00000280: 0a72 843d 4cfb 8f3a 268d 37bd f8a4 2e3d
00000290: dba1 05bd d27f 4bbd b998 143d a7a5 9e3d
000002a0: 3ccf d8bd 2047 2e3d e1d4 adbd d8de c8bc
000002b0: fb91 cbbd 9280 6cbd 681e 833d 4eef a53d
000002c0: 949a 343d 18e1 a13d 289a e5bd 45ab 8abd
000002d0: fb38 b2bd 1c29 6bbd cda1 cb3d cf0a d5bd
000002e0: abfe a63d 5095 37bd 1629 4a3d 2c96 963c
000002f0: 366d da3d a41d c2bd 0e67 fbbd e8a7 96bd
00000300: 3e75 193d acc6 43bd 0d3e 8bbe 3cd4 5a3e
00000310: b638 623d 5f95 cc3c 7dc4 763e a509 1dbd
00000320: a580 013e dcb4 703d 2c7b d1bd 6076 953d
00000330: 08e2 fc3d 7097 2c3c 2b94 df3d 1b73 6b3d
00000340: f61c 6ebd c461 9b3d a58f b63d 2903 cebd
00000350: acca 08bc 3c1a 70bd 2601 e93c abd8 683c
00000360: 1735 80bd bce1 763b 372d 34bc 98bb 55bd
00000370: a3af b83d 09c7 fabd 67c8 b5bd a4ed 053e
00000380: 09ed ed3d 7977 27be b149 5b3d 1de5 103e
00000390: 9b87 64be 4870 6abd 17de 5dbd 1295 4d3d
000003a0: 19f1 63bd 361d 68bc e32d 86bc c58d a33d
000003b0: a27a b8bd 161b 0c3e cf04 893e ffa5 68be
000003c0: da56 efbd dc49 553d 7006 573c c1f5 63bc
000003d0: 26ff 6e3d 7af2 19be 5556 7e3d 9d70 9cbd
000003e0: 8895 0fbe 653f 8b3d e529 5dbd 450c 103c
000003f0: 1c54 a33d 72b0 7c3c 58bc 2abd 4c4d 8f3d

layer2.bias f4 [32]
-0.08424047 0.036422823 0.029057946 0.053433876 -0.06194955 -0.057488777 -0.09445776 0.040764097
0.040328324 -0.05064152 0.023751263 0.037711687 0.07016375 0.0016262026 -0.03503476 -0.027209975
-0.030466925 -0.011651167 0.0125112645 -0.037451763 0.08076078 -0.02568208 -0.03960732 -0.08891583
0.07819848 -0.004384988 0.098786294 -0.08311321 -0.074209474 0.05694962 0.021923808 -0.10791596
00000000: 4486 acbd 1930 153d ee0a ee3c 7bdd 5a3d
00000010: d0be 7dbd 5a79 6bbd 1273 c1bd 41f8 263d
00000020: 502f 253d 7c6d 4fbd 0292 c23c 9277 1a3d
00000030: 03b2 8f3d 4e26 d53a 9c80 0fbd 74e7 debc
00000040: c695 f9bc 89e4 3ebc 0cfc 4c3c 0567 19bd
00000050: e865 a53d 3a63 d2bc 493b 22bd 8119 b6bd
00000060: 8626 a03d f2af 8fbb 7850 ca3d 4237 aabd
00000070: 23fb 97bd 0144 693d 8f99 b33c 0b03 ddbd

layer3.weight f4 [1, 32]
-0.08841383 0.16693242 0.0033917709 0.081764415 -0.040171023 -0.022348471 -0.12065125 -0.31519657
0.09356524 0.032789767 0.06556166 0.1925578 0.019126382 0.09203171 -0.050759472 -0.015505881
-0.06995705 0.13364944 -0.15997303 0.13481547 0.017715806 0.18783025 0.15272142 -0.050751697
0.12570693 -0.30683252 0.44821173 0.094184116 0.04993184 0.060209043 -0.04790979 -0.10327948
00000000: 4f12 b5bd 55f0 2a3e 7948 5e3b 1a74 a73d
00000010: 5f8a 24bd 2414 b7bc 0118 f7bd 7261 a1be
00000020: 229f bf3d 904e 063d 3145 863d df2d 453e
00000030: eeae 9c3c 1f7b bc3d 2ae9 4fbd 610c 7ebc
00000040: a445 8fbd 66db 083e f8cf 23be 110d 0a3e
00000050: bd20 913c 9356 403e 0163 1c3e 03e1 4fbd
00000060: 51b9 003e 2719 9dbe 027c e53e 9ae3 c03d
00000070: 5485 4c3d c29d 763d 0e3d 44bd 3184 d3bd
