mat_model/model_name_CAE/iziritsu_model.pth (torch, 15246 bytes, 5 tensors)

layer1.weight f4 [64, 15]
0	0x3e25be62	0.16185907
1	0xbe8b7e29	-0.2724469
2	0x3e3fa95d	0.1871695
3	0x3e0c3b3f	0.13694476
4	0x3d816f94	0.0632011
5	0x3e113208	0.14179242
6	0xbd301013	-0.04298408
7	0xbd0a1a53	-0.03371651
8	0xbb65f2cb	-0.0035087343
9	0xbe1725c5	-0.14760502
10	0x3e062d8f	0.13103317
11	0xbe2ceb1a	-0.16886559
12	0x3e218450	0.1577313
13	0xbd0307b2	-0.03198976
14	0x3e199a5f	0.15000294
15	0x3c50b4b4	0.0127383955
16	0xbde1c988	-0.11024767
17	0x3d952b12	0.07283606
18	0x3e4879a8	0.19577658
19	0x3deeecb7	0.116662435
20	0x3d33c4b0	0.043888748
21	0x3e93737e	0.2879905
22	0x3e968588	0.2939875
23	0x3d39977a	0.045310475
24	0x3e524f92	0.20538166
25	0x3db58974	0.08864108
26	0x3e31221d	0.1729817
27	0xbd3155cb	-0.04329471
28	0x3e5c6541	0.21523
29	0xbde18088	-0.110108435
30	0xbe54e0b7	-0.20788847
31	0x3dafbde3	0.0858114
32	0xbdd0e167	-0.10199242
33	0x3e806db4	0.25083697
34	0x3e39d54c	0.18147773
35	0x3e507805	0.20358284
36	0xbdd82133	-0.10553207
37	0xbe2b1d66	-0.16710433
38	0xbdcfc56d	-0.10145078
39	0xbde318aa	-0.11088689
40	0xbe2fd20a	-0.17169967
41	0x3e2a2931	0.16617276
42	0xbe83fcee	-0.25778908
43	0xbe7f4461	-0.24928428
44	0x3e46bcf8	0.19408023
45	0xbdb11fe3	-0.0864866
46	0x3d8e07e9	0.069351025
47	0xbd044f3c	-0.032302126
48	0x3e91157a	0.28336698
49	0x3e5827b9	0.21108903
50	0x3d4ff1d4	0.050767735
51	0xbe1cf65a	-0.1532835
52	0x3dbd7ce7	0.09252339
53	0xbd7f3428	-0.0623056
54	0x3da89dd0	0.08233225
55	0x3e4f6434	0.20253068
56	0xbe1e46bb	-0.15456669
57	0x3e0b5826	0.13607845
58	0x3e0e6904	0.13907248
59	0x3e5944e8	0.21217692
60	0xbd5666a3	-0.052343976
61	0xbe55e14e	-0.20886728
62	0xbdc0b3f8	-0.09409326
63	0x3e5f34e6	0.21797523
64	0x3e1e5618	0.1546253
65	0x3e2339bc	0.15939993
66	0xbc461c10	-0.012091652
67	0xbe788264	-0.2426849
68	0x3da49b99	0.080374904
69	0xbdcbfd5c	-0.09960434
70	0x3d1322c4	0.035921827
71	0xbe62b3f0	-0.22138953
72	0xbd8e518e	-0.06949149
73	0x3da263f8	0.07929224
74	0xbc974f40	-0.018470407
75	0x3e66a304	0.22523123
76	0xbe8628fe	-0.2620315
77	0x3b9214f1	0.004458063
78	0x3e0ef765	0.13961561
79	0x3babdbf1	0.005244725
80	0xbe100697	-0.14065014
81	0xbe71fbcb	-0.23631208
82	0xbdfdbb94	-0.12389293
83	0xbbad8648	-0.0052955486
84	0x3d3263e5	0.043552298
85	0x3da56dc1	0.080775745
86	0x3e408f09	0.18804564
87	0xbe29b66c	-0.16573495
88	0x3df58090	0.11987412
89	0xbd905540	-0.0704751
90	0x3e494344	0.19654566
91	0x3e7254ba	0.23665133
92	0x3e603ccc	0.21898192
93	0xbdcf2e4a	-0.10116251
94	0x3c0e5da7	0.008689321
95	0x3e54bbde	0.2077479
96	0xbe00a011	-0.1256106
97	0xbe4826d0	-0.19546056
98	0x3df18d22	0.11794497
99	0x3da20858	0.07911748
100	0x3dbfd5b4	0.093669325
101	0xbe515e1f	-0.2044606
102	0x3d88031a	0.066412166
103	0x3e4fd03f	0.20294283
104	0x3df923f1	0.121650584
105	0x3e8eb46f	0.27872035
106	0x3e06e88e	0.1317465
107	0xbbfc0205	-0.0076906704
108	0xbdcf8581	-0.10132886
109	0x3e9edc75	0.3102757
110	0x3d4d437e	0.050113194
111	0x3e12f679	0.14351834
112	0x3e8c03b8	0.27346587
113	0xbd5740f8	-0.052552193
114	0xbe300043	-0.171876
115	0xbd6beba6	-0.05759778
116	0x3ca7cc40	0.020483136
117	0x3bbee94f	0.0058261524
118	0x3cdb8a88	0.026799455
119	0x3d170b07	0.03687575
120	0x3e4ecbec	0.20194978
121	0xbf120172	-0.57033455
122	0xbe5974d3	-0.21235971
123	0x3ea83973	0.3285633
124	0x3e91407e	0.28369516
125	0x3db02944	0.08601621
126	0x3eaf8cc0	0.3428707
127	0xbda43436	-0.08017771
128	0x3d97db6a	0.07414897
129	0x3da3ef42	0.08004619
130	0x3d99151b	0.07474729
131	0xbdaaebf3	-0.08345785
132	0x3d3762dd	0.044772018
133	0xbe08ccfb	-0.13359444
134	0xbe3f95aa	-0.18709436
135	0xbe75071f	-0.23928498
136	0xbe550443	-0.20802407
137	0x3e6053f6	0.21907029
138	0xbe2e6fb5	-0.170348
139	0xbd9426d0	-0.072339654
140	0xbd85fb26	-0.065420434
141	0xbe8a60b2	-0.27026898
142	0xbe6efc2b	-0.23338382
143	0x3baa8ede	0.0052050194
144	0xbce92a59	-0.028462576
145	0x3e1093d4	0.14118892
146	0x3e229ca8	0.15880072
147	0x3d0c4f05	0.034255046
148	0x3e29e6bb	0.16591923
149	0x3e20801e	0.15673873
150	0xbdc8ad9f	-0.097987406
151	0x3dc97e42	0.09838535
152	0x3e1609e4	0.1465221
153	0x3e39cb96	0.18144068
154	0x3e33f9d3	0.17575769
155	0xbd7ccfb3	-0.061721515
156	0xbdbf7f7c	-0.093504876
157	0xbd7d82de	-0.061892383
158	0x3d7508d2	0.059822865
159	0xbde64e20	-0.1124537
160	0x3dfd69f2	0.12373723
161	0x3dec0434	0.11524239
162	0xbe8a62f8	-0.27028632
163	0xbd294aaa	-0.04133097
164	0xbe77194e	-0.24130747
165	0xbe37efb4	-0.17962533
166	0x3db2f6c2	0.087384716
167	0xbd02c0fb	-0.03192232
168	0xbcd650eb	-0.026161632
169	0xbd90783e	-0.070541844
170	0xbdcf9b9c	-0.10137102
171	0x3e259a4d	0.16172142
172	0xbda0aa0b	-0.07844933
173	0xba59181f	-0.00082814874
174	0x3e6976fd	0.22799297
175	0x3dd574ae	0.104226455
176	0x3e49a209	0.19690718
177	0xbc57bdb7	-0.01316779
178	0x3c1a6de0	0.00942561
179	0xbcbc1986	-0.02296139
180	0xbe08a5c2	-0.13344482
181	0xbe848c4c	-0.25888288
182	0xbd16bda3	-0.036801945
183	0xbef15440	-0.4713459
184	0x3e5ea776	0.21743569
185	0x3df36f58	0.118864715
186	0x3dcd1446	0.100136325
187	0x3e693f9b	0.2277817
188	0xbe30df62	-0.17272714
189	0x3e11d14f	0.14240001
190	0xbe49082e	-0.19632027
191	0xbdc499ce	-0.095996484
192	0x3da1ef9b	0.07907029
193	0xbe002395	-0.12513573
194	0x3da85402	0.08219148
195	0xbe155a5f	-0.14585255
196	0x3db80768	0.08985788
197	0xbe6bfb82	-0.23045161
198	0xbe69a578	-0.22817028
199	0x3dc9b7a7	0.09849482
200	0xbe88379e	-0.26604933
201	0x3e56b8af	0.20968889
202	0x3ddf7808	0.10911566
203	0xbd8d2c7f	-0.068932526
204	0x3e5a2fb7	0.21307264
205	0xbc18f4c6	-0.009335702
206	0xbd8f70d5	-0.07003943
207	0xbdd1f5b9	-0.10251946
208	0xbddc0e5a	-0.10744925
209	0xbe68c9f9	-0.22733296
210	0x3e799d11	0.24376322
211	0x3cb62bad	0.022237623
212	0x3e6146ea	0.21999708
213	0x3dbe1f3a	0.092833
214	0xbd04cd68	-0.032422453
215	0x3da01c74	0.07817927
216	0x3e40c0a6	0.1882349
217	0x3dc016a7	0.093793206
218	0xbe30bcd9	-0.1725954
219	0xbde12caa	-0.10994847
220	0xbd04d646	-0.03243091
221	0x3d82a9ad	0.06380019
222	0xbe487ed3	-0.1957963
223	0xbb241880	-0.0025039017
224	0xbe75d432	-0.24006727
225	0x3db3ab95	0.08772961
226	0x3e3edbe8	0.18638575
227	0x3de653e4	0.112464696
228	0x3de0078a	0.10938938
229	0xbb9fe88a	-0.0048800157
230	0x3e121ec6	0.14269552
231	0x3e97bae9	0.2963479
232	0x3e3fe8d0	0.18741155
233	0xbd0c3637	-0.03423139
234	0xbd8a0fc5	-0.06741289
235	0xbea2e9af	-0.3181891
236	0x3d506f42	0.050887354
237	0x3dcd00fd	0.10009954
238	0xbda5d119	-0.08096523
239	0xbc5cedc4	-0.013484422
240	0xbdffc311	-0.12488378
241	0xbdd70ccb	-0.10500487
242	0x3e3e09a9	0.18558373
243	0xbe7a68d2	-0.24454048
244	0xbd8ef3dc	-0.06980106
245	0xbbd255c5	-0.006418916
246	0x3d877590	0.0661422
247	0x3e79acb6	0.2438229
248	0xbc96bd64	-0.018400855
249	0xbe44c0a5	-0.19214113
250	0xbda367d9	-0.07978792
251	0x3e842e41	0.2581654
252	0xbe59b5ff	-0.21260832
253	0x3c20b1b8	0.009807996
254	0x3e2022cd	0.15638275
255	0x3c6c5c68	0.014426328

layer1.bias f4 [64]
0	0x3df6347e	0.12021731
1	0x3e2f2c46	0.17106733
2	0x3e90ff05	0.28319564
3	0x3dcb7a03	0.09935381
4	0xbe4f75e6	-0.20259818
5	0xbe22c831	-0.1589668
6	0x3dd4e6c3	0.10395577
7	0x3e51258b	0.20424478
8	0xbe28558f	-0.16438888
9	0xbde5edd8	-0.11227006
10	0x3e47aa7c	0.19498628
11	0x3e4f752d	0.20259543
12	0xbe51d12a	-0.20489946
13	0xbc485020	-0.012226135
14	0xbe638f8d	-0.22222729
15	0x3e73b3e9	0.23799099
16	0x3de03d11	0.109491475
17	0xbe9f41a1	-0.31104758
18	0xbcedce07	-0.029028906
19	0x3dc440e9	0.09582693
20	0xbdaafcce	-0.08349
21	0xbd8b8578	-0.068125665
22	0x3d0bc6f2	0.034125276
23	0x3dfb9c9a	0.12285729
24	0xbe136420	-0.14393663
25	0xbdfc5913	-0.12321677
26	0x3e5e05a2	0.21681836
27	0xbe3ada7d	-0.18247409
28	0xbe014db8	-0.12627304
29	0xbd47d055	-0.048782665
30	0xbe83e1dc	-0.25758255
31	0x3e12cb04	0.14335257
32	0xbe815c46	-0.25265712
33	0x3e4bf50f	0.19917701
34	0x3c07d8ff	0.008291482
35	0x3e424200	0.1897049
36	0xbe764edd	-0.24053521
37	0x3e1bb7d5	0.15206845
38	0x3e0845bc	0.13307852
39	0xbe5be010	-0.21472192
40	0xbe37436d	-0.17896815
41	0x3e45df76	0.19323525
42	0xbdbd6c28	-0.09249145
43	0xbdcda8f1	-0.10041989
44	0xbdc23946	-0.0948358
45	0xbb758a37	-0.0037466416
46	0xbe07252a	-0.1319777
47	0xbdcb4b76	-0.099265024
48	0x3e492674	0.19643575
49	0x3e993e18	0.29930186
50	0x3e63f8b3	0.2226284
51	0xbd8c2eaf	-0.06844842
52	0xbe829cdc	-0.255103
53	0x3db74536	0.08948748
54	0xbe0d84b6	-0.13820156
55	0xbe68fe7c	-0.22753328
56	0xbccb7adb	-0.024838855
57	0xbde07d14	-0.10961357
58	0xbe5a834a	-0.21339145
59	0x3e8355c3	0.25651368
60	0x3e4e4e4e	0.20147058
61	0x3e59c9f3	0.21268444
62	0xbdcb4cd9	-0.09926767
63	0xbe818f77	-0.25304767

layer2.weight f4 [32, 64]
0	0xbdc8bb95	-0.098014034
1	0xbd6a903c	-0.05726646
2	0xbda9982c	-0.082809776
3	0xbcff76a6	-0.031184506
4	0xbdc4ade1	-0.09603477
5	0x3d974aff	0.07387351
6	0x3c8980f7	0.016785128
7	0xbd15820f	-0.036500987
8	0x3e1a0204	0.15039831
9	0x3d9336d7	0.07188194
10	0xbcd9b884	-0.026577242
11	0x3cfcd763	0.030864423
12	0xbc5abf0c	-0.013351213
13	0x3da7dca9	0.081963845
14	0x3d2e9cf6	0.04263016
15	0xbdc03090	-0.093842626
16	0x3d27bf81	0.040954117
17	0x3dc3d31f	0.095617525
18	0x3d82c2ca	0.06384809
19	0x3d9af4db	0.07566234
20	0x3d5186b6	0.05115386
21	0xbdd25e8c	-0.1027194
22	0xbe1dc3bb	-0.15406696
23	0xbd804c8d	-0.06264601
24	0x3db8e5c2	0.09028198
25	0x3c8d1e15	0.017226258
26	0xbe1201dc	-0.14258522
27	0xbcbda6a9	-0.023150759
28	0x3dfde9f6	0.1239814
29	0xbda2b4b1	-0.079446204
30	0x3ec31990	0.3810544
31	0xbc9f00b7	-0.01940952
32	0xbde00f0a	-0.109403685
33	0x3d9a7845	0.07542471
34	0xbdf252ae	-0.11832176
35	0x3daab693	0.083356045
36	0x3d2b72cc	0.041857526
37	0xbd0b6ac3	-0.034037363
38	0x3d17906d	0.03700297
39	0xbddc185f	-0.10746836
40	0xbdc45f0f	-0.095884435
41	0xbd9f4db0	-0.077784896
42	0xbdc86537	-0.0978493
43	0x3d53f0d4	0.051743343
44	0x3c5a9030	0.013340041
45	0xbd1d1816	-0.03835305
46	0xbccb4102	-0.024811272
47	0xbbac60f2	-0.00526058
48	0x3cf88b21	0.03033978
49	0x3d944846	0.072403476
50	0xbd3bb2c6	-0.04582479
51	0xbd3a6b18	-0.04551229
52	0xbdd67618	-0.10471743
53	0xbd029ba8	-0.031886727
54	0xbd3b3892	-0.045708247
55	0xbc979ee0	-0.018508375
56	0xbdcf41f9	-0.10120005
57	0xbd5f6f00	-0.054549217
58	0x3dc26916	0.094927
59	0xbdac9189	-0.08426196
60	0x3dac72b8	0.08420318
61	0x3cddb7b2	0.027065132
62	0x3e491f7e	0.1964092
63	0x3debcb14	0.115133435
64	0x3d4064e0	0.046971202
65	0x3e286c2d	0.16447516
66	0xbcd5df45	-0.02610744
67	0x3da31652	0.07963242
68	0xbd0df65d	-0.03465878
69	0xbd92ee77	-0.0717439
70	0x3d48c1e5	0.049013037
71	0xbc680de2	-0.014163466
72	0x3e449cfb	0.19200508
73	0xbd8baed9	-0.06820459
74	0x3dfedee1	0.124448545
75	0x3defd353	0.11710229
76	0x3d0f858d	0.035039473
77	0x3db99abd	0.09062717
78	0x3d4aef99	0.049544904
79	0x3e327697	0.17428051
80	0xbc0e5afa	-0.008688683
81	0xbec5e2b8	-0.38649535
82	0xbd091af0	-0.033472955
83	0x3daf6b5f	0.08565401
84	0xbccd18bb	-0.025036206
85	0x3cb3e1fa	0.02195834
86	0xbc98faed	-0.018674338
87	0x3d0ddd83	0.03463508
88	0xbd191900	-0.037377357
89	0xbc0ce369	-0.008599141
90	0x3bf721db	0.0075418777
91	0xbec08b5b	-0.3760632
92	0xbdc8ab4c	-0.09798297
93	0x3e0e1e78	0.1387881
94	0xbecbd36f	-0.3980975
95	0x3dddcfe3	0.10830667
96	0x3dd89e89	0.10577113
97	0xbb5a7fb2	-0.0033340272
98	0x3d9b21bb	0.07574793
99	0x3dc59199	0.09646911
100	0xbc80cb10	-0.015721828
101	0x3de6efb2	0.11276187
102	0xbcd1b7d6	-0.025600355
103	0x3dcf1c88	0.10112864
104	0x3d931c44	0.071831256
105	0x3ccc801d	0.024963433
106	0x3d364393	0.044498038
107	0x3d1b9303	0.037982
108	0x3d81b5b5	0.06333486
109	0x3cd70bd5	0.02625076
110	0x3cef9496	0.029245656
111	0xbc63f81c	-0.013914134
112	0x3b5fecd4	0.003416826
113	0x3dcd5628	0.100261986
114	0x3ddea0eb	0.108705364
115	0xbe33b624	-0.1754995
116	0x3df78777	0.12086385
117	0x3c0f8f5f	0.00876221
118	0x3d215dc2	0.039396055
119	0x3cc2f938	0.023800477
120	0xbd2915b2	-0.041280456
121	0x3c8b0202	0.01696873
122	0x3ddcb86a	0.10777362
123	0xbd2331ec	-0.03984253
124	0x3dbb949d	0.09159205
125	0x3ca1dba2	0.01975805
126	0xbeb4a79a	-0.3528412
127	0x3dc1c62c	0.094616264
128	0x3df806ef	0.121106975
129	0x3d550d03	0.052014362
130	0xbcd88110	-0.02642873
131	0x3df68bd3	0.12038388
132	0x3d5011a6	0.05079808
133	0x3d55e0fa	0.052216507
134	0x3e25b09a	0.1618065
135	0x3d42b841	0.047539
136	0x3e1b3346	0.15156278
137	0x3dd2eeb2	0.10299434
138	0x3df58490	0.11988175
139	0xbd08833a	-0.033328272
140	0xbd948fe1	-0.07254005
141	0xbd2e9775	-0.04262491
142	0x3cc8b4ff	0.024500368
143	0x3de5587b	0.11198517
144	0x3d273310	0.04082018
145	0xbe1015e2	-0.14070848
146	0x3e24397d	0.16037555
147	0x3b98466d	0.0046470673
148	0x3d7ed9f5	0.06221958
149	0xbd8f41eb	-0.06994995
150	0x3d682ba2	0.056682236
151	0x3d98fc2d	0.07469974
152	0x3df8af43	0.121428035
153	0xbc05e763	-0.008172843
154	0x3be1be8e	0.006889171
155	0xbe87433b	-0.2641848
156	0x3c52feb0	0.012878105
157	0x3dba21cd	0.09088478
158	0xbebbca3e	-0.36677736
159	0x3dbcce55	0.09219042
160	0x3dfc926b	0.123326145
161	0xbd25b4ba	-0.040455557
162	0xbd170520	-0.036870122
163	0xbc7791ba	-0.0151104275
164	0x3d2bf680	0.041983128
165	0x3dd6c916	0.10487573
166	0xbd9bd0f7	-0.07608216
167	0x3dc6196e	0.09672819
168	0xbdb619fd	-0.088916756
169	0xbc1d3e91	-0.0095974365
170	0xbbef72ec	-0.007307401
171	0xbda156bc	-0.078778714
172	0xbd094e0e	-0.033521704
173	0x3e3b57d2	0.1829522
174	0x3c3cb4c0	0.0115177035
175	0x3da755ca	0.0817066
176	0xbd4e5b28	-0.050379902
177	0x3e29ac93	0.16569738
178	0xbda9c1b9	-0.08288903
179	0xbdc1bf84	-0.09460357
180	0x3cc3e2b8	0.023911819
181	0x3dd60b8a	0.1045142
182	0xbdfee81e	-0.124466166
183	0xbdeef454	-0.11667696
184	0x3d7a9a6e	0.061182432
185	0x3e1921cf	0.14954303
186	0xbd344790	-0.04401356
187	0x3d63d9aa	0.055627503
188	0x3de03c83	0.10949042
189	0x3e22aa3f	0.15885256
190	0xbec5106b	-0.38489088
191	0x3d3622c0	0.044466734
192	0xbe688843	-0.2270823
193	0xbd314132	-0.043275066
194	0xbde30e8b	-0.11086758
195	0xbe40c08c	-0.18823451
196	0xbd112a44	-0.0354407
197	0xbeaa4d7f	-0.3326225
198	0xbe56c7d4	-0.20974666
199	0x3d1fa4cd	0.038975526
200	0x3d8dbd85	0.069209136
201	0xbe328c93	-0.17436437
202	0xbdf89a6c	-0.12138829
203	0x3d553332	0.052050777
204	0x3e66adae	0.22527191
205	0x3ea886c8	0.3291533
206	0xbcb30738	-0.021854028
207	0xbd9884ab	-0.074471794
208	0x3f71ec39	0.9450107
209	0xbdcd9d0d	-0.10039721
210	0xbb5e7986	-0.0033946945
211	0xba844617	-0.0010091689
212	0x3ef5e76a	0.48028117
213	0x3e023abe	0.12717721
214	0xbe92dba4	-0.28683197
215	0x3e19ee63	0.15032344
216	0xbd9c08ca	-0.07618864
217	0x3ef33d12	0.4750753
218	0xbe0d789d	-0.13815542
219	0x3f8decfb	1.1087946
220	0xbd24c678	-0.040228337
221	0xbe8610c1	-0.26184657
222	0x3ee08580	0.43851852
223	0x3d9dbe71	0.077023394
224	0x3c096aa8	0.008387245
225	0x3e0d5339	0.13801278
226	0xbef5a7eb	-0.47979674
227	0xbebe1322	-0.37123972
228	0xbd979d68	-0.0740307
229	0x3e1a2aab	0.15055339
230	0x3e7bc496	0.2458671
231	0xbe2e64bb	-0.17030613
232	0x3dff9ffc	0.124816865
233	0x3e818bbb	0.25301918
234	0x3ec5756c	0.38566148
235	0xbdda5e18	-0.10662478
236	0x3db1446c	0.086556286
237	0x3e0a8c43	0.13530068
238	0x3d9af34a	0.07565935
239	0xbe8c413e	-0.27393526
240	0x3e741f91	0.23840167
241	0xbd0f9d60	-0.035062194
242	0xbc3dd52e	-0.0115864705
243	0x3df13324	0.117773324
244	0xbf280599	-0.6563354
245	0x3b477fe5	0.0030441221
246	0x3ef3dff1	0.4763179
247	0xbd28f054	-0.04124482
248	0xbdc6d14b	-0.09707888
249	0xbdfa9eb3	-0.12237301
250	0xbd10af00	-0.035323143
251	0x3ccf5e15	0.025313416
252	0x3db3a9db	0.08772632
253	0xbd2b8901	-0.041878704
254	0x3ebfb47c	0.37442386
255	0xbc26b9f0	-0.010176167

layer2.bias f4 [32]
0	0x3d89fd70	0.067377925
1	0x3de462c4	0.111516505
2	0x3dee6aea	0.11641486
3	0xbdd2bafa	-0.10289569
4	0xbdd876ba	-0.1056952
5	0x3cf8a2e4	0.03035111
6	0x3c2a47ae	0.010393066
7	0x3cf25e25	0.029585907
8	0x3d4c66f1	0.04990286
9	0x3e275873	0.16342334
10	0x3e31d04f	0.1736462
11	0x3de00a49	0.10939462
12	0xbd7abc18	-0.061214536
13	0x3d53f5d5	0.051748116
14	0x3def90da	0.1169755
15	0xbb455821	-0.0030112343
16	0xbcad2fbc	-0.021140926
17	0xbd442562	-0.047887214
18	0x3c405d83	0.011741045
19	0xbdf062a0	-0.11737561
20	0x3cd886dd	0.026431495
21	0x3df8b6ed	0.12144265
22	0x3d80f565	0.06296805
23	0x3dfb8a71	0.12282265
24	0x3cc24f4f	0.023719458
25	0xbd8da934	-0.069170386
26	0xbc6c4caa	-0.014422575
27	0x3a7b7f3d	0.000959385
28	0xbd42297f	-0.047402855
29	0x3da2f4df	0.07956862
30	0x3e1778d2	0.14792183
31	0x3e11679c	0.1419968

layer3.weight f4 [1, 32]
0	0xbd737ecb	-0.05944709
1	0x3da3a917	0.07991236
2	0x3e2d5c64	0.16929775
3	0xbf1740c4	-0.590832
4	0xbd027511	-0.031849924
5	0x3d904d8a	0.070460394
6	0xbf2a919c	-0.6662843
7	0xbd062aeb	-0.032755774
8	0xbc7f30ed	-0.01557563
9	0x3e3c92ab	0.18415324
10	0x3e3b7c5a	0.18309155
11	0x3e12c8ef	0.14334463
12	0xbda20554	-0.079111725
13	0x3a880cc1	0.0010379778
14	0x3d87ef82	0.06637479
15	0xbdb6bbb9	-0.08922524
16	0x3e2f4af7	0.1711844
17	0x3e0a2eca	0.13494411
18	0x3e56536e	0.20930263
19	0xbdb80f1f	-0.08987259
20	0x3e16d530	0.14729762
21	0x3d971473	0.07376947
22	0x3d963e11	0.07336057
23	0x3d9c1ffe	0.076232895
24	0xbcebfc7f	-0.028806923
25	0x3cbc24b8	0.022966728
26	0xbe280a11	-0.1641009
27	0xbe222b79	-0.15836896
28	0xbdea5e5e	-0.1144378
29	0xbd8f8fdf	-0.07009863
30	0x3e66dde3	0.2254558
31	0x3e2e72e6	0.17036018
