mat_model/model_name_CAE/Pd80_05_model.pth (torch, 15236 bytes, 5 tensors)

layer1.weight f4 [64, 15]
0.10991522 -0.2505794 -0.22929215 -0.18794839 -0.111818336 0.111691326 0.14428218 0.06948018
0.12539199 -0.010097063 -0.12757075 0.082932875 -0.15406847 0.24034841 -0.096834235 -0.23602547
0.045769226 -0.032556366 -0.069169074 0.21051222 0.24242921 -0.23233223 0.19401476 -0.22341472
0.18175463 0.05396639 0.17513579 -0.17606266 0.18580422 0.07889068 0.18463013 0.16141748
-0.12451159 -0.21359521 0.040537562 0.062197994 -0.1744643 -0.18540508 0.16575152 -0.034161128
-0.18845333 0.0050629373 -0.29679155 0.054671913 0.14687888 0.17495231 -0.06910673 0.15204522
0.13744798 0.17526731 0.22603363 -0.0023522973 -0.08400671 -0.016341092 -0.2518625 0.26772994
-0.0692206 -0.14150034 -0.046416715 -0.24080093 0.13179608 -0.029442089 -0.030394489 0.06134614
-0.09414122 -0.014873563 -0.07882831 -0.12651813 0.31973636 0.26253313 0.12237132 -0.027673053
-0.27499458 0.066138394 -0.3326965 -0.07359065 0.17787263 0.014480023 0.030477792 -0.067772515
0.0739348 0.036037292 0.124479815 0.11024594 0.047363717 -0.18153575 -0.011153882 0.16070737
-0.053590424 0.0010864908 -0.16556568 0.17552583 -0.25386772 -0.12318478 0.050226737 0.12240656
-0.062129427 0.25738755 0.25911507 0.22601737 0.16142717 -0.18731052 -0.16191274 -0.15557076
-0.09128885 -0.31372407 -0.08704082 -0.11956962 0.21798624 -0.23405448 -0.027853034 -0.33424437
0.0004086404 0.19311588 0.26915357 -0.17785807 0.39747316 -0.08579821 0.054283116 0.023008397
0.24067216 0.03197172 0.10216229 0.2293553 0.04509808 -0.035107292 -0.2372028 0.17731798
0.045483623 0.21721348 0.017536476 -0.07390479 -0.22248794 -0.11539478 -0.11205157 0.12871127
0.17396149 -0.24859987 -0.13663599 0.10032701 -0.024500335 -0.0061344486 -0.028238097 -0.08162814
-0.027070729 -0.21666731 0.18954365 -0.13689266 -0.005363028 0.07181039 -0.05380925 0.18282968
0.057864327 -0.13534921 -0.13067909 -0.26241013 -0.105823964 -0.18983486 0.074921176 -0.16178569
0.036401056 -0.1212634 0.055501282 -0.18955314 0.14696378 -0.39999038 0.068584256 -0.36824945
-0.14677277 -0.13215469 -0.016327333 -0.16746686 0.20110038 0.2957497 0.21122588 0.080246136
-0.051623307 -0.10032794 -0.33396146 -0.0065625245 0.22598252 0.05823466 -0.040660396 0.13796058
0.15233296 0.21919483 0.024584621 0.081653416 -0.23704298 -0.25266027 0.11389148 0.029542804
0.07191655 -0.18067361 -0.20893489 0.061952557 0.009974733 0.20046672 -0.22010916 0.21791977
-0.3146811 0.21100387 -0.06683142 0.019122878 0.0801875 -0.16421631 -0.21903892 -0.1838761
-0.21653406 0.23761822 -0.2084356 -0.43235523 -0.04951874 0.27053282 0.015542773 -0.034285296
0.16588674 0.30370918 -0.10261549 -0.03972867 -0.09361457 0.09665346 -0.13799113 0.21319458
0.014776204 -0.14261445 -0.20697702 -0.15808511 -0.24215762 -0.07144752 -0.23416339 0.1928752
-0.1950329 0.17644857 -0.008479939 0.25661117 0.21155609 0.23694229 0.07559093 -0.20275801
-0.050073616 0.14121817 0.12948827 0.017027475 0.20970586 0.26808897 0.14558479 0.039405208
-0.11212069 -0.16975795 -0.18509261 0.23015405 0.018969398 -0.012779532 0.08552431 0.22041017
00000000: 3b1b e13d f14b 80be 90cb 6abe 8b75 40be
00000010: 0301 e5bd 6cbe e43d b5be 133e a04b 8e3d
00000020: c266 003e 276e 25bc e8a1 02be b6d8 a93d
00000030: 20c4 1dbe e51d 763e 0751 c6bd a9b0 71be
00000040: 8378 3b3d d359 05bd 84a8 8dbd 8490 573e
00000050: 5d3f 783e 80e8 6dbe ceab 463e d4c6 64be
00000060: e31d 3a3e dd0b 5d3d cc56 333e c549 34be
00000070: 7643 3e3e 7091 a13d ae0f 3d3e a04a 253e
00000080: efff febd b4b8 5abe b70a 263d 53c3 7e3d
00000090: c5a6 32be d4da 3dbe c4ba 293e 8aec 0bbd
000000a0: e9f9 40be ffe6 a53b 10f5 97be a8ef 5f3d
000000b0: 6b67 163e b326 333e d487 8dbd beb1 1b3e
000000c0: 2abf 0c3e 4679 333e 5c75 673e 0029 1abb
000000d0: b60b acbd c1dd 85bc 1ff4 80be e613 893e
000000e0: 88c3 8dbd 77e5 10be 741f 3ebd 8594 76be
000000f0: 8df5 063e 8930 f1bc ddfd f8bc 1746 7b3d
00000100: 1dcd c0bd 3fb0 73bc bd70 a1bd f88d 01be
00000110: 7cb4 a33e be6a 863e d19d fa3d 99b2 e2bc
00000120: 17cc 8cbe 9173 873d 3257 aabe b2b6 96bd
00000130: 3e24 363e 9e3d 6d3c 90ac f93c 51cc 8abd
00000140: 216b 973d d79b 133d 46ef fe3d a0c8 e13d
00000150: 7500 423d 82e4 39be c6be 36bc 7990 243e
00000160: a281 5bbd 9568 8e3a 0d8a 29be 0bbd 333e
00000170: f3fa 81be 4d48 fcbd 8dba 4d3d 4ab0 fa3d
00000180: 6d7b 7ebd 4dc8 833e bbaa 843e 1971 673e
00000190: 2a4d 253e 54ce 3fbe 74cc 25be f14d 1fbe
000001a0: a6f5 babd 71a0 a0be 7542 b2bd ebe0 f4bd
000001b0: c937 5f3e faab 6fbe 0c2c e4bc 1422 abbe
000001c0: c93e d639 2bc0 453e 7fce 893e 6d20 36be
000001d0: 9a81 cb3e f9b6 afbd f957 5e3d 1b7c bc3c
000001e0: c372 763e c7f4 023d 763a d13d 1edc 6a3e
000001f0: c4b8 383d aacc 0fbd 4ae5 72be d892 353e
00000200: 094d 3a3d 366d 5e3e a8a8 8f3c 655b 97bd
00000210: e1d3 63be 1954 ecbd 4b7b e5bd e3cc 033e
00000220: f622 323e f790 7ebe 4eea 0bbe 3f78 cd3d
00000230: edb4 c8bc 7c03 c9bb 9553 e7bc a72c a7bd
00000240: 6fc3 ddbc 09de 5dbe bb17 423e 972d 0cbe
00000250: 57bc afbb 5311 933d 1767 5cbd b437 3b3e
00000260: 2503 6d3d fc98 0abe bdd0 05be 9f5a 86be
00000270: 3cba d8bd 1264 42be 4670 993d 26ab 25be
00000280: 4619 153d f258 f8bd 5055 633d 381a 42be
00000290: ac7d 163e 8acb ccbe e775 8c3d 318b bcbe
000002a0: 9a4b 16be 8f53 07be e6c0 85bc 6f7c 2bbe
000002b0: 42ed 4d3e 816c 973e 994b 583e 1658 a43d
000002c0: f672 53bd bc78 cdbd fffc aabe 720a d7bb
000002d0: f667 673e 7887 6e3d 848b 26bd 8a45 0d3e
000002e0: 2cfd 1b3e 9c74 603e b065 c93c e839 a73d
000002f0: 65bb 72be b05c 81be f03f e93d c003 f23c
00000300: fc48 933d 8102 39be 07f3 55be f7c1 7d3d
00000310: 106d 233c 2647 4d3e 4c64 61be 5c26 5f3e
00000320: e21d a1be 6611 583e e9de 88bd 95a7 9c3c
00000330: 5839 a43d 5228 28be bd4b 60be 044a 3cbe
00000340: 1bbb 5dbe 3152 733e 2470 55be aa5d ddbe
00000350: 2ad4 4abd 4783 8a3e 1da7 7e3c bd6e 0cbd
00000360: 37de 293e c57f 9b3e 1228 d2bd 88ba 22bd
00000370: ffb8 bfbd 40f2 c53d 8c4d 0dbe ae4f 5a3e
00000380: e417 723c 8609 12be c9f1 53be 10e1 21be
00000390: 2bf8 77be 1453 92bd 87c8 6fbe 1481 453e
000003a0: b4b6 47be efae 343e 71ef 0abc 8a62 833e
000003b0: 29a2 583e 00a1 723e 6bcf 9a3d cc9f 4fbe
000003c0: fe19 4dbd 7f9b 103e 9398 043e 347d 8b3c
000003d0: 22bd 563e f542 893e 2e14 153e 5b67 213d
000003e0: 889f e5bd 07d5 2dbe eb88 3dbe 81ad 6b3e
000003f0: b665 9b3c 3e61 51bc 5f27 af3d 34b3 613e

layer1.bias f4 [64]
0.24716915 0.013962112 -0.009344758 -0.2024124 -0.15347405 0.08322717 0.24042942 -0.11120643
0.1727067 0.2167758 0.21082474 0.05042046 -0.21751784 -0.10447545 0.044815306 0.21726798
0.11790603 0.14919123 -0.026233885 0.08485442 -0.22850475 -0.22818159 -0.30028057 -0.21893927
0.0137659125 -0.08658314 -0.042367976 -0.0023745168 -0.18529627 0.02783481 0.035175167 -0.24807175
0.15461151 -0.29046574 -0.14146703 0.2018277 0.13985279 -0.120416835 -0.25939548 -0.20395078
-0.027326483 -0.20861717 -0.028237924 -0.04737352 -0.084448904 -0.12135258 -0.122980565 -0.19260946
0.092638336 0.04080954 -0.32270288 -0.085421346 0.1523299 -0.01389637 0.17312057 -0.083376415
0.061786894 0.118820295 -0.020774798 0.15769717 0.105685346 0.12880147 0.1623732 0.018574383
00000000: e919 7d3e 58c1 643c c11a 19bc 3245 4fbe
00000010: 4d28 1dbe 0273 aa3d 2133 763e 32c0 e3bd
00000020: 06da 303e 7afa 5d3e 71e2 573e af85 4e3d
00000030: ffbc 5ebe 3af7 d5bd 4190 373d 7f7b 5e3e
00000040: b778 f13d 96c5 183e 72e8 d6bc 27c8 ad3d
00000050: 26fd 69be 6fa8 69be 60be 99be 9e31 60be
00000060: 6c8a 613c 8052 b1bd 0b8a 2dbd c89d 1bbb
00000070: 4ebe 3dbe d405 e43c d613 103d 8506 7ebe
00000080: 7b52 1e3e edb7 94be bcdc 10be ecab 4e3e
00000090: 9235 0f3e 1a9d f6bd 7ccf 84be 79d8 50be
000000a0: cadb dfbc bd9f 55be 3853 e7bc bc0a 42bd
000000b0: 8cf3 acbd b487 f8bd 3cdd fbbd 6a3b 45be
000000c0: 2bb9 bd3d e727 273d 5039 a5be 63f1 aebd
000000d0: 5ffc 1b3e 9aad 63bc 8546 313e 41c1 aabd
000000e0: 4114 7d3d 0e58 f33d e92f aabc 5e7b 213e
000000f0: 8f71 d83d 88e4 033e 2945 263e 4e29 983c

layer2.weight f4 [32, 64]
-0.08047837 -0.037009552 0.0376949 0.095748916 0.12411529 -0.060129747 0.12140481 0.070089
-0.057313457 -0.07245779 -0.0069618225 -0.11794934 0.03364648 0.03184864 0.106133014 0.044410586
0.055108666 0.023767024 0.021412209 0.12409735 0.056782186 0.034135804 -0.0070408285 0.11602457
-0.0379055 -0.11106369 -0.08298905 -0.008506343 -0.012114495 0.07709755 -0.0124542415 0.08113173
0.028840229 -0.033682972 0.06336492 -0.08128278 -0.059463724 0.11671324 -0.09721553 -0.110982224
0.11246328 -0.038449824 0.009189248 -0.010271713 -0.123371825 -0.0046150386 -0.08475405 -0.039702713
0.049433008 -0.008829698 0.036480263 -0.062200427 0.05725263 0.034619138 0.013828233 0.091734126
-0.025351956 -0.085047156 -0.05653192 -0.067635655 -0.0979988 -0.09049307 0.039698273 -0.11989428
-0.10969968 -0.038874432 0.11844172 0.14334093 0.03417461 0.08403308 0.11939848 0.09146396
0.1065462 0.0629209 0.051871933 0.16550869 0.05885604 0.18878272 -0.03648998 -0.08256529
0.07863546 0.057446435 0.18250436 0.103605755 0.1314595 -0.052269775 0.3054054 0.04218022
-0.032440394 0.043180287 0.15225063 -0.047155615 0.09957529 0.058918547 0.12582801 0.18455096
0.091711864 0.09049373 0.026683806 0.03504418 0.13984591 0.09442615 0.023159359 0.3140403
0.19844106 0.07517841 0.29778004 0.022330683 -0.023682525 -0.10699834 -0.18136829 -0.03972538
0.041616958 -0.08390562 0.19855748 -0.18570872 -0.01795687 -0.273753 0.006689229 -0.086930096
-0.011352552 -0.10261331 0.028098902 0.0030086588 0.029392412 -0.06716187 -0.024838924 0.0892814
0.12178786 -0.06794726 0.067795075 -0.12702896 0.018589932 -0.035918355 -0.10855941 -0.016312575
0.122755095 -0.018878853 -0.034786873 -0.09237948 -0.11926463 0.012083762 0.03450568 0.08914249
-0.085997194 -0.08059609 -0.14945596 -0.19914848 0.09734403 -0.038402073 -0.3989795 -0.054177742
-0.033277478 -0.010220473 -0.024446012 -0.027435219 -0.037826903 -0.035310425 0.039641142 -0.10869697
-0.06334728 0.06802752 0.15160885 -0.05377446 0.09930511 -0.09943397 -0.13813522 -0.3180054
-0.07904053 -0.06735127 -0.2073318 0.015994325 -0.001452715 0.20556661 0.13402289 -0.06929663
-0.23318286 -0.016293818 -0.3522873 0.17633432 -0.01875249 0.21799904 0.06444695 0.061751798
-0.07472762 -0.012046137 0.11747624 0.08899535 -0.0035031312 0.10520279 -0.0023444993 -0.03116037
-0.048652496 0.011999871 0.06589958 -0.121681176 -0.12708266 -0.057210695 -0.1335291 0.00085304776
-0.059321333 0.036744535 0.08712467 -0.13612364 -0.09169142 -0.069158286 -0.10560912 0.027710812
-0.08464265 0.09177317 0.16075504 0.08526713 0.06465199 0.021775125 0.36344296 0.087877095
0.03659784 -0.010888231 -0.030393792 0.022764144 -0.007325124 -0.11879835 -0.09826727 0.22926462
0.041307278 0.047716893 -0.4178218 -0.11225034 0.021491513 -0.0058054663 0.14294596 0.49005973
-0.06335867 0.06530459 0.072060615 0.08617231 -0.047881816 -0.16727792 0.08547526 -0.02605562
0.032169223 -0.108142145 0.22070742 0.012846147 0.0861803 -0.43361214 -0.09119245 0.094459206
-0.003163702 0.076630756 -0.11858338 -0.032759123 0.11530581 0.11066538 -0.09771369 0.024379011
00000000: d8d1 a4bd 5497 17bd f865 1a3d 0218 c43d
00000010: 2830 fe3d 9c4a 76bd 16a3 f83d d28a 8f3d
00000020: 84c1 6abd c064 94bd 0020 e4bb 6c8f f1bd
00000030: e4d0 093d b873 023d 445c d93d e0e7 353d
00000040: a0b9 613d 10b3 c23c a868 af3c c026 fe3d
00000050: 7094 683d fcd1 0b3d c0b6 e6bb 4a9e ed3d
00000060: cc42 1bbd 5c75 e3bd 2af6 a9bd 305e 0bbc
00000070: e07b 46bc 52e5 9d3d e00c 4cbc 6428 a63d
00000080: 5842 ec3c 28f7 09bd 78c5 813d 9677 a6bd
00000090: 3c90 73bd 5a07 ef3d f018 c7bd a64a e3bd
000000a0: 2653 e63d 907d 1dbd 808e 163c b04a 28bc
000000b0: 5eaa fcbd c039 97bb 8893 adbd 509f 22bd
000000c0: 447a 4a3d 70aa 10bc 546c 153d e0c5 7ebd
000000d0: bc81 6a3d cccc 0d3d d08f 623c 1adf bb3d
000000e0: e8ae cfbc 342d aebd 048e 67bd 9084 8abd
000000f0: 98b3 c8bd 6e54 b9bd a89a 223d 228b f5bd
00000100: 3aaa e0bd cc3a 1fbd 9391 f23d f7c7 123e
00000110: adfa 0b3d 8919 ac3d 3187 f43d 7551 bb3d
00000120: e534 da3d acdc 803d aa77 543d 1c7b 293e
00000130: 0813 713d 4250 413e 8476 15bd fe17 a9bd
00000140: a10b a13d f44c 6b3d 6ce2 3a3e 412f d43d
00000150: 529d 063e d518 56bd 195e 9c3e 2bc5 2c3d
00000160: 38e0 04bd d0dd 303d 97e7 1b3e 3f26 41bd
00000170: 21ee cb3d 9354 713d 0fd9 003e edfa 3c3e
00000180: 6ed3 bb3d c754 b93d ff97 da3c 7c8a 0f3d
00000190: c433 0f3e 7f62 c13d b2b8 bd3c e4c9 a03e
000001a0: 2234 4b3e 23f7 993d a076 983e d6ee b63c
000001b0: db01 c2bc f221 dbbd 9cb8 39be 14b7 22bd
000001c0: 8b76 2a3d b6d6 abbd a752 4b3e 6d2a 3ebe
000001d0: 491a 93bc 5a29 8cbe 5231 db3b 6808 b2bd
000001e0: 0e00 3abc ed26 d2bd ab2f e63c eb2c 453b
000001f0: 5bc8 f03c 2a8c 89bd 007b cbbc 2bd9 b63d
00000200: ea6b f93d ef27 8bbd 25d8 8a3d e113 02be
00000210: ea49 983c 201f 13bd 6554 debd f3a1 85bc
00000220: 0667 fb3d d3a7 9abc ae7c 0ebd 7431 bdbd
00000230: 0441 f4bd f9fa 453c d455 0d3d 5690 b63d
00000240: 4c1f b0bd 900f a5bd fc0a 19be 94ed 4bbe
00000250: 4f5c c73d 7e4b 1dbd 0b47 ccbe 7be9 5dbd
00000260: f74d 08bd c573 27bc 0143 c8bc d3bf e0bc
00000270: 62f0 1abd aaa1 10bd c05e 223d 849c debd
00000280: 38bc 81bd 0352 8b3d 5a3f 1b3e 9c42 5cbd
00000290: 7a60 cb3d 0aa4 cbbd 5273 0dbe 9bd1 a2be
000002a0: 00e0 a1bd 76ef 89bd ca4e 54be 8806 833c
000002b0: 0769 beba 0e80 523e 4c3d 093e 64eb 8dbd
000002c0: 7dc7 6ebe 9d7a 85bc 005f b4be fc90 343e
000002d0: d29e 99bc 243b 5f3e c3fc 833d 74ef 7c3d
000002e0: cb0a 99bd 295d 45bc 6297 f03d 3243 b63d
000002f0: ca94 65bb 8f74 d73d 2ca6 19bb 0844 ffbc
00000300: d747 47bd 1b9b 443c 5cf6 863d fb33 f9bd
00000310: f521 02be c355 6abd dabb 08be 119f 5f3a
00000320: edfa 72bd 7081 163d 6b6e b23d ff63 0bbe
00000330: b6c8 bbbd dca2 8dbd 9849 d8bd c901 e33c
00000340: 2059 adbd 92f3 bb3d f89c 243e 88a0 ae3d
00000350: 4368 843d bf61 b23c 3215 ba3e e8f8 b33d
00000360: 9ee7 153d 8d64 32bc 67fc f8bc df7b ba3c
00000370: 9807 f0bb 8d4c f3bd 5a40 c9bd 58c4 6a3e
00000380: d231 293d ca72 433d bdec d5be 82e3 e5bd
00000390: f80e b03c c83b bebb 6d60 123e 1ce9 fa3e
000003a0: 31c2 81bd 6abe 853d 8494 933d 1c7b b03d
000003b0: b91f 44bd e74a 2bbe a70d af3d 9872 d5bc
000003c0: e0c3 033d a179 ddbd 2001 623e a578 523c
000003d0: 4c7f b03d 6902 debe 1bc3 babd d473 c13d
000003e0: 1d56 4fbb 96f0 9c3d d8db f2bd 6e2e 06bd
000003f0: 7425 ec3d 88a4 e23d 1d1e c8bd 7eb6 c73c

layer2.bias f4 [32]
-0.11196473 0.10577419 0.123080835 0.09668742 -0.006145017 0.105106786 -0.021179035 0.03295341
0.037269592 -0.013805812 -0.03827276 -0.045800116 0.05660364 0.11926753 -0.01786889 0.07390259
0.10383656 -0.1701563 0.029530646 0.124285124 0.05216275 0.042156216 0.09905646 0.016377375
0.10024384 0.07762362 -0.042005178 -0.011453112 -0.091758415 -0.11217988 -0.06529051 0.06553471
00000000: c44d e5bd 23a0 d83d ce11 fc3d 0e04 c63d
00000010: 245c c9bb 3a42 d73d a87f adbc 28fa 063d
00000020: 00a8 183d c631 62bc e6c3 1cbd e798 3bbd
00000030: 38d9 673d 8942 f43d c761 92bc 3e5a 973d
00000040: 43a8 d43d 743d 2ebe 41ea f13c 3389 fe3d
00000050: 9ca8 553d ffab 2c3d 1dde ca3d d829 863c
00000060: a44c cd3d 22f9 9e3d 9f0d 2cbd d5a5 3bbc
00000070: d6eb bbbd 91be e5bd 08b7 85bd 1037 863d

layer3.weight f4 [1, 32]
0.0954109 0.17626551 -0.1272551 -0.18230364 -0.08034539 0.15567102 -0.08763242 0.043736096
-0.070524506 -0.14063399 -0.15996362 -0.44609132 0.1866473 0.15301071 -0.10565693 -0.10696609
0.27318034 0.44626915 0.021622026 0.049861837 0.10513422 -0.08070976 0.12135391 0.107840344
-0.13649736 -0.13535112 0.12084816 -0.14718632 -0.0011391763 0.38058802 0.0026595294 0.5618423
00000000: ca66 c33d f27e 343e 294f 02be cead 3abe
00000010: 208c a4bd 3968 1f3e a078 b3bd 9f24 333d
00000020: 276f 90bd 5b02 10be 81cd 23be 1566 e4be
00000030: 7820 3f3e d7ae 1c3e a962 d8bd 0a11 dbbd
00000040: 4bde 8b3e 647d e43e ad20 b13c ed3b 4c3d
00000050: 9c50 d73d 294b a5bd 6688 f83d 66db dc3d
00000060: f7c5 0bbe 7c99 0abe 3d7f f73d 03b8 16be
00000070: 6a50 95ba 6fdc c23e 804b 2e3b e6d4 0f3f
