mat_model/model_name_CAE/Pd80_04_model.pth (torch, 15236 bytes, 5 tensors)

layer1.weight f4 [64, 15]
00000000: 2a8f 47bd 7793 a63e 0030 573c ce48 f63d
00000010: 0972 e83d 7fd7 473e 07e6 9e3c 26b8 5ebe
00000020: 8d1f f53b 15ad 7cbd 4af2 4cbe 30e7 023e
00000030: 56bd 1f3e b540 0f3e a7d2 5bbd b83b 8f3d
00000040: 36c0 0fbd 267b cf3e bc9c 7dbc 86d2 edbe
00000050: 6ee2 213d 5014 46be cd2c 16bf 4040 a83e
00000060: 4005 5abe 54fa 0fbf beec 83bd 11d9 69be
00000070: c06e 75be 2c01 183e 0c0f 0ebe 9e9f 543e
00000080: 8077 fbbd 380d 7d3d 1a00 aebd 280f f1bc
00000090: c46e 25be 3834 c43d dcb7 ff3d 7288 37be
000000a0: 009c 44bd 325a 683e 786b ee3d a44d 28bd
000000b0: 1aed 15be a589 333e dc9b 693d 6964 87be
000000c0: cbd3 d9bc 6363 61be a9d8 85bd 7775 74be
000000d0: 3e02 42be b3c8 513e 26c0 593e c7fb 5e3e
000000e0: 26ea 783d 49eb eebc 2d88 b8bd f7b7 0dbe
000000f0: 5470 a9bd cb87 e0bd 798e 263e 872c 143e
00000100: de5c cdbd 1b21 c73e 420d 483e 1228 78be
00000110: 68dd 673e 9913 c5bd 51b5 0dbe 11b1 32be
00000120: d5b1 0a3d a7ac d63d 8006 0abe faf3 9bbe
00000130: b26d 553e 0a6b 5c3e 6023 3f3d 3c3e bd3c
00000140: b60d 5bbe 787b b4bd f350 bd3e bcef ca3d
00000150: 824c a43e 5af7 a4be c173 c4bd b197 96be
00000160: 3399 b2bc 55a2 93bd 1745 1ebe fe30 263d
00000170: e5bf 213d 6105 483e 7b28 4a3e c12c c1bd
00000180: 0a67 503e 2ec5 53be b65a 073e 38bb 803e
00000190: 22a7 5fbe 2ca4 b3bd 71ba 0ebe efc1 ee3d
000001a0: 7e73 40be cd54 883d 431a fbbd 904e 35be
000001b0: e6b8 5b3e 257f 023e 049f c03d 24cd 2abe
000001c0: eb04 3f3e 4a7c 4cbe deae f5bc 5cf4 4dbe
000001d0: e101 1e3b 9a5f 83bd 6e35 8abd 944d 3b3e
000001e0: 09b4 0ebe d27d 58be f90c 003e ebb1 453e
000001f0: 2ffc 59be 34d1 923e 21ba 00be b7a2 d5bd
00000200: 92b8 c3bd 5d25 6ebe 9ce4 1f3e 7625 013e
00000210: 20d6 90be 8638 33be 29f4 c63d 82aa 003d
00000220: 9776 9b3e b2ca 1f3e faa5 cbbd 6578 123b
00000230: 3849 f03d 4be6 193d fc4d 11bc 6acb 0c3e
00000240: ce8c 913e a872 0abd c075 f13d 404e b5be
00000250: 23a2 2dbd dc40 79be 60db 933d 684e 433d
00000260: d0d2 6bbe 6431 453e 5380 01bd 0de0 773e
00000270: 70fa 9b3e ea9a 09bd f808 243e 019e 25be
00000280: 5ed1 673e 304b cbbb 4b56 9d3e a158 103e
00000290: 281c 3cbe 440f 57bd 0538 83be 9879 b03d
000002a0: 4831 da3d 861c 0f3e 1875 133d d62f 97bd
000002b0: 1693 d9bd a4d5 febd 9266 febd 4042 973c
000002c0: ccc3 83bd c6a9 6ebe e860 43be 9836 273e
000002d0: 379f 44be 8b67 66bd 8e2c 313e dfb9 32bd
000002e0: 787c 1cbe da57 a2be f6da e5bd 8363 473e
000002f0: f55a 7c3b d5e7 1c3e 2e1b 82be dc7f 283d
00000300: 6247 06bd 58a5 7d3e 802b 133e 85b2 313d
00000310: c09d 513e fbfa ab3d d4dc 5c3d 7e48 1a3e
00000320: 8067 273d 010d e93d 64d7 873e 0ed3 3fbe
00000330: 13e7 983e 99f4 6f3e ba32 0b3e 0510 ebbc
00000340: 412d 9a3d d2fd 64bc 7f58 d03d b5ea 8fba
00000350: 65e2 f73d 19db a1bd 83af e0bd 6e08 aabd
00000360: 6378 f13d bbaa 66bd 7202 85be cb57 223e
00000370: 27b3 f1bd ee2a 37be 892c 24be 708b 31bd
00000380: b26e 183e 1533 f83d dba7 e73e cab9 633d
00000390: 8a18 4a3e 1c6c 283e 6ec5 79be a1e8 833d
000003a0: c2f4 343e 87e4 803e 2af7 5d3e cc16 36bd
000003b0: 2ae8 5bbe e06e 84be 4d72 423e 32e7 d9be
000003c0: 68d7 883d 642a 833e 36be 163e 3592 a1bd
000003d0: 9c7e b1be b542 45be d18e 1a3e b448 11be
000003e0: cc0e 80bc 4e85 32be 43a1 d4bd b4cb 8d3d
000003f0: c166 a7bc d8a3 b8bd 287d b3be 3022 11bc
-0.048720516 0.32534382 0.013134003 0.12025605 0.113498755 0.19515799 0.019396795 -0.21749935
0.007480568 -0.0616885 -0.20014301 0.12783504 0.1559957 0.13989528 -0.05366769 0.06993812
-0.035095416 0.40523642 -0.015479263 -0.4644968 0.03952258 -0.19343686 -0.5866211 0.3286152
-0.21291065 -0.56241345 -0.06441639 -0.2283671 -0.23968029 0.14844197 -0.13872927 0.20764014
-0.12278652 0.061780185 -0.08496113 -0.029426172 -0.16155535 0.095802724 0.1248624 -0.17923144
-0.048000336 0.22690657 0.11641592 -0.04108967 -0.14641228 0.17532976 0.057033405 -0.26443794
-0.026590249 -0.2201057 -0.06535465 -0.23872934 -0.18946168 0.20486717 0.21264705 0.21775733
0.060770176 -0.029164927 -0.090103485 -0.13839708 -0.08273378 -0.109634005 0.16265287 0.14470111
-0.10027479 0.38892445 0.19536307 -0.24234036 0.22643054 -0.096228786 -0.13838698 -0.17450358
0.033861 0.104821496 -0.13479042 -0.30459577 0.20842627 0.21525207 0.046664596 0.023100965
-0.21391949 -0.08812612 0.36975822 0.09909007 0.3208962 -0.32219964 -0.09592391 -0.29412606
-0.021801567 -0.07208697 -0.15456043 0.040574066 0.039489646 0.19533302 0.19742005 -0.09432364
0.20351806 -0.20680687 0.13218197 0.25142837 -0.218411 -0.08771548 -0.13938309 0.11658084
-0.18794057 0.066567995 -0.122608684 -0.1770575 0.21457252 0.12743814 0.0940533 -0.16679817
0.1865422 -0.19969288 -0.02999061 -0.20112747 0.0024110007 -0.06414719 -0.06748472 0.18291312
-0.13935865 -0.21141747 0.12504949 0.19306152 -0.21287607 0.28675234 -0.12571003 -0.10431426
-0.09556688 -0.2325644 0.15614551 0.12611946 -0.28288364 -0.1750203 0.097145386 0.03141261
0.30363914 0.15604666 -0.09943767 0.0022349593 0.11732715 0.03757314 -0.008868691 0.13749471
0.28427738 -0.03380075 0.11790037 -0.35411263 -0.042390954 -0.24341148 0.07219577 0.047682196
-0.23029637 0.19257122 -0.03161652 0.24206562 0.30464506 -0.033595003 0.16019046 -0.16173555
0.22638461 -0.0062040314 0.307299 0.14096309 -0.18370116 -0.052504793 -0.25628677 0.08616942
0.10653931 0.13975725 0.03600034 -0.07382171 -0.106237575 -0.124430925 -0.124219075 0.018464208
-0.0643383 -0.23306951 -0.19079936 0.1632942 -0.1920136 -0.05625109 0.17302153 -0.04363429
-0.15281856 -0.3170765 -0.11223404 0.19471554 0.0038506363 0.15322812 -0.2541136 0.04113756
-0.03278292 0.24770105 0.14372063 0.04338314 0.20470333 0.0839748 0.053921536 0.15066716
0.04087019 0.113794334 0.26531518 -0.18732855 0.29863796 0.2343315 0.1359357 -0.028694162
0.07528163 -0.013976531 0.10173129 -0.0010979982 0.12103728 -0.07903118 -0.10970976 -0.08302389
0.1179054 -0.056315165 -0.25978428 0.15853803 -0.11801749 -0.1788747 -0.16032614 -0.04334587
0.14885977 0.12119118 0.4524525 0.055597104 0.19735923 0.1644749 -0.2439172 0.06440855
0.17671493 0.25174353 0.21676317 -0.044455335 -0.21475282 -0.2586584 0.18988915 -0.425592
0.066817105 0.2561828 0.14720997 -0.07889215 -0.34666908 -0.19263728 0.15093543 -0.1418789
-0.015632056 -0.17433664 -0.10382321 0.06923619 -0.020434739 -0.09015626 -0.35056424 -0.008858249

layer1.bias f4 [64]
00000000: 543c 2d3e 5b62 7abd 0c56 7ebe c840 f53d
00000010: 580b 3fbe 7e9c cebd c119 2e39 c0ae 72be
00000020: 8a74 753e 7c91 31be 963c 483e 9ab3 26be
00000030: a573 29be c87c 46be cff6 a3bc deaa 7fbe
00000040: 3083 763d f672 9dbd 82ab 47be cfa6 10be
00000050: 3364 cb3d a348 c53d cea5 573e c285 4abe
00000060: abdd 193d cf46 6abe 9897 893c a0fb 593e
00000070: 6a6d 2cbd 92c2 43be 6b54 303d 3b1f 48bd
00000080: d150 5e3d 959f d13c 4ec1 adbe c925 13be
00000090: e8ec 61be a98a d23d 6625 5e3e 96ab 873e
000000a0: ebef 893e 017b 323e b627 e2be 4396 11bc
000000b0: a3fe 6e3e 9cdd fd3d 51eb 253e 3545 5c3e
000000c0: 437d 86be dea1 afbd dce7 61bd c4a7 cabd
000000d0: 38ef 573e 7595 e9bd 61f2 663e 79fe eabb
000000e0: 25b4 80bc a5d1 52be d39e 553e 3530 223e
000000f0: 2765 d33c 75dc ae3d 43f0 d13d 80df 5abb
0.16917545 -0.061128955 -0.24837512 0.11975247 -0.18656671 -0.10088442 0.00016603527 -0.23699474
0.23970237 -0.17340654 0.19554362 -0.1627945 -0.16548021 -0.19383538 -0.020015148 -0.24967524
0.060183704 -0.07687943 -0.19499019 -0.14126132 0.09931221 0.09632995 0.21059343 -0.19777587
0.037564915 -0.22878574 0.016795918 0.21287394 -0.042096533 -0.19117191 0.043049257 -0.04885791
0.05427629 0.02558879 -0.33936542 -0.14369883 -0.22063029 0.102803536 0.21693954 0.26498097
0.26940855 0.17429735 -0.44170922 -0.008885923 0.23339324 0.12395784 0.16203047 0.21510775
-0.26267442 -0.085757956 -0.05515276 -0.0989528 0.21087348 -0.1140546 0.22553398 -0.007171449
-0.0157109 -0.20587786 0.20861368 0.15838702 0.02580507 0.085381426 0.102509044 -0.0033397377

layer2.weight f4 [32, 64]
00000000: f80c 51bd dc35 8fbe a2f5 e73d fd6f 10bd
00000010: 80b1 c73b a52d 623e 79c2 78bd 7991 8c3d
00000020: d1ff 783d 08a0 2abd 009f 96bd d808 a6bd
00000030: 9c4e c53c cf07 453d 8f8b c3bd 55a4 a13c
00000040: 2841 44bd cad8 a53d c6b3 41bd 74f6 123d
00000050: ad1e 763c ec43 07bd ff74 763d bfaa 3abd
00000060: 997b 2cbc e90f dc3e a672 613e 7a04 5ebd
00000070: e2c1 ae3d 0f40 d93d 03e0 23be dcd5 a73d
00000080: 1208 b73e 0e98 e5be 3e10 de3e 73db d93d
00000090: 8069 d93c d28d 88bd 2a76 22bd 7141 0e3e
000000a0: 6032 5cbd 1651 ea3d 2383 cf3e 04d5 13be
000000b0: f2d0 7fbd 9838 aebc 364f f33d 9d6b 75bd
000000c0: 6dfb dd3e 04be 76bd 9b9c 8d3e fe4a 9e3d
000000d0: fa85 c23c f9f1 af3d f836 04bc f1cb bcbb
000000e0: 1bf6 233d 26c9 ef3d 78c0 fe3d 211f d73d
000000f0: 7f56 16bf b89c f0bc 272b 5f3c e812 d73c
00000100: 7282 1bbb 49f2 07bf b0b4 6e3d 0852 923d
00000110: 8d03 24bc ea51 c53d d999 133d e96d a33d
00000120: 0912 123d a05b 0f3e 348a fcbd 6cff 36bd
00000130: 34e9 3dbd 2191 193e c81c 0abe 60ea e63d
00000140: 32b1 493d 38d8 043e dda3 bb3c 7572 343d
00000150: 60b5 0f3e e5b2 903c 20c0 06be 4f95 6b3d
00000160: 9aac 383d 348c f13e d5df 793e 5984 b0bd
00000170: 19be 963d e4db cabd 30a5 79be ac59 1f3e
00000180: 092f c83e 5c59 15bf cf2b 263f f321 dc3d
00000190: d03a 183c a1a5 133e aaf1 063e 28ed 89bd
000001a0: d097 e3bd c74e ba3d f06c f93e 766d 55be
000001b0: 673b e5bc 4907 4bbd f719 56bd 3350 59bb
000001c0: 6174 f23e daaa b8bd 8ff6 b73e bcd8 003e
000001d0: 7e3d b53d c14f 333d 0c91 cdbd e275 f53d
000001e0: 5e3d ffbd 80cd 4f3d 47f0 dcbd 0e20 2e3b
000001f0: 36bc c6be 7065 fe3d 05f2 c4bc 8c5e b23d
00000200: 4ce8 d63d f44b e3be 8009 8ebb c0c9 6b3d
00000210: 0bd9 1b3e 5903 723e 8011 28bd 4b6b 57bd
00000220: 201e 753d 16a7 fe3d 0714 bcbd e2c0 dcbd
00000230: 62e6 31bc 6a9a e13d 22ed 5abe fea9 1a3e
00000240: a46c 09bd dc91 2a3c 7d09 9abd 9632 5d3c
00000250: 1fbd a93d af61 963c 8d26 aabc f532 cfbd
00000260: 45b6 8a3c 1ead f33e 5f62 023f be2f fabc
00000270: f180 0b3d cb1d 783c d155 18bf 94c5 8d3e
00000280: 72ef 993e 6b2c 38bf 5fd2 233f 7124 a03d
00000290: 1ed8 86bd 7721 b43d cd70 a5bd 9f7d 0fbd
000002a0: 1c2c ae3c c098 fa3d 95e2 243f 05bd 553d
000002b0: cfd5 db3c 43b3 6abe 521f b33d 5a4f 22be
000002c0: 776f 023f 7837 e23c aab1 b63e cf3b 38bc
000002d0: fd6f b9bd 5c18 0fbd 1bd8 99bd d187 873b
000002e0: 933c 68bd 980b c43c 2fee 2c3c b305 f1bb
000002f0: 1daf 58bf 15bf b53d 17be 2dbc 8019 0d3d
00000300: 8076 843d b8ce f03d a452 6fbd 0421 c2bd
00000310: 4432 89bd c8bf 353d 4497 8a3d 4065 d2bd
00000320: 2acf f43d 48a6 5fbd 7d4f ee3d 5006 21bd
00000330: c4f4 afbd d892 f1bd 7000 4c3d e0d0 67bc
00000340: 5800 e93b 2488 b2bd 7898 a4bc f01c 923c
00000350: 4ea9 033d 7197 a9bd 3b00 663d ca3f d73d
00000360: 3a86 583d a8f0 e93d cc6a 343d 4e93 873d
00000370: b52b 45bd e486 8bbd c5b4 9a3d 4c26 8dbd
00000380: 30e6 edbd 78d0 aabc 1048 e5bd 02e8 8e3d
00000390: c405 5ebd 191f c33d ac52 553d ed61 d0bc
000003a0: 4a89 9ebd de03 45bd 30cd fdbc d9e0 2e3d
000003b0: 13aa 4bbd 776f 783c 08cc 533d 7eed e7bd
000003c0: a0a0 e7bc 2443 f73d cd59 753c c5f7 41bd
000003d0: 79f9 af3d ca2c f7bd bac6 cbbc 1067 68bc
000003e0: b858 593d 989e eb3c 7b0d abbd 0907 95bc
000003f0: 6407 c3bd a06f b0bb 6a9b e539 00e3 3a3c
-0.05103776 -0.2797078 0.113261476 -0.03526305 0.0060941577 0.22087725 -0.06073234 0.06863684
0.06079084 -0.041656524 -0.073545456 -0.081071556 0.024085335 0.04810315 -0.09548103 0.01973168
-0.0479137 0.0809799 -0.047290586 0.035879567 0.015021962 -0.03302376 0.06017017 -0.045572992
-0.010527515 0.42980888 0.22016391 -0.054203488 0.08533074 0.10607921 -0.16003422 0.08195087
0.35748345 -0.4484257 0.43371767 0.1063756 0.026539564 -0.06667675 -0.03966347 0.13892151
-0.05375898 0.11441247 0.40529737 -0.14436728 -0.062455125 -0.02126722 0.11880343 -0.05991708
0.43355885 -0.060239807 0.27658543 0.077291474 0.023745526 0.085910745 -0.008069746 -0.0057616164
0.040029626 0.11708288 0.12439054 0.10503984 -0.5872573 -0.029371604 0.013621128 0.026254132
-0.0023728875 -0.5310407 0.058277786 0.071445525 -0.010010612 0.096347645 0.036035392 0.07979948
0.03566173 0.13999796 -0.12331048 -0.044677183 -0.046364978 0.14996769 -0.13487542 0.11275172
0.049241252 0.12973106 0.022905285 0.044054467 0.14034033 0.017663429 -0.13159227 0.05751544
0.04508648 0.4717728 0.24401791 -0.08618993 0.07360477 -0.09905222 -0.2437942 0.15561551
0.39098385 -0.58339477 0.64910597 0.10748663 0.009291366 0.14418651 0.13178125 -0.06734687
-0.1111294 0.09097057 0.48715925 -0.20842537 -0.027982427 -0.049567495 -0.052270856 -0.0033159375
0.47354415 -0.09016962 0.35930297 0.12582678 0.08849619 0.04377723 -0.10037431 0.11985375
-0.12462877 0.05073309 -0.10788017 0.00265694 -0.3881547 0.124216914 -0.024041185 0.0870944
0.10493526 -0.44393885 -0.0043346286 0.05756545 0.15219514 0.2363409 -0.041032314 -0.052592557
0.059843183 0.12434213 -0.091835074 -0.10778977 -0.01085815 0.1101578 -0.21379521 0.1510391
-0.033550873 0.010410752 -0.07521341 0.01350083 0.08288025 0.018357126 -0.020770336 -0.10117141
0.016932616 0.47593015 0.5093135 -0.030540343 0.034058515 0.015143822 -0.59505945 0.27689803
0.30065495 -0.71942776 0.63992876 0.07819451 -0.0658419 0.087954454 -0.08078156 -0.03503191
0.021261267 0.12236166 0.64408237 0.052182216 0.02683535 -0.22919945 0.08746208 -0.15850583
0.5095133 0.02761434 0.35682422 -0.011244728 -0.09054563 -0.03493534 -0.07511922 0.0041360636
-0.056698393 0.02393131 0.010554834 -0.0073554157 -0.846422 0.08874337 -0.010604403 0.034448147
0.064679146 0.117581785 -0.05842842 -0.094789535 -0.066990405 0.04437235 0.06767133 -0.10273218
0.11953576 -0.054601938 0.11636255 -0.03931266 -0.08591607 -0.11795586 0.049805105 -0.014148921
0.0071106367 -0.08717373 -0.020092234 0.017836064 0.032143883 -0.08280838 0.056152564 0.10510214
0.052862383 0.11422855 0.044047162 0.06619893 -0.048137385 -0.06812838 0.0755401 -0.0689207
-0.116161704 -0.020851359 -0.111953855 0.06977846 -0.054204717 0.09527416 0.052080795 -0.02543732
-0.077410296 -0.04809939 -0.03098163 0.0426949 -0.049722742 0.015163294 0.05170825 -0.11324595
-0.028274834 0.12073353 0.014975023 -0.047355432 0.08592505 -0.1206909 -0.024875034 -0.014184728
0.053063124 0.028762147 -0.083521806 -0.018191831 -0.09522894 -0.0053844005 0.00043794076 0.01140666

layer2.bias f4 [32]
00000000: 0b33 a93d c0c6 7bbd 46f8 83bd 7805 e6bd
00000010: 4ac6 84bd 1423 7e3d b962 cd3b f5f9 6bbd
00000020: e6db 0a3d dae7 fa3c c637 3b3d b982 673d
00000030: cf11 1ebd fb02 883d 3c98 debd 0be4 bc3d
00000040: 388c e93c c209 e7bd 0716 2a3d 7663 9a3d
00000050: 341d 823d 86b2 88bd 0bb2 843d 7092 d63d
00000060: 559c acbb 787e c3bd d883 c8bd 9936 783d
00000070: 88bc 03be 2910 5e3c 55e5 b03d 3d0f eabb
0.08261689 -0.06146884 -0.06443839 -0.11231512 -0.06483133 0.06204517 0.006267872 -0.057611424
0.033901118 0.030628134 0.045707487 0.05652115 -0.038591202 0.066411935 -0.1086888 0.09223183
0.028509244 -0.11281158 0.041524913 0.07538502 0.06353226 -0.06674676 0.064792715 0.104771495
-0.0052676597 -0.095456064 -0.09790772 0.060598943 -0.12864888 0.013553658 0.086374916 -0.00714293

layer3.weight f4 [1, 32]
00000000: 175b 473e 672c bc3e c8aa 1b3e 735d 11be
00000010: 7cb0 3fbd e4e3 923d 067c 9a3e e5f9 4fbc
00000020: 6280 d93d e18d 2bbf 6269 283e 9d40 303e
00000030: f692 2abe a81b 14bc 20d9 ff3c 8db4 85bc
00000040: 0464 edbd 03e7 19be 3c39 773e 4138 babd
00000050: fe39 d23d aee5 cbbd 462f 063e aebb 2c3f
00000060: c9b7 123e aaad cf3d a8b5 cdbd 0344 0bbe
00000070: 0979 c5bd 854e 94bd ba27 b23d 3e2a 123e
0.19468342 0.36752626 0.15201867 -0.14195804 -0.046799168 0.07172373 0.30172747 -0.012693857
0.1062019 -0.67013365 0.1644645 0.17212148 -0.16657624 -0.009039797 0.031231463 -0.016321445
-0.11591342 -0.1502953 0.24142927 -0.09092761 0.102649674 -0.09955917 0.13103971 0.67473876
0.14327921 0.10140546 -0.10044414 -0.13600163 -0.09642226 -0.07241539 0.086989835 0.14273927
