mat_model/model_name_CAE/Temp_model.pth (torch, 15206 bytes, 5 tensors)

layer1.weight f4 [64, 15]
-0.10767978 -0.37040532 0.02885587 -0.05344226 0.2504957 0.3390197 0.11970577 0.042384323
0.2195054 0.18593384 0.11764371 0.19012201 0.08307758 -0.17705512 0.22684373 -0.083253525
0.12243207 -0.1988995 -0.24384633 0.014578343 -0.03796081 0.16562419 0.0016158512 0.1393795
0.041151255 0.15219575 0.019342102 -0.054785 0.31297907 0.06979807 0.22300625 -0.19695804
0.26177028 -0.050608598 -0.514682 0.25057563 -0.14087515 0.22695328 0.18689142 -0.17063084
0.17413577 0.06944223 0.12855767 0.23005551 0.31654382 0.0018827565 -0.32615373 -0.003586693
-0.099052295 0.27379036 -0.030149268 0.23814994 0.22651264 -0.09669517 0.27465996 -0.26858085
0.17723091 0.13490699 0.11235632 0.06676278 -0.27120477 0.3411107 0.1351683 0.23430233
0.50667197 0.35298255 0.18870188 -0.15840344 -0.20758553 -0.0675375 0.39103094 -0.32847947
-0.08420564 0.20554316 0.040048417 -0.22445846 -0.043054443 -0.20884958 -0.2182249 0.26147652
0.19138059 -0.015797343 -0.17600735 0.07704585 0.13945752 -0.033380948 0.13598238 0.026048275
-0.08654694 0.09601031 -0.12722987 0.046335004 -0.00023900905 -0.20982139 0.2279495 0.1853756
-0.25137964 -0.026470551 0.11293002 -0.009095117 -0.22017261 -0.0022381607 -0.05437796 -0.14377832
-0.12578487 -0.01961894 0.092514805 -0.041911084 -0.05727674 0.24364996 0.19984832 -0.14752121
-0.18187542 0.24223362 0.050438985 -0.07235708 0.18269862 0.10601162 -0.21373281 -0.12792936
0.14153416 -0.009612281 0.081819214 -0.16441798 0.18086213 0.2559189 -0.2873569 0.1434881
0.033611845 0.2156272 0.005758282 -0.09493809 -0.17873874 -0.51702994 -0.011549811 -0.1197404
0.047659196 -0.1773424 0.13911188 -0.13119854 -0.40033987 -0.49902576 0.34731779 -0.3396613
0.44737664 -0.2661966 0.0058424226 0.019618597 0.06377829 0.5464522 -0.15033267 0.037607025
0.18748008 -0.10390418 0.023388406 0.0013072273 -0.20999667 -0.12901202 -0.21297152 0.2617681
0.10009594 -0.19764256 -0.12358958 -0.5801066 0.1784912 -0.2768381 -0.31093654 -0.11851502
0.01264819 0.02527217 -0.01440045 -0.0389401 -0.18533033 0.0081671635 0.30575722 0.24142124
-0.29056635 -0.12502243 -0.20607993 -0.10847096 -0.029362058 0.44077155 0.005113245 -0.050698116
-0.42444682 -0.1585097 0.25188386 0.06806473 -0.13275053 -0.14437859 0.5288436 -0.2600345
0.00010539796 -0.058946405 -0.20918307 0.24563396 0.06751688 -0.33653173 -0.07445135 -0.24714415
0.15896274 0.24229534 -0.095162265 0.1661543 -0.19841558 -0.25928855 -0.15435083 0.08301011
-0.07256017 0.19492224 0.12417589 0.19497971 -0.05447789 0.11565254 0.072813146 0.18877079
0.10697073 0.14764716 -0.013182552 0.1224344 0.02658138 0.038200136 -0.31115946 -0.006802947
0.2537361 0.106545955 0.123448215 0.14932624 0.2448211 0.20021963 -0.047359794 -0.036993567
0.22436883 0.24914242 0.04704523 -0.13312669 0.16139658 0.05727936 -0.009458032 0.24684064
0.18001094 0.1142667 0.13360281 0.26759008 0.2021263 0.07953158 -0.017138375 0.06353511
0.06861954 0.18660887 -0.17453736 0.1062415 0.07437782 0.15377858 -0.12670447 -0.046867277
00000000: 3787 dcbd c4a5 bdbe 2563 ec3c 45e6 5abd
00000010: f940 803e fd93 ad3e 4c28 f53d 2f9b 2d3d
00000020: 06c6 603e 7165 3e3e 2fef f03d 58af 423e
00000030: 9424 aa3d f04d 35be b949 683e d380 aabd
00000040: aabd fa3d 4fac 4bbe dab2 79be 01da 6e3c
00000050: cb7c 1bbd 6399 293e f8ca d33a 80b9 0e3e
00000060: 388e 283d 34d9 1b3e 5473 9e3c 3c66 60bd
00000070: cb3e a03e 4af2 8e3d c05b 643e 5eaf 49be
00000080: c106 863e f64a 4fbd 33c2 03bf 734b 803e
00000090: 9341 10be 7166 683e 7760 3f3e dab9 2ebe
000000a0: a650 323e ba37 8e3d 9fa4 033e ac93 6b3e
000000b0: 0812 a23e d3c6 f63a 9ffd a6be b90e 6bbb
000000c0: eedb cabd 402e 8c3e 99fb f6bc 94dd 733e
000000d0: eef2 673e 1e08 c6bd 3ba0 8c3e 6e83 89be
000000e0: 057c 353e 0f25 0a3e 121b e63d edba 883d
000000f0: 5adb 8abe 10a6 ae3e 8f69 0a3e f3ec 6f3e
00000100: 41b5 013f 21ba b43e 113b 413e 8334 22be
00000110: 4d91 54be 1a51 8abd 3535 c83e 762e a8be
00000120: 0274 acbd e879 523e cf09 243d 70d8 65be
00000130: db59 30bd aadc 55be 5976 5fbe 40e0 853e
00000140: 46f9 433e 6e69 81bc 453b 34be 37ca 9d3d
00000150: f4cd 0e3e 76ba 08bd f73e 0b3e 3163 d53c
00000160: 863f b1bd 0ea1 c43d 8c48 02be c6c9 3d3d
00000170: 819e 7ab9 6bdb 56be 986b 693e 1ad3 3d3e
00000180: d5b4 80be c5d8 d8bc db47 e73d b003 15bc
00000190: ee74 61be 1bae 12bb 6cbb 5ebd a03a 13be
000001a0: c0cd 00be e6b7 a0bc 6778 bd3d f5aa 2bbd
000001b0: 049b 6abd 607f 793e 0aa5 4c3e cd0f 17be
000001c0: 8d3d 3abe 170c 783e 1c99 4e3d f32f 94bd
000001d0: 5915 3b3e 9f1c d93d c6dc 5abe eaff 02be
000001e0: 55ee 103e d47c 1dbc d590 a73d 305d 28be
000001f0: ec33 393e cd07 833e 7220 93be 8bee 123e
00000200: 93ac 093d 60cd 5c3e f8af bc3b e76e c2bd
00000210: 4a07 37be 135c 04bf 6b3b 3dbc 743a f5bd
00000220: 4a36 433d 3f99 35be 5873 0e3e e958 06be
00000230: 59f9 ccbe 4e80 ffbe a3d3 b13e 16e8 adbe
00000240: 8d0e e53e ec4a 88be cb71 bf3b 2eb7 a03c
00000250: 319e 823d 4be4 0b3f cff0 19be d309 1a3d
00000260: c7fa 3f3e b7cb d4bd 0b99 bf3c 4557 ab3a
00000270: 5e09 57be ba1b 04be 3515 5abe 7806 863e
00000280: 1aff cc3d d062 4abe 891c fdbd de81 14bf
00000290: 66c6 363e b9bd 8dbe 1333 9fbe 01b8 f2bd
000002a0: 5b3a 4f3c 9507 cf3c ddef 6bbc a87f 1fbd
000002b0: 3cc7 3dbe 91cf 053c 368c 9c3e 2137 773e
000002c0: 1dc5 94be e105 00be 9e06 53be 0626 debd
000002d0: b388 f0bc cfac e13e 028d a73b d4a8 4fbd
000002e0: 1851 d9be 5e50 22be ecf6 803e 8565 8b3d
000002f0: c1ef 07be fbd7 13be 4b62 073f 3e23 85be
00000300: 1909 dd38 c971 71bd 1634 56be 7887 7b3e
00000310: 4a46 8a3d e34d acbe f379 98bd 5b13 7dbe
00000320: 21c7 223e 451c 783e 6fe4 c2bd 5a24 2a3e
00000330: 742d 4bbe 78c1 84be 250e 1ebe 3401 aa3d
00000340: 6d9a 94bd b299 473e ee4f fe3d c3a8 473e
00000350: 3524 5fbd 3ddb ec3d 0f1f 953d 214d 413e
00000360: 7813 db3d d130 173e a1fb 57bc e3be fa3d
00000370: 32c1 d93c bf77 1c3d 4b50 9fbe 41eb debb
00000380: b3e9 813e c434 da3d 6bd2 fc3d fae8 183e
00000390: 62b2 7a3e 6006 4d3e 58fc 41bd 9186 17bd
000003a0: f1c0 653e 311f 7f3e 80b2 403d 5d52 08be
000003b0: 2545 253e c39d 6a3d ddf5 1abc cbc3 7c3e
000003c0: ca54 383e a904 ea3d 2dcf 083e 9101 893e
000003d0: 32fa 4e3e 74e1 a23d c765 8cbc b21e 823d
000003e0: 6788 8c3d 6516 3f3e ecb9 32be 2595 d93d
000003f0: 6653 983d 2278 1d3e d1be 01be e7f7 3fbd

layer1.bias f4 [64]
-0.022689547 0.08479931 -0.115549065 -0.004080702 0.055844445 0.20316303 -0.24684584 -0.027878817
-0.0959995 -0.12763631 0.11580525 0.23790355 0.059930798 0.06292041 0.23763147 0.2490047
-0.022940658 -0.25923544 0.013141219 -0.111518264 0.14094596 0.20642306 0.19361457 -0.074466124
0.19409642 0.14700776 -0.025001038 0.02538861 -0.052701913 0.11404586 -0.24335784 -0.09850891
-0.075717 0.17602785 0.13920458 0.00013357733 0.05106845 -0.090287544 0.008304225 -0.028883385
-0.06017563 -0.21216388 0.12317573 -0.037766024 0.026898623 -0.0066635464 -0.14320008 0.25285557
-0.24176252 0.14995338 0.26438773 0.13105467 0.25027335 -0.008092367 0.18771099 -0.20363893
-0.037560686 0.0044999016 0.21203886 -0.25325468 -0.24620241 -0.20340054 0.1674441 0.12180784
00000000: 6edf b9bc 43ab ad3d fda4 ecbd 69b7 85bb
00000010: 25bd 643d f809 503e 28c5 7cbe 1e62 e4bc
00000020: 639b c4bd 18b3 02be 4e2b ed3d fd9c 733e
00000030: ff79 753d 6adc 803d aa55 733e 17fb 7e3e
00000040: 0cee bbbc 82ba 84be 444e 573c b063 e4bd
00000050: 2354 103e 9160 533e e642 463e b281 98bd
00000060: 36c1 463e 3489 163e face ccbc c6fb cf3c
00000070: f6dd 57bd e090 e93d cc32 79be 0abf c9bd
00000080: 8411 9bbd a540 343e a58b 0e3e e410 0c39
00000090: 272d 513d ade8 b8bd 720e 083c d99c ecbc
000000a0: b97a 76bd 7d41 59be 8f43 fc3d 8cb0 1abd
000000b0: 805a dc3c e159 dabb 0ba3 12be 4976 813e
000000c0: 9890 77be 618d 193e d45d 873e 3233 063e
000000d0: d423 803e d995 04bc 4f37 403e b986 50be
000000e0: 3cd9 19bd e973 933b b720 593e 99aa 81be
000000f0: 7c1c 7cbe 3b48 50be 7776 2b3e 6476 f93d

layer2.weight f4 [32, 64]
-0.018676598 -0.070599556 0.06648188 0.13683993 0.042397212 -0.037439976 -0.087552935 0.11614323
0.14584805 0.3608167 -0.06059512 -0.013375391 0.06766644 -0.09023076 -0.035510067 0.09715457
0.0022679465 -0.001211406 0.06562577 0.084106706 -0.030481081 0.12589192 0.11147724 0.14779675
0.11236769 -0.091336265 0.08481871 -0.025178537 0.010209203 0.090394996 0.05538374 0.11570792
0.43000507 0.10466074 0.20690006 0.16803688 -0.06612804 -0.17119524 0.1531203 0.13836949
-0.39351663 0.09640609 0.101608895 0.09776218 -0.044210657 -0.032639734 -0.26356834 0.004582591
-0.10815604 0.41104186 -0.009925706 0.018443186 -0.041313205 -0.043864887 0.06869451 -0.13001293
0.008223571 0.25290838 0.2680325 -0.022664756 -0.00325647 0.037009362 0.010866785 0.095410995
-0.015128271 -0.061196916 -0.11985875 0.0055642757 0.030139482 0.01631296 -0.047344133 -0.029810334
-0.009727695 0.36225748 0.09010631 0.1265054 0.22068124 0.13174808 0.13034467 0.10913081
-0.01702027 0.076237164 -0.060881842 -0.026823428 0.09348936 -0.030741341 0.07378259 0.102377385
-0.020417416 0.0996584 0.04498802 0.14039324 0.08602688 -0.014303605 0.008771688 0.07473798
0.5545543 -0.07698325 0.103674814 0.09505699 -0.0135819195 -0.13895966 -0.0430913 -0.0035136258
-0.40241796 0.052900642 0.136993 0.016434077 -0.0568337 0.1135855 -0.3077884 0.01486088
-0.045671955 0.33121943 0.15206528 0.115821704 0.0953693 0.108540416 0.14005238 -0.20594895
0.054124378 0.3275314 0.08927707 0.007142067 -0.046062008 -0.072357476 0.1093566 0.08872603
0.03633365 -0.04363313 0.05150792 -0.13140313 -0.058209013 0.0810382 0.1036236 0.07678802
-0.01989429 0.014253266 -0.11026687 -0.108671695 0.08995217 -0.025052652 0.0552224 0.0872637
-0.11176314 0.03248523 0.0075459927 -0.10868627 -0.1394013 -0.01596756 0.04784413 0.084579594
-0.07111323 -0.084357776 -0.11205637 -0.0035854885 -0.0012994489 -0.09495002 -0.09229143 -0.05995942
0.085113235 0.062435523 0.020244693 0.09914864 0.019411031 0.04125325 0.08147476 -0.102362975
-0.083485454 -0.06313002 -0.09511852 -0.039659828 0.02987355 -0.043073628 0.099828154 -0.10249158
-0.117184624 0.025166115 -0.018718021 0.043417197 0.010172225 -0.01230748 -0.056513548 -0.03661173
-0.07760325 0.023422185 0.024221437 -0.11653854 0.11742316 -0.002335513 -0.054787792 0.057846528
0.26726755 0.5039803 -1.0938838 0.13540049 0.559334 0.15567814 -0.116061985 0.0396743
0.4315319 -0.558285 -0.2598323 0.15778258 0.024912568 -0.48380867 -0.2034744 -0.008045638
-0.037188 0.024872407 -0.3030626 -0.53543913 -0.13549997 -0.100720234 -0.22838351 0.23037596
0.07690409 0.35320404 0.033149447 -0.41574124 0.17816424 0.11755235 -0.08750665 0.3867008
-0.28690588 0.18284956 0.025722006 0.39490294 0.4928428 -0.05224798 0.15580715 -0.13698554
0.24388747 -0.19467156 -0.036231376 -0.9566527 -0.0368781 0.49786437 0.36890292 -0.8882241
0.0578119 -0.059547268 -0.20792113 0.11646581 -0.057352398 -0.45567662 0.09028335 0.82642996
0.18428423 0.16445252 -0.001574163 0.07525957 -0.063942924 -0.113419056 -0.07518904 0.1702143
00000000: aaff 98bc 8096 90bd a727 883d c41f 0c3e
00000010: b3a8 2d3d a95a 19bd f44e b3bd 80dc ed3d
00000020: 3159 153e f7bc b83e 9732 78bd 7524 5bbc
00000030: b494 8a3d e8ca b8bd 0173 11bd faf8 c63d
00000040: d4a1 143b 0ac8 9eba ce66 863d 2340 ac3d
00000050: 76b3 f9bc d0e9 003e 2e4e e43d 0858 173e
00000060: 0821 e63d 820e bbbd 6fb5 ad3d 3843 cebc
00000070: 8044 273c 0321 b93d 10da 623d 46f8 ec3d
00000080: a029 dc3e 5f58 d63d 9cdd 533e dc11 2c3e
00000090: 236e 87bd ce4d 2fbe 91cb 1c3e bbb0 0d3e
000000a0: 037b c9be 8e70 c53d 5318 d03d 8a37 c83d
000000b0: 3c16 35bd 3eb1 05bd 6ef2 86be 8f29 963b
000000c0: ea80 ddbd 1474 d23e 6e9f 22bc 2a16 973c
000000d0: 0938 29bd abab 33bd b5af 8c3d 1c22 05be
000000e0: 28bc 063c 357d 813e 8e3b 893e 70ab b9bc
000000f0: 806a 55bb 2197 173d 9a0a 323c d766 c33d
00000100: 91dc 77bc 9ea9 7abd 8178 f5bd 8754 b63b
00000110: 13e7 f63c c2a2 853c eceb 41bd cd34 f4bc
00000120: e960 1fbc d079 b93e a889 b83d a28a 013e
00000130: 43fa 613e f8e8 063e 1379 053e f97f df3d
00000140: 186e 8bbc 3b22 9c3d 3d5f 79bd cebc dbbc
00000150: 5977 bf3d 44d5 fbbc 541b 973d 3cab d13d
00000160: 6d42 a7bc b419 cc3d 5c45 383d 3fc3 0f3e
00000170: dc2e b03d ab59 6abc 20b7 0f3c 3a10 993d
00000180: 45f7 0d3f 65a9 9dbd 7653 d43d 3dad c23d
00000190: b386 5ebc 714b 0ebe 8180 30bd dc44 66bb
000001a0: ba09 cebe 58ae 583d e547 0c3e c2a0 863c
000001b0: 74ca 68bd 849f e83d 7196 9dbe 0c7b 733c
000001c0: 8412 3bbd 9895 a93e 00b7 1b3e ee33 ed3d
000001d0: fb50 c33d 704a de3d e469 0f3e 48e4 52be
000001e0: 86b1 5d3d 32b2 a73e e5d6 b63d 0008 ea3b
000001f0: 84ab 3cbd 2830 94bd 5af6 df3d feb5 b53d
00000200: 98d2 143d a7b8 32bd f8f9 523d 8b8e 06be
00000210: 936c 6ebd 5bf7 a53d 9c38 d43d 0a43 9d3d
00000220: 5af9 a2bc 8886 693c 99d3 e1bd 448f debd
00000230: d838 b83d 383b cdbc e230 623d 50b7 b23d
00000240: 13e4 e4bd 3c0f 053d 6044 f73b e896 debd
00000250: 37bf 0ebe 66ce 82bc 35f8 433d 1138 ad3d
00000260: d0a3 91bd c5c3 acbd cf7d e5bd 84fa 6abb
00000270: 4552 aaba 2875 c2bd 4a03 bdbd 0298 75bd
00000280: d94f ae3d 64bc 7f3d 33d8 a53c 710e cb3d
00000290: e203 9f3c 2bf9 283d 3ddc a63d aea3 d1bd
000002a0: 6cfa aabd 504a 81bd 80cd c2bd 5872 22bd
000002b0: 60b9 f43c f96d 30bd b472 cc3d 1be7 d1bd
000002c0: 7efe efbd 2b29 ce3c 8956 99bc 3bd6 313d
000002d0: 67a9 263c 50a5 49bc c07a 67bd 2ef6 15bd
000002e0: 74ee 9ebd e2df bf3c 096c c63c c2ab eebd
000002f0: 8e7b f03d 680f 19bb 2a69 60bd 7bf0 6c3d
00000300: 4bd7 883e da04 013f 6204 8cbf 6da6 0a3e
00000310: 8330 0f3f 176a 1f3e e8b1 edbd 8581 223d
00000320: c0f1 dc3e c4eb 0ebf bd08 85be c291 213e
00000330: 7115 cc3c c5b5 f7be 985b 50be dad1 03bc
00000340: 7252 18bd 38c1 cb3c 052b 9bbe 8a12 09bf
00000350: 81c0 0abe 6946 cebd 5edd 69be ade7 6b3e
00000360: e47f 9d3d 29d7 b43e b7c7 073d 09dc d4be
00000370: b070 363e 49bf f03d b036 b3bd a6fd c53e
00000380: 54e5 92be ea3c 3b3e f5b6 d23c b830 ca3e
00000390: e455 fc3e fa01 56bd e98b 1f3e f045 0cbe
000003a0: a3bd 793e fb57 47be 5a67 14bd 31e7 74bf
000003b0: 7e0d 17bd 14e8 fe3e d8e0 bc3e a862 63bf
000003c0: 2ccc 6c3d d6e7 73bd 47e9 54be a085 ee3d
000003d0: 59ea 6abd 724e e9be 7ae6 b83d ea90 533f
000003e0: 01b5 3c3e 3e66 283e 2554 ceba b021 9a3d
000003f0: 82f4 82bd 4048 e8bd b6fc 99bd a84c 2e3e

layer2.bias f4 [32]
-0.025830964 0.04693087 -0.1434789 -0.23703696 -0.13858834 -0.014965666 0.07954879 -0.057867143
0.08706521 0.076232925 0.06603023 -0.0070401207 0.07181672 -0.022405015 0.03769615 0.045533493
0.08030548 -0.09022386 0.0077485223 -0.09348614 0.0046413946 0.037961394 0.034368068 -0.09648839
-0.060258076 0.027065901 -0.094540276 0.022142287 0.10464669 0.09549068 0.049980562 -0.15815586
00000000: 759b d3bc 953a 403d 22ec 12be d1b9 72be
00000010: 1aea 0dbe 8e32 75bc 7aea a23d 1906 6dbd
00000020: 3f4f b23d 0220 9c3d db3a 873d d0b0 e6bb
00000030: a514 933d b98a b7bc 4767 1a3d 5481 3a3d
00000040: 3377 a43d 4ac7 b8bd 51e7 fd3b a975 bfbd
00000050: d716 983b 687d 1b3d 88c5 0c3d b49b c5bd
00000060: 2cd1 76bd 4fb9 dd3c 559e c1bd be63 b53c
00000070: 0151 d63d 9e90 c33d 6bb8 4c3d 9cf3 21be

layer3.weight f4 [1, 32]
0.14504336 0.20432176 -0.12139154 -0.82732373 -0.07340295 0.14087056 -0.123052366 -0.050288886
-0.15171747 0.06292142 0.13569425 -0.07474669 -0.108998045 -0.15446028 0.17698064 0.039191484
-0.054765075 -0.15742275 -0.047572095 -0.13627659 -0.032202363 0.19648977 0.13797542 -0.14742193
0.046643153 0.16147986 -0.04869943 0.12845498 -0.08669584 -0.06854579 -0.15566051 -0.56285894
00000000: 3f86 143e b939 513e 219c f8bd 7dcb 53bf
00000010: 4954 96bd 5f40 103e e102 fcbd b8fb 4dbd
00000020: d35b 1bbe f2dc 803d 6ff3 0a3e cb14 99bd
00000030: 5e3a dfbd d62a 1ebe 6a3a 353e 4087 203d
00000040: 5851 60bd 6e33 21be f5da 42bd 178c 0bbe
00000050: a0e6 03bd 9d34 493e 6e49 0d3e c6f5 16be
00000060: e40c 3f3d fa5a 253e 0e79 47bd b489 033e
00000070: 978d b1bd bc61 8cbd 7865 1fbe 8617 10bf
